{"format": "graph-model", "generatedBy": "2.7.0", "convertedBy": "TensorFlow.js Converter v2.8.0", "signature": {"inputs": {"input_tensor:0": {"name": "input_tensor:0", "dtype": "DT_FLOAT", "tensorShape": {"dim": [{"size": "1"}, {"size": "-1"}, {"size": "-1"}, {"size": "3"}]}}}, "outputs": {"Identity:0": {"name": "Identity:0", "dtype": "DT_FLOAT", "tensorShape": {"dim": [{"size": "1"}, {"size": "2048"}]}}}}, "modelTopology": {"node": [{"name": "StatefulPartitionedCall/strided_slice/stack", "op": "Const", "attr": {"dtype": {"type": "DT_INT32"}, "value": {"tensor": {"dtype": "DT_INT32", "tensorShape": {"dim": [{"size": "2"}]}}}}}, {"name": "StatefulPartitionedCall/strided_slice/stack_1", "op": "Const", "attr": {"value": {"tensor": {"dtype": "DT_INT32", "tensorShape": {"dim": [{"size": "2"}]}}}, "dtype": {"type": "DT_INT32"}}}, {"name": "StatefulPartitionedCall/strided_slice/stack_2", "op": "Const", "attr": {"value": {"tensor": {"dtype": "DT_INT32", "tensorShape": {"dim": [{"size": "2"}]}}}, "dtype": {"type": "DT_INT32"}}}, {"name": "StatefulPartitionedCall/Const", "op": "Const", "attr": {"value": {"tensor": {"dtype": "DT_FLOAT", "tensorShape": {"dim": [{"size": "1"}, {"size": "1"}, {"size": "1"}, {"size": "3"}]}}}, "dtype": {"type": "DT_FLOAT"}}}, {"name": "input_tensor", "op": "Placeholder", "attr": {"dtype": {"type": "DT_FLOAT"}, "shape": {"shape": {"dim": [{"size": "1"}, {"size": "-1"}, {"size": "-1"}, {"size": "3"}]}}}}, {"name": "StatefulPartitionedCall/StatefulPartitionedCall/StatefulPartitionedCall/vggface_senet50/conv1/7x7_s2/Conv2D_weights", "op": "Const", "attr": {"dtype": {"type": "DT_FLOAT"}, "value": {"tensor": {"dtype": "DT_FLOAT", "tensorShape": {"dim": [{"size": "7"}, {"size": "7"}, {"size": "3"}, {"size": "64"}]}}}}}, {"name": "StatefulPartitionedCall/StatefulPartitionedCall/StatefulPartitionedCall/vggface_senet50/conv1/7x7_s2/Conv2D_bn_offset", "op": "Const", "attr": {"dtype": {"type": "DT_FLOAT"}, "value": {"tensor": {"dtype": "DT_FLOAT", "tensorShape": {"dim": [{"size": "64"}]}}}}}, {"name": "StatefulPartitionedCall/StatefulPartitionedCall/StatefulPartitionedCall/vggface_senet50/conv2_1_1x1_reduce/Conv2D_weights", "op": "Const", "attr": {"value": {"tensor": {"dtype": "DT_FLOAT", "tensorShape": {"dim": [{"size": "1"}, {"size": "1"}, {"size": "64"}, {"size": "64"}]}}}, "dtype": {"type": "DT_FLOAT"}}}, {"name": "StatefulPartitionedCall/StatefulPartitionedCall/StatefulPartitionedCall/vggface_senet50/conv2_1_1x1_reduce/Conv2D_bn_offset", "op": "Const", "attr": {"dtype": {"type": "DT_FLOAT"}, "value": {"tensor": {"dtype": "DT_FLOAT", "tensorShape": {"dim": [{"size": "64"}]}}}}}, {"name": "StatefulPartitionedCall/StatefulPartitionedCall/StatefulPartitionedCall/vggface_senet50/conv2_1_1x1_proj/Conv2D_weights", "op": "Const", "attr": {"dtype": {"type": "DT_FLOAT"}, "value": {"tensor": {"dtype": "DT_FLOAT", "tensorShape": {"dim": [{"size": "1"}, {"size": "1"}, {"size": "64"}, {"size": "256"}]}}}}}, {"name": "StatefulPartitionedCall/StatefulPartitionedCall/StatefulPartitionedCall/vggface_senet50/conv2_1_1x1_proj/Conv2D_bn_offset", "op": "Const", "attr": {"value": {"tensor": {"dtype": "DT_FLOAT", "tensorShape": {"dim": [{"size": "256"}]}}}, "dtype": {"type": "DT_FLOAT"}}}, {"name": "StatefulPartitionedCall/StatefulPartitionedCall/StatefulPartitionedCall/vggface_senet50/conv2_1_3x3/Conv2D_weights", "op": "Const", "attr": {"dtype": {"type": "DT_FLOAT"}, "value": {"tensor": {"dtype": "DT_FLOAT", "tensorShape": {"dim": [{"size": "3"}, {"size": "3"}, {"size": "64"}, {"size": "64"}]}}}}}, {"name": "StatefulPartitionedCall/StatefulPartitionedCall/StatefulPartitionedCall/vggface_senet50/conv2_1_3x3/Conv2D_bn_offset", "op": "Const", "attr": {"dtype": {"type": "DT_FLOAT"}, "value": {"tensor": {"dtype": "DT_FLOAT", "tensorShape": {"dim": [{"size": "64"}]}}}}}, {"name": "StatefulPartitionedCall/StatefulPartitionedCall/StatefulPartitionedCall/vggface_senet50/conv2_1_1x1_increase/Conv2D_weights", "op": "Const", "attr": {"value": {"tensor": {"dtype": "DT_FLOAT", "tensorShape": {"dim": [{"size": "1"}, {"size": "1"}, {"size": "64"}, {"size": "256"}]}}}, "dtype": {"type": "DT_FLOAT"}}}, {"name": "StatefulPartitionedCall/StatefulPartitionedCall/StatefulPartitionedCall/vggface_senet50/conv2_1_1x1_increase/Conv2D_bn_offset", "op": "Const", "attr": {"value": {"tensor": {"dtype": "DT_FLOAT", "tensorShape": {"dim": [{"size": "256"}]}}}, "dtype": {"type": "DT_FLOAT"}}}, {"name": "StatefulPartitionedCall/StatefulPartitionedCall/StatefulPartitionedCall/vggface_senet50/conv2_2_1x1_reduce/Conv2D_weights", "op": "Const", "attr": {"dtype": {"type": "DT_FLOAT"}, "value": {"tensor": {"dtype": "DT_FLOAT", "tensorShape": {"dim": [{"size": "1"}, {"size": "1"}, {"size": "256"}, {"size": "64"}]}}}}}, {"name": "StatefulPartitionedCall/StatefulPartitionedCall/StatefulPartitionedCall/vggface_senet50/conv2_2_1x1_reduce/Conv2D_bn_offset", "op": "Const", "attr": {"value": {"tensor": {"dtype": "DT_FLOAT", "tensorShape": {"dim": [{"size": "64"}]}}}, "dtype": {"type": "DT_FLOAT"}}}, {"name": "StatefulPartitionedCall/StatefulPartitionedCall/StatefulPartitionedCall/vggface_senet50/conv2_2_3x3/Conv2D_weights", "op": "Const", "attr": {"dtype": {"type": "DT_FLOAT"}, "value": {"tensor": {"dtype": "DT_FLOAT", "tensorShape": {"dim": [{"size": "3"}, {"size": "3"}, {"size": "64"}, {"size": "64"}]}}}}}, {"name": "StatefulPartitionedCall/StatefulPartitionedCall/StatefulPartitionedCall/vggface_senet50/conv2_2_3x3/Conv2D_bn_offset", "op": "Const", "attr": {"value": {"tensor": {"dtype": "DT_FLOAT", "tensorShape": {"dim": [{"size": "64"}]}}}, "dtype": {"type": "DT_FLOAT"}}}, {"name": "StatefulPartitionedCall/StatefulPartitionedCall/StatefulPartitionedCall/vggface_senet50/conv2_2_1x1_increase/Conv2D_weights", "op": "Const", "attr": {"value": {"tensor": {"dtype": "DT_FLOAT", "tensorShape": {"dim": [{"size": "1"}, {"size": "1"}, {"size": "64"}, {"size": "256"}]}}}, "dtype": {"type": "DT_FLOAT"}}}, {"name": "StatefulPartitionedCall/StatefulPartitionedCall/StatefulPartitionedCall/vggface_senet50/conv4_6_1x1_reduce/Conv2D_weights", "op": "Const", "attr": {"value": {"tensor": {"dtype": "DT_FLOAT", "tensorShape": {"dim": [{"size": "1"}, {"size": "1"}, {"size": "1024"}, {"size": "256"}]}}}, "dtype": {"type": "DT_FLOAT"}}}, {"name": "StatefulPartitionedCall/StatefulPartitionedCall/StatefulPartitionedCall/vggface_senet50/conv2_2_1x1_increase/Conv2D_bn_offset", "op": "Const", "attr": {"value": {"tensor": {"dtype": "DT_FLOAT", "tensorShape": {"dim": [{"size": "256"}]}}}, "dtype": {"type": "DT_FLOAT"}}}, {"name": "StatefulPartitionedCall/StatefulPartitionedCall/StatefulPartitionedCall/vggface_senet50/conv4_6_1x1_reduce/Conv2D_bn_offset", "op": "Const", "attr": {"value": {"tensor": {"dtype": "DT_FLOAT", "tensorShape": {"dim": [{"size": "256"}]}}}, "dtype": {"type": "DT_FLOAT"}}}, {"name": "StatefulPartitionedCall/StatefulPartitionedCall/StatefulPartitionedCall/vggface_senet50/conv2_3_1x1_reduce/Conv2D_weights", "op": "Const", "attr": {"dtype": {"type": "DT_FLOAT"}, "value": {"tensor": {"dtype": "DT_FLOAT", "tensorShape": {"dim": [{"size": "1"}, {"size": "1"}, {"size": "256"}, {"size": "64"}]}}}}}, {"name": "StatefulPartitionedCall/StatefulPartitionedCall/StatefulPartitionedCall/vggface_senet50/conv2_3_1x1_reduce/Conv2D_bn_offset", "op": "Const", "attr": {"dtype": {"type": "DT_FLOAT"}, "value": {"tensor": {"dtype": "DT_FLOAT", "tensorShape": {"dim": [{"size": "64"}]}}}}}, {"name": "StatefulPartitionedCall/StatefulPartitionedCall/StatefulPartitionedCall/vggface_senet50/conv4_6_3x3/Conv2D_weights", "op": "Const", "attr": {"dtype": {"type": "DT_FLOAT"}, "value": {"tensor": {"dtype": "DT_FLOAT", "tensorShape": {"dim": [{"size": "3"}, {"size": "3"}, {"size": "256"}, {"size": "256"}]}}}}}, {"name": "StatefulPartitionedCall/StatefulPartitionedCall/StatefulPartitionedCall/vggface_senet50/conv2_3_3x3/Conv2D_weights", "op": "Const", "attr": {"dtype": {"type": "DT_FLOAT"}, "value": {"tensor": {"dtype": "DT_FLOAT", "tensorShape": {"dim": [{"size": "3"}, {"size": "3"}, {"size": "64"}, {"size": "64"}]}}}}}, {"name": "StatefulPartitionedCall/StatefulPartitionedCall/StatefulPartitionedCall/vggface_senet50/conv5_3_1x1_reduce/Conv2D_weights", "op": "Const", "attr": {"value": {"tensor": {"dtype": "DT_FLOAT", "tensorShape": {"dim": [{"size": "1"}, {"size": "1"}, {"size": "2048"}, {"size": "512"}]}}}, "dtype": {"type": "DT_FLOAT"}}}, {"name": "StatefulPartitionedCall/StatefulPartitionedCall/StatefulPartitionedCall/vggface_senet50/conv2_3_3x3/Conv2D_bn_offset", "op": "Const", "attr": {"dtype": {"type": "DT_FLOAT"}, "value": {"tensor": {"dtype": "DT_FLOAT", "tensorShape": {"dim": [{"size": "64"}]}}}}}, {"name": "StatefulPartitionedCall/StatefulPartitionedCall/StatefulPartitionedCall/vggface_senet50/conv4_6_3x3/Conv2D_bn_offset", "op": "Const", "attr": {"value": {"tensor": {"dtype": "DT_FLOAT", "tensorShape": {"dim": [{"size": "256"}]}}}, "dtype": {"type": "DT_FLOAT"}}}, {"name": "StatefulPartitionedCall/StatefulPartitionedCall/StatefulPartitionedCall/vggface_senet50/conv2_3_1x1_increase/Conv2D_weights", "op": "Const", "attr": {"value": {"tensor": {"dtype": "DT_FLOAT", "tensorShape": {"dim": [{"size": "1"}, {"size": "1"}, {"size": "64"}, {"size": "256"}]}}}, "dtype": {"type": "DT_FLOAT"}}}, {"name": "StatefulPartitionedCall/StatefulPartitionedCall/StatefulPartitionedCall/vggface_senet50/conv2_3_1x1_increase/Conv2D_bn_offset", "op": "Const", "attr": {"value": {"tensor": {"dtype": "DT_FLOAT", "tensorShape": {"dim": [{"size": "256"}]}}}, "dtype": {"type": "DT_FLOAT"}}}, {"name": "StatefulPartitionedCall/StatefulPartitionedCall/StatefulPartitionedCall/vggface_senet50/conv4_6_1x1_increase/Conv2D_weights", "op": "Const", "attr": {"dtype": {"type": "DT_FLOAT"}, "value": {"tensor": {"dtype": "DT_FLOAT", "tensorShape": {"dim": [{"size": "1"}, {"size": "1"}, {"size": "256"}, {"size": "1024"}]}}}}}, {"name": "StatefulPartitionedCall/StatefulPartitionedCall/StatefulPartitionedCall/vggface_senet50/conv5_3_1x1_reduce/Conv2D_bn_offset", "op": "Const", "attr": {"dtype": {"type": "DT_FLOAT"}, "value": {"tensor": {"dtype": "DT_FLOAT", "tensorShape": {"dim": [{"size": "512"}]}}}}}, {"name": "StatefulPartitionedCall/StatefulPartitionedCall/StatefulPartitionedCall/vggface_senet50/conv3_1_1x1_reduce/Conv2D_weights", "op": "Const", "attr": {"dtype": {"type": "DT_FLOAT"}, "value": {"tensor": {"dtype": "DT_FLOAT", "tensorShape": {"dim": [{"size": "1"}, {"size": "1"}, {"size": "256"}, {"size": "128"}]}}}}}, {"name": "StatefulPartitionedCall/StatefulPartitionedCall/StatefulPartitionedCall/vggface_senet50/conv4_6_1x1_increase/Conv2D_bn_offset", "op": "Const", "attr": {"value": {"tensor": {"dtype": "DT_FLOAT", "tensorShape": {"dim": [{"size": "1024"}]}}}, "dtype": {"type": "DT_FLOAT"}}}, {"name": "StatefulPartitionedCall/StatefulPartitionedCall/StatefulPartitionedCall/vggface_senet50/conv3_1_1x1_reduce/Conv2D_bn_offset", "op": "Const", "attr": {"dtype": {"type": "DT_FLOAT"}, "value": {"tensor": {"dtype": "DT_FLOAT", "tensorShape": {"dim": [{"size": "128"}]}}}}}, {"name": "StatefulPartitionedCall/StatefulPartitionedCall/StatefulPartitionedCall/vggface_senet50/conv3_1_1x1_proj/Conv2D_weights", "op": "Const", "attr": {"value": {"tensor": {"dtype": "DT_FLOAT", "tensorShape": {"dim": [{"size": "1"}, {"size": "1"}, {"size": "256"}, {"size": "512"}]}}}, "dtype": {"type": "DT_FLOAT"}}}, {"name": "StatefulPartitionedCall/StatefulPartitionedCall/StatefulPartitionedCall/vggface_senet50/conv3_1_1x1_proj/Conv2D_bn_offset", "op": "Const", "attr": {"value": {"tensor": {"dtype": "DT_FLOAT", "tensorShape": {"dim": [{"size": "512"}]}}}, "dtype": {"type": "DT_FLOAT"}}}, {"name": "StatefulPartitionedCall/StatefulPartitionedCall/StatefulPartitionedCall/vggface_senet50/conv3_1_3x3/Conv2D_weights", "op": "Const", "attr": {"value": {"tensor": {"dtype": "DT_FLOAT", "tensorShape": {"dim": [{"size": "3"}, {"size": "3"}, {"size": "128"}, {"size": "128"}]}}}, "dtype": {"type": "DT_FLOAT"}}}, {"name": "StatefulPartitionedCall/StatefulPartitionedCall/StatefulPartitionedCall/vggface_senet50/conv3_1_3x3/Conv2D_bn_offset", "op": "Const", "attr": {"value": {"tensor": {"dtype": "DT_FLOAT", "tensorShape": {"dim": [{"size": "128"}]}}}, "dtype": {"type": "DT_FLOAT"}}}, {"name": "StatefulPartitionedCall/StatefulPartitionedCall/StatefulPartitionedCall/vggface_senet50/conv3_1_1x1_increase/Conv2D_weights", "op": "Const", "attr": {"value": {"tensor": {"dtype": "DT_FLOAT", "tensorShape": {"dim": [{"size": "1"}, {"size": "1"}, {"size": "128"}, {"size": "512"}]}}}, "dtype": {"type": "DT_FLOAT"}}}, {"name": "StatefulPartitionedCall/StatefulPartitionedCall/StatefulPartitionedCall/vggface_senet50/conv3_1_1x1_increase/Conv2D_bn_offset", "op": "Const", "attr": {"dtype": {"type": "DT_FLOAT"}, "value": {"tensor": {"dtype": "DT_FLOAT", "tensorShape": {"dim": [{"size": "512"}]}}}}}, {"name": "StatefulPartitionedCall/StatefulPartitionedCall/StatefulPartitionedCall/vggface_senet50/conv3_2_1x1_reduce/Conv2D_weights", "op": "Const", "attr": {"dtype": {"type": "DT_FLOAT"}, "value": {"tensor": {"dtype": "DT_FLOAT", "tensorShape": {"dim": [{"size": "1"}, {"size": "1"}, {"size": "512"}, {"size": "128"}]}}}}}, {"name": "StatefulPartitionedCall/StatefulPartitionedCall/StatefulPartitionedCall/vggface_senet50/conv3_2_1x1_reduce/Conv2D_bn_offset", "op": "Const", "attr": {"value": {"tensor": {"dtype": "DT_FLOAT", "tensorShape": {"dim": [{"size": "128"}]}}}, "dtype": {"type": "DT_FLOAT"}}}, {"name": "StatefulPartitionedCall/StatefulPartitionedCall/StatefulPartitionedCall/vggface_senet50/conv5_3_3x3/Conv2D_weights", "op": "Const", "attr": {"dtype": {"type": "DT_FLOAT"}, "value": {"tensor": {"dtype": "DT_FLOAT", "tensorShape": {"dim": [{"size": "3"}, {"size": "3"}, {"size": "512"}, {"size": "512"}]}}}}}, {"name": "StatefulPartitionedCall/StatefulPartitionedCall/StatefulPartitionedCall/vggface_senet50/conv3_2_3x3/Conv2D_weights", "op": "Const", "attr": {"dtype": {"type": "DT_FLOAT"}, "value": {"tensor": {"dtype": "DT_FLOAT", "tensorShape": {"dim": [{"size": "3"}, {"size": "3"}, {"size": "128"}, {"size": "128"}]}}}}}, {"name": "StatefulPartitionedCall/StatefulPartitionedCall/StatefulPartitionedCall/vggface_senet50/conv3_2_3x3/Conv2D_bn_offset", "op": "Const", "attr": {"value": {"tensor": {"dtype": "DT_FLOAT", "tensorShape": {"dim": [{"size": "128"}]}}}, "dtype": {"type": "DT_FLOAT"}}}, {"name": "StatefulPartitionedCall/StatefulPartitionedCall/StatefulPartitionedCall/vggface_senet50/conv3_2_1x1_increase/Conv2D_weights", "op": "Const", "attr": {"value": {"tensor": {"dtype": "DT_FLOAT", "tensorShape": {"dim": [{"size": "1"}, {"size": "1"}, {"size": "128"}, {"size": "512"}]}}}, "dtype": {"type": "DT_FLOAT"}}}, {"name": "StatefulPartitionedCall/StatefulPartitionedCall/StatefulPartitionedCall/vggface_senet50/conv3_2_1x1_increase/Conv2D_bn_offset", "op": "Const", "attr": {"value": {"tensor": {"dtype": "DT_FLOAT", "tensorShape": {"dim": [{"size": "512"}]}}}, "dtype": {"type": "DT_FLOAT"}}}, {"name": "StatefulPartitionedCall/StatefulPartitionedCall/StatefulPartitionedCall/vggface_senet50/conv5_1_1x1_reduce/Conv2D_weights", "op": "Const", "attr": {"value": {"tensor": {"dtype": "DT_FLOAT", "tensorShape": {"dim": [{"size": "1"}, {"size": "1"}, {"size": "1024"}, {"size": "512"}]}}}, "dtype": {"type": "DT_FLOAT"}}}, {"name": "StatefulPartitionedCall/StatefulPartitionedCall/StatefulPartitionedCall/vggface_senet50/conv3_3_1x1_reduce/Conv2D_weights", "op": "Const", "attr": {"dtype": {"type": "DT_FLOAT"}, "value": {"tensor": {"dtype": "DT_FLOAT", "tensorShape": {"dim": [{"size": "1"}, {"size": "1"}, {"size": "512"}, {"size": "128"}]}}}}}, {"name": "StatefulPartitionedCall/StatefulPartitionedCall/StatefulPartitionedCall/vggface_senet50/conv3_3_1x1_reduce/Conv2D_bn_offset", "op": "Const", "attr": {"value": {"tensor": {"dtype": "DT_FLOAT", "tensorShape": {"dim": [{"size": "128"}]}}}, "dtype": {"type": "DT_FLOAT"}}}, {"name": "StatefulPartitionedCall/StatefulPartitionedCall/StatefulPartitionedCall/vggface_senet50/conv5_1_1x1_reduce/Conv2D_bn_offset", "op": "Const", "attr": {"value": {"tensor": {"dtype": "DT_FLOAT", "tensorShape": {"dim": [{"size": "512"}]}}}, "dtype": {"type": "DT_FLOAT"}}}, {"name": "StatefulPartitionedCall/StatefulPartitionedCall/StatefulPartitionedCall/vggface_senet50/conv3_3_3x3/Conv2D_weights", "op": "Const", "attr": {"dtype": {"type": "DT_FLOAT"}, "value": {"tensor": {"dtype": "DT_FLOAT", "tensorShape": {"dim": [{"size": "3"}, {"size": "3"}, {"size": "128"}, {"size": "128"}]}}}}}, {"name": "StatefulPartitionedCall/StatefulPartitionedCall/StatefulPartitionedCall/vggface_senet50/conv5_3_3x3/Conv2D_bn_offset", "op": "Const", "attr": {"value": {"tensor": {"dtype": "DT_FLOAT", "tensorShape": {"dim": [{"size": "512"}]}}}, "dtype": {"type": "DT_FLOAT"}}}, {"name": "StatefulPartitionedCall/StatefulPartitionedCall/StatefulPartitionedCall/vggface_senet50/conv3_3_3x3/Conv2D_bn_offset", "op": "Const", "attr": {"dtype": {"type": "DT_FLOAT"}, "value": {"tensor": {"dtype": "DT_FLOAT", "tensorShape": {"dim": [{"size": "128"}]}}}}}, {"name": "StatefulPartitionedCall/StatefulPartitionedCall/StatefulPartitionedCall/vggface_senet50/conv3_3_1x1_increase/Conv2D_weights", "op": "Const", "attr": {"dtype": {"type": "DT_FLOAT"}, "value": {"tensor": {"dtype": "DT_FLOAT", "tensorShape": {"dim": [{"size": "1"}, {"size": "1"}, {"size": "128"}, {"size": "512"}]}}}}}, {"name": "StatefulPartitionedCall/StatefulPartitionedCall/StatefulPartitionedCall/vggface_senet50/conv5_1_1x1_proj/Conv2D_weights", "op": "Const", "attr": {"value": {"tensor": {"dtype": "DT_FLOAT", "tensorShape": {"dim": [{"size": "1"}, {"size": "1"}, {"size": "1024"}, {"size": "2048"}]}}}, "dtype": {"type": "DT_FLOAT"}}}, {"name": "StatefulPartitionedCall/StatefulPartitionedCall/StatefulPartitionedCall/vggface_senet50/conv3_3_1x1_increase/Conv2D_bn_offset", "op": "Const", "attr": {"dtype": {"type": "DT_FLOAT"}, "value": {"tensor": {"dtype": "DT_FLOAT", "tensorShape": {"dim": [{"size": "512"}]}}}}}, {"name": "StatefulPartitionedCall/StatefulPartitionedCall/StatefulPartitionedCall/vggface_senet50/conv5_1_1x1_proj/Conv2D_bn_offset", "op": "Const", "attr": {"value": {"tensor": {"dtype": "DT_FLOAT", "tensorShape": {"dim": [{"size": "2048"}]}}}, "dtype": {"type": "DT_FLOAT"}}}, {"name": "StatefulPartitionedCall/StatefulPartitionedCall/StatefulPartitionedCall/vggface_senet50/conv3_4_1x1_reduce/Conv2D_weights", "op": "Const", "attr": {"dtype": {"type": "DT_FLOAT"}, "value": {"tensor": {"dtype": "DT_FLOAT", "tensorShape": {"dim": [{"size": "1"}, {"size": "1"}, {"size": "512"}, {"size": "128"}]}}}}}, {"name": "StatefulPartitionedCall/StatefulPartitionedCall/StatefulPartitionedCall/vggface_senet50/conv5_1_3x3/Conv2D_weights", "op": "Const", "attr": {"value": {"tensor": {"dtype": "DT_FLOAT", "tensorShape": {"dim": [{"size": "3"}, {"size": "3"}, {"size": "512"}, {"size": "512"}]}}}, "dtype": {"type": "DT_FLOAT"}}}, {"name": "StatefulPartitionedCall/StatefulPartitionedCall/StatefulPartitionedCall/vggface_senet50/conv3_4_1x1_reduce/Conv2D_bn_offset", "op": "Const", "attr": {"value": {"tensor": {"dtype": "DT_FLOAT", "tensorShape": {"dim": [{"size": "128"}]}}}, "dtype": {"type": "DT_FLOAT"}}}, {"name": "StatefulPartitionedCall/StatefulPartitionedCall/StatefulPartitionedCall/vggface_senet50/conv3_4_3x3/Conv2D_weights", "op": "Const", "attr": {"dtype": {"type": "DT_FLOAT"}, "value": {"tensor": {"dtype": "DT_FLOAT", "tensorShape": {"dim": [{"size": "3"}, {"size": "3"}, {"size": "128"}, {"size": "128"}]}}}}}, {"name": "StatefulPartitionedCall/StatefulPartitionedCall/StatefulPartitionedCall/vggface_senet50/conv5_1_3x3/Conv2D_bn_offset", "op": "Const", "attr": {"dtype": {"type": "DT_FLOAT"}, "value": {"tensor": {"dtype": "DT_FLOAT", "tensorShape": {"dim": [{"size": "512"}]}}}}}, {"name": "StatefulPartitionedCall/StatefulPartitionedCall/StatefulPartitionedCall/vggface_senet50/conv3_4_3x3/Conv2D_bn_offset", "op": "Const", "attr": {"dtype": {"type": "DT_FLOAT"}, "value": {"tensor": {"dtype": "DT_FLOAT", "tensorShape": {"dim": [{"size": "128"}]}}}}}, {"name": "StatefulPartitionedCall/StatefulPartitionedCall/StatefulPartitionedCall/vggface_senet50/conv5_3_1x1_increase/Conv2D_weights", "op": "Const", "attr": {"value": {"tensor": {"dtype": "DT_FLOAT", "tensorShape": {"dim": [{"size": "1"}, {"size": "1"}, {"size": "512"}, {"size": "2048"}]}}}, "dtype": {"type": "DT_FLOAT"}}}, {"name": "StatefulPartitionedCall/StatefulPartitionedCall/StatefulPartitionedCall/vggface_senet50/conv3_4_1x1_increase/Conv2D_weights", "op": "Const", "attr": {"dtype": {"type": "DT_FLOAT"}, "value": {"tensor": {"dtype": "DT_FLOAT", "tensorShape": {"dim": [{"size": "1"}, {"size": "1"}, {"size": "128"}, {"size": "512"}]}}}}}, {"name": "StatefulPartitionedCall/StatefulPartitionedCall/StatefulPartitionedCall/vggface_senet50/conv3_4_1x1_increase/Conv2D_bn_offset", "op": "Const", "attr": {"value": {"tensor": {"dtype": "DT_FLOAT", "tensorShape": {"dim": [{"size": "512"}]}}}, "dtype": {"type": "DT_FLOAT"}}}, {"name": "StatefulPartitionedCall/StatefulPartitionedCall/StatefulPartitionedCall/vggface_senet50/conv5_1_1x1_increase/Conv2D_weights", "op": "Const", "attr": {"value": {"tensor": {"dtype": "DT_FLOAT", "tensorShape": {"dim": [{"size": "1"}, {"size": "1"}, {"size": "512"}, {"size": "2048"}]}}}, "dtype": {"type": "DT_FLOAT"}}}, {"name": "StatefulPartitionedCall/StatefulPartitionedCall/StatefulPartitionedCall/vggface_senet50/conv5_1_1x1_increase/Conv2D_bn_offset", "op": "Const", "attr": {"dtype": {"type": "DT_FLOAT"}, "value": {"tensor": {"dtype": "DT_FLOAT", "tensorShape": {"dim": [{"size": "2048"}]}}}}}, {"name": "StatefulPartitionedCall/StatefulPartitionedCall/StatefulPartitionedCall/vggface_senet50/conv4_1_1x1_reduce/Conv2D_weights", "op": "Const", "attr": {"value": {"tensor": {"dtype": "DT_FLOAT", "tensorShape": {"dim": [{"size": "1"}, {"size": "1"}, {"size": "512"}, {"size": "256"}]}}}, "dtype": {"type": "DT_FLOAT"}}}, {"name": "StatefulPartitionedCall/StatefulPartitionedCall/StatefulPartitionedCall/vggface_senet50/conv4_1_1x1_reduce/Conv2D_bn_offset", "op": "Const", "attr": {"dtype": {"type": "DT_FLOAT"}, "value": {"tensor": {"dtype": "DT_FLOAT", "tensorShape": {"dim": [{"size": "256"}]}}}}}, {"name": "StatefulPartitionedCall/StatefulPartitionedCall/StatefulPartitionedCall/vggface_senet50/conv4_1_1x1_proj/Conv2D_weights", "op": "Const", "attr": {"dtype": {"type": "DT_FLOAT"}, "value": {"tensor": {"dtype": "DT_FLOAT", "tensorShape": {"dim": [{"size": "1"}, {"size": "1"}, {"size": "512"}, {"size": "1024"}]}}}}}, {"name": "StatefulPartitionedCall/StatefulPartitionedCall/StatefulPartitionedCall/vggface_senet50/conv4_1_1x1_proj/Conv2D_bn_offset", "op": "Const", "attr": {"value": {"tensor": {"dtype": "DT_FLOAT", "tensorShape": {"dim": [{"size": "1024"}]}}}, "dtype": {"type": "DT_FLOAT"}}}, {"name": "StatefulPartitionedCall/StatefulPartitionedCall/StatefulPartitionedCall/vggface_senet50/conv4_1_3x3/Conv2D_weights", "op": "Const", "attr": {"value": {"tensor": {"dtype": "DT_FLOAT", "tensorShape": {"dim": [{"size": "3"}, {"size": "3"}, {"size": "256"}, {"size": "256"}]}}}, "dtype": {"type": "DT_FLOAT"}}}, {"name": "StatefulPartitionedCall/StatefulPartitionedCall/StatefulPartitionedCall/vggface_senet50/conv4_1_3x3/Conv2D_bn_offset", "op": "Const", "attr": {"value": {"tensor": {"dtype": "DT_FLOAT", "tensorShape": {"dim": [{"size": "256"}]}}}, "dtype": {"type": "DT_FLOAT"}}}, {"name": "StatefulPartitionedCall/StatefulPartitionedCall/StatefulPartitionedCall/vggface_senet50/conv4_1_1x1_increase/Conv2D_weights", "op": "Const", "attr": {"value": {"tensor": {"dtype": "DT_FLOAT", "tensorShape": {"dim": [{"size": "1"}, {"size": "1"}, {"size": "256"}, {"size": "1024"}]}}}, "dtype": {"type": "DT_FLOAT"}}}, {"name": "StatefulPartitionedCall/StatefulPartitionedCall/StatefulPartitionedCall/vggface_senet50/conv4_1_1x1_increase/Conv2D_bn_offset", "op": "Const", "attr": {"value": {"tensor": {"dtype": "DT_FLOAT", "tensorShape": {"dim": [{"size": "1024"}]}}}, "dtype": {"type": "DT_FLOAT"}}}, {"name": "StatefulPartitionedCall/StatefulPartitionedCall/StatefulPartitionedCall/vggface_senet50/conv5_3_1x1_increase/Conv2D_bn_offset", "op": "Const", "attr": {"dtype": {"type": "DT_FLOAT"}, "value": {"tensor": {"dtype": "DT_FLOAT", "tensorShape": {"dim": [{"size": "2048"}]}}}}}, {"name": "StatefulPartitionedCall/StatefulPartitionedCall/StatefulPartitionedCall/vggface_senet50/conv4_2_1x1_reduce/Conv2D_weights", "op": "Const", "attr": {"value": {"tensor": {"dtype": "DT_FLOAT", "tensorShape": {"dim": [{"size": "1"}, {"size": "1"}, {"size": "1024"}, {"size": "256"}]}}}, "dtype": {"type": "DT_FLOAT"}}}, {"name": "StatefulPartitionedCall/StatefulPartitionedCall/StatefulPartitionedCall/vggface_senet50/conv4_2_1x1_reduce/Conv2D_bn_offset", "op": "Const", "attr": {"value": {"tensor": {"dtype": "DT_FLOAT", "tensorShape": {"dim": [{"size": "256"}]}}}, "dtype": {"type": "DT_FLOAT"}}}, {"name": "StatefulPartitionedCall/StatefulPartitionedCall/StatefulPartitionedCall/vggface_senet50/conv4_2_3x3/Conv2D_weights", "op": "Const", "attr": {"dtype": {"type": "DT_FLOAT"}, "value": {"tensor": {"dtype": "DT_FLOAT", "tensorShape": {"dim": [{"size": "3"}, {"size": "3"}, {"size": "256"}, {"size": "256"}]}}}}}, {"name": "StatefulPartitionedCall/StatefulPartitionedCall/StatefulPartitionedCall/vggface_senet50/conv4_2_3x3/Conv2D_bn_offset", "op": "Const", "attr": {"dtype": {"type": "DT_FLOAT"}, "value": {"tensor": {"dtype": "DT_FLOAT", "tensorShape": {"dim": [{"size": "256"}]}}}}}, {"name": "StatefulPartitionedCall/StatefulPartitionedCall/StatefulPartitionedCall/vggface_senet50/conv4_2_1x1_increase/Conv2D_weights", "op": "Const", "attr": {"dtype": {"type": "DT_FLOAT"}, "value": {"tensor": {"dtype": "DT_FLOAT", "tensorShape": {"dim": [{"size": "1"}, {"size": "1"}, {"size": "256"}, {"size": "1024"}]}}}}}, {"name": "StatefulPartitionedCall/StatefulPartitionedCall/StatefulPartitionedCall/vggface_senet50/conv4_2_1x1_increase/Conv2D_bn_offset", "op": "Const", "attr": {"value": {"tensor": {"dtype": "DT_FLOAT", "tensorShape": {"dim": [{"size": "1024"}]}}}, "dtype": {"type": "DT_FLOAT"}}}, {"name": "StatefulPartitionedCall/StatefulPartitionedCall/StatefulPartitionedCall/vggface_senet50/conv5_2_1x1_reduce/Conv2D_weights", "op": "Const", "attr": {"dtype": {"type": "DT_FLOAT"}, "value": {"tensor": {"dtype": "DT_FLOAT", "tensorShape": {"dim": [{"size": "1"}, {"size": "1"}, {"size": "2048"}, {"size": "512"}]}}}}}, {"name": "StatefulPartitionedCall/StatefulPartitionedCall/StatefulPartitionedCall/vggface_senet50/conv4_3_1x1_reduce/Conv2D_weights", "op": "Const", "attr": {"dtype": {"type": "DT_FLOAT"}, "value": {"tensor": {"dtype": "DT_FLOAT", "tensorShape": {"dim": [{"size": "1"}, {"size": "1"}, {"size": "1024"}, {"size": "256"}]}}}}}, {"name": "StatefulPartitionedCall/StatefulPartitionedCall/StatefulPartitionedCall/vggface_senet50/conv5_2_1x1_reduce/Conv2D_bn_offset", "op": "Const", "attr": {"dtype": {"type": "DT_FLOAT"}, "value": {"tensor": {"dtype": "DT_FLOAT", "tensorShape": {"dim": [{"size": "512"}]}}}}}, {"name": "StatefulPartitionedCall/StatefulPartitionedCall/StatefulPartitionedCall/vggface_senet50/conv4_3_1x1_reduce/Conv2D_bn_offset", "op": "Const", "attr": {"dtype": {"type": "DT_FLOAT"}, "value": {"tensor": {"dtype": "DT_FLOAT", "tensorShape": {"dim": [{"size": "256"}]}}}}}, {"name": "StatefulPartitionedCall/StatefulPartitionedCall/StatefulPartitionedCall/vggface_senet50/conv4_3_3x3/Conv2D_weights", "op": "Const", "attr": {"dtype": {"type": "DT_FLOAT"}, "value": {"tensor": {"dtype": "DT_FLOAT", "tensorShape": {"dim": [{"size": "3"}, {"size": "3"}, {"size": "256"}, {"size": "256"}]}}}}}, {"name": "StatefulPartitionedCall/StatefulPartitionedCall/StatefulPartitionedCall/vggface_senet50/conv4_3_3x3/Conv2D_bn_offset", "op": "Const", "attr": {"value": {"tensor": {"dtype": "DT_FLOAT", "tensorShape": {"dim": [{"size": "256"}]}}}, "dtype": {"type": "DT_FLOAT"}}}, {"name": "StatefulPartitionedCall/StatefulPartitionedCall/StatefulPartitionedCall/vggface_senet50/conv5_2_3x3/Conv2D_weights", "op": "Const", "attr": {"value": {"tensor": {"dtype": "DT_FLOAT", "tensorShape": {"dim": [{"size": "3"}, {"size": "3"}, {"size": "512"}, {"size": "512"}]}}}, "dtype": {"type": "DT_FLOAT"}}}, {"name": "StatefulPartitionedCall/StatefulPartitionedCall/StatefulPartitionedCall/vggface_senet50/conv4_3_1x1_increase/Conv2D_weights", "op": "Const", "attr": {"value": {"tensor": {"dtype": "DT_FLOAT", "tensorShape": {"dim": [{"size": "1"}, {"size": "1"}, {"size": "256"}, {"size": "1024"}]}}}, "dtype": {"type": "DT_FLOAT"}}}, {"name": "StatefulPartitionedCall/StatefulPartitionedCall/StatefulPartitionedCall/vggface_senet50/conv4_3_1x1_increase/Conv2D_bn_offset", "op": "Const", "attr": {"dtype": {"type": "DT_FLOAT"}, "value": {"tensor": {"dtype": "DT_FLOAT", "tensorShape": {"dim": [{"size": "1024"}]}}}}}, {"name": "StatefulPartitionedCall/StatefulPartitionedCall/StatefulPartitionedCall/vggface_senet50/conv5_2_3x3/Conv2D_bn_offset", "op": "Const", "attr": {"value": {"tensor": {"dtype": "DT_FLOAT", "tensorShape": {"dim": [{"size": "512"}]}}}, "dtype": {"type": "DT_FLOAT"}}}, {"name": "StatefulPartitionedCall/StatefulPartitionedCall/StatefulPartitionedCall/vggface_senet50/conv4_4_1x1_reduce/Conv2D_weights", "op": "Const", "attr": {"value": {"tensor": {"dtype": "DT_FLOAT", "tensorShape": {"dim": [{"size": "1"}, {"size": "1"}, {"size": "1024"}, {"size": "256"}]}}}, "dtype": {"type": "DT_FLOAT"}}}, {"name": "StatefulPartitionedCall/StatefulPartitionedCall/StatefulPartitionedCall/vggface_senet50/conv5_2_1x1_increase/Conv2D_weights", "op": "Const", "attr": {"value": {"tensor": {"dtype": "DT_FLOAT", "tensorShape": {"dim": [{"size": "1"}, {"size": "1"}, {"size": "512"}, {"size": "2048"}]}}}, "dtype": {"type": "DT_FLOAT"}}}, {"name": "StatefulPartitionedCall/StatefulPartitionedCall/StatefulPartitionedCall/vggface_senet50/conv4_4_1x1_reduce/Conv2D_bn_offset", "op": "Const", "attr": {"dtype": {"type": "DT_FLOAT"}, "value": {"tensor": {"dtype": "DT_FLOAT", "tensorShape": {"dim": [{"size": "256"}]}}}}}, {"name": "StatefulPartitionedCall/StatefulPartitionedCall/StatefulPartitionedCall/vggface_senet50/conv4_4_3x3/Conv2D_weights", "op": "Const", "attr": {"value": {"tensor": {"dtype": "DT_FLOAT", "tensorShape": {"dim": [{"size": "3"}, {"size": "3"}, {"size": "256"}, {"size": "256"}]}}}, "dtype": {"type": "DT_FLOAT"}}}, {"name": "StatefulPartitionedCall/StatefulPartitionedCall/StatefulPartitionedCall/vggface_senet50/conv5_2_1x1_increase/Conv2D_bn_offset", "op": "Const", "attr": {"dtype": {"type": "DT_FLOAT"}, "value": {"tensor": {"dtype": "DT_FLOAT", "tensorShape": {"dim": [{"size": "2048"}]}}}}}, {"name": "StatefulPartitionedCall/StatefulPartitionedCall/StatefulPartitionedCall/vggface_senet50/conv4_4_3x3/Conv2D_bn_offset", "op": "Const", "attr": {"value": {"tensor": {"dtype": "DT_FLOAT", "tensorShape": {"dim": [{"size": "256"}]}}}, "dtype": {"type": "DT_FLOAT"}}}, {"name": "StatefulPartitionedCall/StatefulPartitionedCall/StatefulPartitionedCall/vggface_senet50/conv4_4_1x1_increase/Conv2D_weights", "op": "Const", "attr": {"value": {"tensor": {"dtype": "DT_FLOAT", "tensorShape": {"dim": [{"size": "1"}, {"size": "1"}, {"size": "256"}, {"size": "1024"}]}}}, "dtype": {"type": "DT_FLOAT"}}}, {"name": "StatefulPartitionedCall/StatefulPartitionedCall/StatefulPartitionedCall/vggface_senet50/conv4_4_1x1_increase/Conv2D_bn_offset", "op": "Const", "attr": {"dtype": {"type": "DT_FLOAT"}, "value": {"tensor": {"dtype": "DT_FLOAT", "tensorShape": {"dim": [{"size": "1024"}]}}}}}, {"name": "StatefulPartitionedCall/StatefulPartitionedCall/StatefulPartitionedCall/vggface_senet50/conv4_5_1x1_reduce/Conv2D_weights", "op": "Const", "attr": {"dtype": {"type": "DT_FLOAT"}, "value": {"tensor": {"dtype": "DT_FLOAT", "tensorShape": {"dim": [{"size": "1"}, {"size": "1"}, {"size": "1024"}, {"size": "256"}]}}}}}, {"name": "StatefulPartitionedCall/StatefulPartitionedCall/StatefulPartitionedCall/vggface_senet50/conv4_5_1x1_reduce/Conv2D_bn_offset", "op": "Const", "attr": {"value": {"tensor": {"dtype": "DT_FLOAT", "tensorShape": {"dim": [{"size": "256"}]}}}, "dtype": {"type": "DT_FLOAT"}}}, {"name": "StatefulPartitionedCall/StatefulPartitionedCall/StatefulPartitionedCall/vggface_senet50/conv4_5_3x3/Conv2D_weights", "op": "Const", "attr": {"dtype": {"type": "DT_FLOAT"}, "value": {"tensor": {"dtype": "DT_FLOAT", "tensorShape": {"dim": [{"size": "3"}, {"size": "3"}, {"size": "256"}, {"size": "256"}]}}}}}, {"name": "StatefulPartitionedCall/StatefulPartitionedCall/StatefulPartitionedCall/vggface_senet50/conv4_5_3x3/Conv2D_bn_offset", "op": "Const", "attr": {"value": {"tensor": {"dtype": "DT_FLOAT", "tensorShape": {"dim": [{"size": "256"}]}}}, "dtype": {"type": "DT_FLOAT"}}}, {"name": "StatefulPartitionedCall/StatefulPartitionedCall/StatefulPartitionedCall/vggface_senet50/conv4_5_1x1_increase/Conv2D_weights", "op": "Const", "attr": {"dtype": {"type": "DT_FLOAT"}, "value": {"tensor": {"dtype": "DT_FLOAT", "tensorShape": {"dim": [{"size": "1"}, {"size": "1"}, {"size": "256"}, {"size": "1024"}]}}}}}, {"name": "StatefulPartitionedCall/StatefulPartitionedCall/StatefulPartitionedCall/vggface_senet50/conv4_5_1x1_increase/Conv2D_bn_offset", "op": "Const", "attr": {"value": {"tensor": {"dtype": "DT_FLOAT", "tensorShape": {"dim": [{"size": "1024"}]}}}, "dtype": {"type": "DT_FLOAT"}}}, {"name": "StatefulPartitionedCall/strided_slice", "op": "StridedSlice", "input": ["input_tensor", "StatefulPartitionedCall/strided_slice/stack", "StatefulPartitionedCall/strided_slice/stack_1", "StatefulPartitionedCall/strided_slice/stack_2"], "attr": {"shrink_axis_mask": {"i": "0"}, "new_axis_mask": {"i": "0"}, "T": {"type": "DT_FLOAT"}, "ellipsis_mask": {"i": "1"}, "end_mask": {"i": "2"}, "Index": {"type": "DT_INT32"}, "begin_mask": {"i": "2"}}}, {"name": "StatefulPartitionedCall/sub", "op": "Sub", "input": ["StatefulPartitionedCall/strided_slice", "StatefulPartitionedCall/Const"], "attr": {"T": {"type": "DT_FLOAT"}}}, {"name": "StatefulPartitionedCall/StatefulPartitionedCall/StatefulPartitionedCall/vggface_senet50/global_average_pooling2d_16/Mean/reduction_indices", "op": "Const", "input": ["^StatefulPartitionedCall/sub"], "attr": {"value": {"tensor": {"dtype": "DT_INT32", "tensorShape": {"dim": [{"size": "2"}]}}}, "dtype": {"type": "DT_INT32"}}}, {"name": "StatefulPartitionedCall/StatefulPartitionedCall/StatefulPartitionedCall/vggface_senet50/reshape_16/strided_slice/stack", "op": "Const", "input": ["^StatefulPartitionedCall/sub"], "attr": {"dtype": {"type": "DT_INT32"}, "value": {"tensor": {"dtype": "DT_INT32", "tensorShape": {"dim": [{"size": "1"}]}}}}}, {"name": "StatefulPartitionedCall/StatefulPartitionedCall/StatefulPartitionedCall/vggface_senet50/reshape_16/strided_slice/stack_1", "op": "Const", "input": ["^StatefulPartitionedCall/sub"], "attr": {"dtype": {"type": "DT_INT32"}, "value": {"tensor": {"dtype": "DT_INT32", "tensorShape": {"dim": [{"size": "1"}]}}}}}, {"name": "StatefulPartitionedCall/StatefulPartitionedCall/StatefulPartitionedCall/vggface_senet50/reshape_16/strided_slice/stack_2", "op": "Const", "input": ["^StatefulPartitionedCall/sub"], "attr": {"dtype": {"type": "DT_INT32"}, "value": {"tensor": {"dtype": "DT_INT32", "tensorShape": {"dim": [{"size": "1"}]}}}}}, {"name": "StatefulPartitionedCall/StatefulPartitionedCall/StatefulPartitionedCall/vggface_senet50/reshape_16/Reshape/shape/1", "op": "Const", "input": ["^StatefulPartitionedCall/sub"], "attr": {"value": {"tensor": {"dtype": "DT_INT32", "tensorShape": {}}}, "dtype": {"type": "DT_INT32"}}}, {"name": "StatefulPartitionedCall/StatefulPartitionedCall/StatefulPartitionedCall/vggface_senet50/reshape_16/Reshape/shape/2", "op": "Const", "input": ["^StatefulPartitionedCall/sub"], "attr": {"value": {"tensor": {"dtype": "DT_INT32", "tensorShape": {}}}, "dtype": {"type": "DT_INT32"}}}, {"name": "StatefulPartitionedCall/StatefulPartitionedCall/StatefulPartitionedCall/vggface_senet50/reshape_16/Reshape/shape/3", "op": "Const", "input": ["^StatefulPartitionedCall/sub"], "attr": {"dtype": {"type": "DT_INT32"}, "value": {"tensor": {"dtype": "DT_INT32", "tensorShape": {}}}}}, {"name": "StatefulPartitionedCall/StatefulPartitionedCall/StatefulPartitionedCall/vggface_senet50/conv5_3_1x1_down/Conv2D/ReadVariableOp", "op": "Const", "input": ["^StatefulPartitionedCall/sub"], "attr": {"value": {"tensor": {"dtype": "DT_FLOAT", "tensorShape": {"dim": [{"size": "1"}, {"size": "1"}, {"size": "2048"}, {"size": "128"}]}}}, "dtype": {"type": "DT_FLOAT"}}}, {"name": "StatefulPartitionedCall/StatefulPartitionedCall/StatefulPartitionedCall/vggface_senet50/conv5_3_1x1_down/BiasAdd/ReadVariableOp", "op": "Const", "input": ["^StatefulPartitionedCall/sub"], "attr": {"value": {"tensor": {"dtype": "DT_FLOAT", "tensorShape": {"dim": [{"size": "128"}]}}}, "dtype": {"type": "DT_FLOAT"}}}, {"name": "StatefulPartitionedCall/StatefulPartitionedCall/StatefulPartitionedCall/vggface_senet50/conv5_3_1x1_up/Conv2D/ReadVariableOp", "op": "Const", "input": ["^StatefulPartitionedCall/sub"], "attr": {"value": {"tensor": {"dtype": "DT_FLOAT", "tensorShape": {"dim": [{"size": "1"}, {"size": "1"}, {"size": "128"}, {"size": "2048"}]}}}, "dtype": {"type": "DT_FLOAT"}}}, {"name": "StatefulPartitionedCall/StatefulPartitionedCall/StatefulPartitionedCall/vggface_senet50/conv5_3_1x1_up/BiasAdd/ReadVariableOp", "op": "Const", "input": ["^StatefulPartitionedCall/sub"], "attr": {"value": {"tensor": {"dtype": "DT_FLOAT", "tensorShape": {"dim": [{"size": "2048"}]}}}, "dtype": {"type": "DT_FLOAT"}}}, {"name": "StatefulPartitionedCall/StatefulPartitionedCall/StatefulPartitionedCall/vggface_senet50/global_average_pooling2d_15/Mean/reduction_indices", "op": "Const", "input": ["^StatefulPartitionedCall/sub"], "attr": {"value": {"tensor": {"dtype": "DT_INT32", "tensorShape": {"dim": [{"size": "2"}]}}}, "dtype": {"type": "DT_INT32"}}}, {"name": "StatefulPartitionedCall/StatefulPartitionedCall/StatefulPartitionedCall/vggface_senet50/reshape_15/strided_slice/stack", "op": "Const", "input": ["^StatefulPartitionedCall/sub"], "attr": {"dtype": {"type": "DT_INT32"}, "value": {"tensor": {"dtype": "DT_INT32", "tensorShape": {"dim": [{"size": "1"}]}}}}}, {"name": "StatefulPartitionedCall/StatefulPartitionedCall/StatefulPartitionedCall/vggface_senet50/reshape_15/strided_slice/stack_1", "op": "Const", "input": ["^StatefulPartitionedCall/sub"], "attr": {"dtype": {"type": "DT_INT32"}, "value": {"tensor": {"dtype": "DT_INT32", "tensorShape": {"dim": [{"size": "1"}]}}}}}, {"name": "StatefulPartitionedCall/StatefulPartitionedCall/StatefulPartitionedCall/vggface_senet50/reshape_15/strided_slice/stack_2", "op": "Const", "input": ["^StatefulPartitionedCall/sub"], "attr": {"value": {"tensor": {"dtype": "DT_INT32", "tensorShape": {"dim": [{"size": "1"}]}}}, "dtype": {"type": "DT_INT32"}}}, {"name": "StatefulPartitionedCall/StatefulPartitionedCall/StatefulPartitionedCall/vggface_senet50/reshape_15/Reshape/shape/1", "op": "Const", "input": ["^StatefulPartitionedCall/sub"], "attr": {"dtype": {"type": "DT_INT32"}, "value": {"tensor": {"dtype": "DT_INT32", "tensorShape": {}}}}}, {"name": "StatefulPartitionedCall/StatefulPartitionedCall/StatefulPartitionedCall/vggface_senet50/reshape_15/Reshape/shape/2", "op": "Const", "input": ["^StatefulPartitionedCall/sub"], "attr": {"value": {"tensor": {"dtype": "DT_INT32", "tensorShape": {}}}, "dtype": {"type": "DT_INT32"}}}, {"name": "StatefulPartitionedCall/StatefulPartitionedCall/StatefulPartitionedCall/vggface_senet50/reshape_15/Reshape/shape/3", "op": "Const", "input": ["^StatefulPartitionedCall/sub"], "attr": {"dtype": {"type": "DT_INT32"}, "value": {"tensor": {"dtype": "DT_INT32", "tensorShape": {}}}}}, {"name": "StatefulPartitionedCall/StatefulPartitionedCall/StatefulPartitionedCall/vggface_senet50/conv5_2_1x1_down/Conv2D/ReadVariableOp", "op": "Const", "input": ["^StatefulPartitionedCall/sub"], "attr": {"value": {"tensor": {"dtype": "DT_FLOAT", "tensorShape": {"dim": [{"size": "1"}, {"size": "1"}, {"size": "2048"}, {"size": "128"}]}}}, "dtype": {"type": "DT_FLOAT"}}}, {"name": "StatefulPartitionedCall/StatefulPartitionedCall/StatefulPartitionedCall/vggface_senet50/conv5_2_1x1_down/BiasAdd/ReadVariableOp", "op": "Const", "input": ["^StatefulPartitionedCall/sub"], "attr": {"dtype": {"type": "DT_FLOAT"}, "value": {"tensor": {"dtype": "DT_FLOAT", "tensorShape": {"dim": [{"size": "128"}]}}}}}, {"name": "StatefulPartitionedCall/StatefulPartitionedCall/StatefulPartitionedCall/vggface_senet50/conv5_2_1x1_up/Conv2D/ReadVariableOp", "op": "Const", "input": ["^StatefulPartitionedCall/sub"], "attr": {"dtype": {"type": "DT_FLOAT"}, "value": {"tensor": {"dtype": "DT_FLOAT", "tensorShape": {"dim": [{"size": "1"}, {"size": "1"}, {"size": "128"}, {"size": "2048"}]}}}}}, {"name": "StatefulPartitionedCall/StatefulPartitionedCall/StatefulPartitionedCall/vggface_senet50/conv5_2_1x1_up/BiasAdd/ReadVariableOp", "op": "Const", "input": ["^StatefulPartitionedCall/sub"], "attr": {"dtype": {"type": "DT_FLOAT"}, "value": {"tensor": {"dtype": "DT_FLOAT", "tensorShape": {"dim": [{"size": "2048"}]}}}}}, {"name": "StatefulPartitionedCall/StatefulPartitionedCall/StatefulPartitionedCall/vggface_senet50/global_average_pooling2d_14/Mean/reduction_indices", "op": "Const", "input": ["^StatefulPartitionedCall/sub"], "attr": {"value": {"tensor": {"dtype": "DT_INT32", "tensorShape": {"dim": [{"size": "2"}]}}}, "dtype": {"type": "DT_INT32"}}}, {"name": "StatefulPartitionedCall/StatefulPartitionedCall/StatefulPartitionedCall/vggface_senet50/reshape_14/strided_slice/stack", "op": "Const", "input": ["^StatefulPartitionedCall/sub"], "attr": {"value": {"tensor": {"dtype": "DT_INT32", "tensorShape": {"dim": [{"size": "1"}]}}}, "dtype": {"type": "DT_INT32"}}}, {"name": "StatefulPartitionedCall/StatefulPartitionedCall/StatefulPartitionedCall/vggface_senet50/reshape_14/strided_slice/stack_1", "op": "Const", "input": ["^StatefulPartitionedCall/sub"], "attr": {"dtype": {"type": "DT_INT32"}, "value": {"tensor": {"dtype": "DT_INT32", "tensorShape": {"dim": [{"size": "1"}]}}}}}, {"name": "StatefulPartitionedCall/StatefulPartitionedCall/StatefulPartitionedCall/vggface_senet50/reshape_14/strided_slice/stack_2", "op": "Const", "input": ["^StatefulPartitionedCall/sub"], "attr": {"dtype": {"type": "DT_INT32"}, "value": {"tensor": {"dtype": "DT_INT32", "tensorShape": {"dim": [{"size": "1"}]}}}}}, {"name": "StatefulPartitionedCall/StatefulPartitionedCall/StatefulPartitionedCall/vggface_senet50/reshape_14/Reshape/shape/1", "op": "Const", "input": ["^StatefulPartitionedCall/sub"], "attr": {"value": {"tensor": {"dtype": "DT_INT32", "tensorShape": {}}}, "dtype": {"type": "DT_INT32"}}}, {"name": "StatefulPartitionedCall/StatefulPartitionedCall/StatefulPartitionedCall/vggface_senet50/reshape_14/Reshape/shape/2", "op": "Const", "input": ["^StatefulPartitionedCall/sub"], "attr": {"dtype": {"type": "DT_INT32"}, "value": {"tensor": {"dtype": "DT_INT32", "tensorShape": {}}}}}, {"name": "StatefulPartitionedCall/StatefulPartitionedCall/StatefulPartitionedCall/vggface_senet50/reshape_14/Reshape/shape/3", "op": "Const", "input": ["^StatefulPartitionedCall/sub"], "attr": {"dtype": {"type": "DT_INT32"}, "value": {"tensor": {"dtype": "DT_INT32", "tensorShape": {}}}}}, {"name": "StatefulPartitionedCall/StatefulPartitionedCall/StatefulPartitionedCall/vggface_senet50/conv5_1_1x1_down/Conv2D/ReadVariableOp", "op": "Const", "input": ["^StatefulPartitionedCall/sub"], "attr": {"value": {"tensor": {"dtype": "DT_FLOAT", "tensorShape": {"dim": [{"size": "1"}, {"size": "1"}, {"size": "2048"}, {"size": "128"}]}}}, "dtype": {"type": "DT_FLOAT"}}}, {"name": "StatefulPartitionedCall/StatefulPartitionedCall/StatefulPartitionedCall/vggface_senet50/conv5_1_1x1_down/BiasAdd/ReadVariableOp", "op": "Const", "input": ["^StatefulPartitionedCall/sub"], "attr": {"dtype": {"type": "DT_FLOAT"}, "value": {"tensor": {"dtype": "DT_FLOAT", "tensorShape": {"dim": [{"size": "128"}]}}}}}, {"name": "StatefulPartitionedCall/StatefulPartitionedCall/StatefulPartitionedCall/vggface_senet50/conv5_1_1x1_up/Conv2D/ReadVariableOp", "op": "Const", "input": ["^StatefulPartitionedCall/sub"], "attr": {"dtype": {"type": "DT_FLOAT"}, "value": {"tensor": {"dtype": "DT_FLOAT", "tensorShape": {"dim": [{"size": "1"}, {"size": "1"}, {"size": "128"}, {"size": "2048"}]}}}}}, {"name": "StatefulPartitionedCall/StatefulPartitionedCall/StatefulPartitionedCall/vggface_senet50/conv5_1_1x1_up/BiasAdd/ReadVariableOp", "op": "Const", "input": ["^StatefulPartitionedCall/sub"], "attr": {"dtype": {"type": "DT_FLOAT"}, "value": {"tensor": {"dtype": "DT_FLOAT", "tensorShape": {"dim": [{"size": "2048"}]}}}}}, {"name": "StatefulPartitionedCall/StatefulPartitionedCall/StatefulPartitionedCall/vggface_senet50/global_average_pooling2d_13/Mean/reduction_indices", "op": "Const", "input": ["^StatefulPartitionedCall/sub"], "attr": {"dtype": {"type": "DT_INT32"}, "value": {"tensor": {"dtype": "DT_INT32", "tensorShape": {"dim": [{"size": "2"}]}}}}}, {"name": "StatefulPartitionedCall/StatefulPartitionedCall/StatefulPartitionedCall/vggface_senet50/reshape_13/strided_slice/stack", "op": "Const", "input": ["^StatefulPartitionedCall/sub"], "attr": {"dtype": {"type": "DT_INT32"}, "value": {"tensor": {"dtype": "DT_INT32", "tensorShape": {"dim": [{"size": "1"}]}}}}}, {"name": "StatefulPartitionedCall/StatefulPartitionedCall/StatefulPartitionedCall/vggface_senet50/reshape_13/strided_slice/stack_1", "op": "Const", "input": ["^StatefulPartitionedCall/sub"], "attr": {"dtype": {"type": "DT_INT32"}, "value": {"tensor": {"dtype": "DT_INT32", "tensorShape": {"dim": [{"size": "1"}]}}}}}, {"name": "StatefulPartitionedCall/StatefulPartitionedCall/StatefulPartitionedCall/vggface_senet50/reshape_13/strided_slice/stack_2", "op": "Const", "input": ["^StatefulPartitionedCall/sub"], "attr": {"value": {"tensor": {"dtype": "DT_INT32", "tensorShape": {"dim": [{"size": "1"}]}}}, "dtype": {"type": "DT_INT32"}}}, {"name": "StatefulPartitionedCall/StatefulPartitionedCall/StatefulPartitionedCall/vggface_senet50/reshape_13/Reshape/shape/1", "op": "Const", "input": ["^StatefulPartitionedCall/sub"], "attr": {"value": {"tensor": {"dtype": "DT_INT32", "tensorShape": {}}}, "dtype": {"type": "DT_INT32"}}}, {"name": "StatefulPartitionedCall/StatefulPartitionedCall/StatefulPartitionedCall/vggface_senet50/reshape_13/Reshape/shape/2", "op": "Const", "input": ["^StatefulPartitionedCall/sub"], "attr": {"value": {"tensor": {"dtype": "DT_INT32", "tensorShape": {}}}, "dtype": {"type": "DT_INT32"}}}, {"name": "StatefulPartitionedCall/StatefulPartitionedCall/StatefulPartitionedCall/vggface_senet50/reshape_13/Reshape/shape/3", "op": "Const", "input": ["^StatefulPartitionedCall/sub"], "attr": {"dtype": {"type": "DT_INT32"}, "value": {"tensor": {"dtype": "DT_INT32", "tensorShape": {}}}}}, {"name": "StatefulPartitionedCall/StatefulPartitionedCall/StatefulPartitionedCall/vggface_senet50/conv4_6_1x1_down/Conv2D/ReadVariableOp", "op": "Const", "input": ["^StatefulPartitionedCall/sub"], "attr": {"value": {"tensor": {"dtype": "DT_FLOAT", "tensorShape": {"dim": [{"size": "1"}, {"size": "1"}, {"size": "1024"}, {"size": "64"}]}}}, "dtype": {"type": "DT_FLOAT"}}}, {"name": "StatefulPartitionedCall/StatefulPartitionedCall/StatefulPartitionedCall/vggface_senet50/conv4_6_1x1_down/BiasAdd/ReadVariableOp", "op": "Const", "input": ["^StatefulPartitionedCall/sub"], "attr": {"dtype": {"type": "DT_FLOAT"}, "value": {"tensor": {"dtype": "DT_FLOAT", "tensorShape": {"dim": [{"size": "64"}]}}}}}, {"name": "StatefulPartitionedCall/StatefulPartitionedCall/StatefulPartitionedCall/vggface_senet50/conv4_6_1x1_up/Conv2D/ReadVariableOp", "op": "Const", "input": ["^StatefulPartitionedCall/sub"], "attr": {"dtype": {"type": "DT_FLOAT"}, "value": {"tensor": {"dtype": "DT_FLOAT", "tensorShape": {"dim": [{"size": "1"}, {"size": "1"}, {"size": "64"}, {"size": "1024"}]}}}}}, {"name": "StatefulPartitionedCall/StatefulPartitionedCall/StatefulPartitionedCall/vggface_senet50/conv4_6_1x1_up/BiasAdd/ReadVariableOp", "op": "Const", "input": ["^StatefulPartitionedCall/sub"], "attr": {"dtype": {"type": "DT_FLOAT"}, "value": {"tensor": {"dtype": "DT_FLOAT", "tensorShape": {"dim": [{"size": "1024"}]}}}}}, {"name": "StatefulPartitionedCall/StatefulPartitionedCall/StatefulPartitionedCall/vggface_senet50/global_average_pooling2d_12/Mean/reduction_indices", "op": "Const", "input": ["^StatefulPartitionedCall/sub"], "attr": {"value": {"tensor": {"dtype": "DT_INT32", "tensorShape": {"dim": [{"size": "2"}]}}}, "dtype": {"type": "DT_INT32"}}}, {"name": "StatefulPartitionedCall/StatefulPartitionedCall/StatefulPartitionedCall/vggface_senet50/reshape_12/strided_slice/stack", "op": "Const", "input": ["^StatefulPartitionedCall/sub"], "attr": {"dtype": {"type": "DT_INT32"}, "value": {"tensor": {"dtype": "DT_INT32", "tensorShape": {"dim": [{"size": "1"}]}}}}}, {"name": "StatefulPartitionedCall/StatefulPartitionedCall/StatefulPartitionedCall/vggface_senet50/reshape_12/strided_slice/stack_1", "op": "Const", "input": ["^StatefulPartitionedCall/sub"], "attr": {"dtype": {"type": "DT_INT32"}, "value": {"tensor": {"dtype": "DT_INT32", "tensorShape": {"dim": [{"size": "1"}]}}}}}, {"name": "StatefulPartitionedCall/StatefulPartitionedCall/StatefulPartitionedCall/vggface_senet50/reshape_12/strided_slice/stack_2", "op": "Const", "input": ["^StatefulPartitionedCall/sub"], "attr": {"value": {"tensor": {"dtype": "DT_INT32", "tensorShape": {"dim": [{"size": "1"}]}}}, "dtype": {"type": "DT_INT32"}}}, {"name": "StatefulPartitionedCall/StatefulPartitionedCall/StatefulPartitionedCall/vggface_senet50/reshape_12/Reshape/shape/1", "op": "Const", "input": ["^StatefulPartitionedCall/sub"], "attr": {"value": {"tensor": {"dtype": "DT_INT32", "tensorShape": {}}}, "dtype": {"type": "DT_INT32"}}}, {"name": "StatefulPartitionedCall/StatefulPartitionedCall/StatefulPartitionedCall/vggface_senet50/reshape_12/Reshape/shape/2", "op": "Const", "input": ["^StatefulPartitionedCall/sub"], "attr": {"dtype": {"type": "DT_INT32"}, "value": {"tensor": {"dtype": "DT_INT32", "tensorShape": {}}}}}, {"name": "StatefulPartitionedCall/StatefulPartitionedCall/StatefulPartitionedCall/vggface_senet50/reshape_12/Reshape/shape/3", "op": "Const", "input": ["^StatefulPartitionedCall/sub"], "attr": {"dtype": {"type": "DT_INT32"}, "value": {"tensor": {"dtype": "DT_INT32", "tensorShape": {}}}}}, {"name": "StatefulPartitionedCall/StatefulPartitionedCall/StatefulPartitionedCall/vggface_senet50/conv4_5_1x1_down/Conv2D/ReadVariableOp", "op": "Const", "input": ["^StatefulPartitionedCall/sub"], "attr": {"value": {"tensor": {"dtype": "DT_FLOAT", "tensorShape": {"dim": [{"size": "1"}, {"size": "1"}, {"size": "1024"}, {"size": "64"}]}}}, "dtype": {"type": "DT_FLOAT"}}}, {"name": "StatefulPartitionedCall/StatefulPartitionedCall/StatefulPartitionedCall/vggface_senet50/conv4_5_1x1_down/BiasAdd/ReadVariableOp", "op": "Const", "input": ["^StatefulPartitionedCall/sub"], "attr": {"dtype": {"type": "DT_FLOAT"}, "value": {"tensor": {"dtype": "DT_FLOAT", "tensorShape": {"dim": [{"size": "64"}]}}}}}, {"name": "StatefulPartitionedCall/StatefulPartitionedCall/StatefulPartitionedCall/vggface_senet50/conv4_5_1x1_up/Conv2D/ReadVariableOp", "op": "Const", "input": ["^StatefulPartitionedCall/sub"], "attr": {"dtype": {"type": "DT_FLOAT"}, "value": {"tensor": {"dtype": "DT_FLOAT", "tensorShape": {"dim": [{"size": "1"}, {"size": "1"}, {"size": "64"}, {"size": "1024"}]}}}}}, {"name": "StatefulPartitionedCall/StatefulPartitionedCall/StatefulPartitionedCall/vggface_senet50/conv4_5_1x1_up/BiasAdd/ReadVariableOp", "op": "Const", "input": ["^StatefulPartitionedCall/sub"], "attr": {"dtype": {"type": "DT_FLOAT"}, "value": {"tensor": {"dtype": "DT_FLOAT", "tensorShape": {"dim": [{"size": "1024"}]}}}}}, {"name": "StatefulPartitionedCall/StatefulPartitionedCall/StatefulPartitionedCall/vggface_senet50/global_average_pooling2d_11/Mean/reduction_indices", "op": "Const", "input": ["^StatefulPartitionedCall/sub"], "attr": {"dtype": {"type": "DT_INT32"}, "value": {"tensor": {"dtype": "DT_INT32", "tensorShape": {"dim": [{"size": "2"}]}}}}}, {"name": "StatefulPartitionedCall/StatefulPartitionedCall/StatefulPartitionedCall/vggface_senet50/reshape_11/strided_slice/stack", "op": "Const", "input": ["^StatefulPartitionedCall/sub"], "attr": {"dtype": {"type": "DT_INT32"}, "value": {"tensor": {"dtype": "DT_INT32", "tensorShape": {"dim": [{"size": "1"}]}}}}}, {"name": "StatefulPartitionedCall/StatefulPartitionedCall/StatefulPartitionedCall/vggface_senet50/reshape_11/strided_slice/stack_1", "op": "Const", "input": ["^StatefulPartitionedCall/sub"], "attr": {"dtype": {"type": "DT_INT32"}, "value": {"tensor": {"dtype": "DT_INT32", "tensorShape": {"dim": [{"size": "1"}]}}}}}, {"name": "StatefulPartitionedCall/StatefulPartitionedCall/StatefulPartitionedCall/vggface_senet50/reshape_11/strided_slice/stack_2", "op": "Const", "input": ["^StatefulPartitionedCall/sub"], "attr": {"dtype": {"type": "DT_INT32"}, "value": {"tensor": {"dtype": "DT_INT32", "tensorShape": {"dim": [{"size": "1"}]}}}}}, {"name": "StatefulPartitionedCall/StatefulPartitionedCall/StatefulPartitionedCall/vggface_senet50/reshape_11/Reshape/shape/1", "op": "Const", "input": ["^StatefulPartitionedCall/sub"], "attr": {"value": {"tensor": {"dtype": "DT_INT32", "tensorShape": {}}}, "dtype": {"type": "DT_INT32"}}}, {"name": "StatefulPartitionedCall/StatefulPartitionedCall/StatefulPartitionedCall/vggface_senet50/reshape_11/Reshape/shape/2", "op": "Const", "input": ["^StatefulPartitionedCall/sub"], "attr": {"value": {"tensor": {"dtype": "DT_INT32", "tensorShape": {}}}, "dtype": {"type": "DT_INT32"}}}, {"name": "StatefulPartitionedCall/StatefulPartitionedCall/StatefulPartitionedCall/vggface_senet50/reshape_11/Reshape/shape/3", "op": "Const", "input": ["^StatefulPartitionedCall/sub"], "attr": {"value": {"tensor": {"dtype": "DT_INT32", "tensorShape": {}}}, "dtype": {"type": "DT_INT32"}}}, {"name": "StatefulPartitionedCall/StatefulPartitionedCall/StatefulPartitionedCall/vggface_senet50/conv4_4_1x1_down/Conv2D/ReadVariableOp", "op": "Const", "input": ["^StatefulPartitionedCall/sub"], "attr": {"value": {"tensor": {"dtype": "DT_FLOAT", "tensorShape": {"dim": [{"size": "1"}, {"size": "1"}, {"size": "1024"}, {"size": "64"}]}}}, "dtype": {"type": "DT_FLOAT"}}}, {"name": "StatefulPartitionedCall/StatefulPartitionedCall/StatefulPartitionedCall/vggface_senet50/conv4_4_1x1_down/BiasAdd/ReadVariableOp", "op": "Const", "input": ["^StatefulPartitionedCall/sub"], "attr": {"value": {"tensor": {"dtype": "DT_FLOAT", "tensorShape": {"dim": [{"size": "64"}]}}}, "dtype": {"type": "DT_FLOAT"}}}, {"name": "StatefulPartitionedCall/StatefulPartitionedCall/StatefulPartitionedCall/vggface_senet50/conv4_4_1x1_up/Conv2D/ReadVariableOp", "op": "Const", "input": ["^StatefulPartitionedCall/sub"], "attr": {"value": {"tensor": {"dtype": "DT_FLOAT", "tensorShape": {"dim": [{"size": "1"}, {"size": "1"}, {"size": "64"}, {"size": "1024"}]}}}, "dtype": {"type": "DT_FLOAT"}}}, {"name": "StatefulPartitionedCall/StatefulPartitionedCall/StatefulPartitionedCall/vggface_senet50/conv4_4_1x1_up/BiasAdd/ReadVariableOp", "op": "Const", "input": ["^StatefulPartitionedCall/sub"], "attr": {"value": {"tensor": {"dtype": "DT_FLOAT", "tensorShape": {"dim": [{"size": "1024"}]}}}, "dtype": {"type": "DT_FLOAT"}}}, {"name": "StatefulPartitionedCall/StatefulPartitionedCall/StatefulPartitionedCall/vggface_senet50/global_average_pooling2d_10/Mean/reduction_indices", "op": "Const", "input": ["^StatefulPartitionedCall/sub"], "attr": {"dtype": {"type": "DT_INT32"}, "value": {"tensor": {"dtype": "DT_INT32", "tensorShape": {"dim": [{"size": "2"}]}}}}}, {"name": "StatefulPartitionedCall/StatefulPartitionedCall/StatefulPartitionedCall/vggface_senet50/reshape_10/strided_slice/stack", "op": "Const", "input": ["^StatefulPartitionedCall/sub"], "attr": {"dtype": {"type": "DT_INT32"}, "value": {"tensor": {"dtype": "DT_INT32", "tensorShape": {"dim": [{"size": "1"}]}}}}}, {"name": "StatefulPartitionedCall/StatefulPartitionedCall/StatefulPartitionedCall/vggface_senet50/reshape_10/strided_slice/stack_1", "op": "Const", "input": ["^StatefulPartitionedCall/sub"], "attr": {"dtype": {"type": "DT_INT32"}, "value": {"tensor": {"dtype": "DT_INT32", "tensorShape": {"dim": [{"size": "1"}]}}}}}, {"name": "StatefulPartitionedCall/StatefulPartitionedCall/StatefulPartitionedCall/vggface_senet50/reshape_10/strided_slice/stack_2", "op": "Const", "input": ["^StatefulPartitionedCall/sub"], "attr": {"value": {"tensor": {"dtype": "DT_INT32", "tensorShape": {"dim": [{"size": "1"}]}}}, "dtype": {"type": "DT_INT32"}}}, {"name": "StatefulPartitionedCall/StatefulPartitionedCall/StatefulPartitionedCall/vggface_senet50/reshape_10/Reshape/shape/1", "op": "Const", "input": ["^StatefulPartitionedCall/sub"], "attr": {"value": {"tensor": {"dtype": "DT_INT32", "tensorShape": {}}}, "dtype": {"type": "DT_INT32"}}}, {"name": "StatefulPartitionedCall/StatefulPartitionedCall/StatefulPartitionedCall/vggface_senet50/reshape_10/Reshape/shape/2", "op": "Const", "input": ["^StatefulPartitionedCall/sub"], "attr": {"dtype": {"type": "DT_INT32"}, "value": {"tensor": {"dtype": "DT_INT32", "tensorShape": {}}}}}, {"name": "StatefulPartitionedCall/StatefulPartitionedCall/StatefulPartitionedCall/vggface_senet50/reshape_10/Reshape/shape/3", "op": "Const", "input": ["^StatefulPartitionedCall/sub"], "attr": {"value": {"tensor": {"dtype": "DT_INT32", "tensorShape": {}}}, "dtype": {"type": "DT_INT32"}}}, {"name": "StatefulPartitionedCall/StatefulPartitionedCall/StatefulPartitionedCall/vggface_senet50/conv4_3_1x1_down/Conv2D/ReadVariableOp", "op": "Const", "input": ["^StatefulPartitionedCall/sub"], "attr": {"value": {"tensor": {"dtype": "DT_FLOAT", "tensorShape": {"dim": [{"size": "1"}, {"size": "1"}, {"size": "1024"}, {"size": "64"}]}}}, "dtype": {"type": "DT_FLOAT"}}}, {"name": "StatefulPartitionedCall/StatefulPartitionedCall/StatefulPartitionedCall/vggface_senet50/conv4_3_1x1_down/BiasAdd/ReadVariableOp", "op": "Const", "input": ["^StatefulPartitionedCall/sub"], "attr": {"value": {"tensor": {"dtype": "DT_FLOAT", "tensorShape": {"dim": [{"size": "64"}]}}}, "dtype": {"type": "DT_FLOAT"}}}, {"name": "StatefulPartitionedCall/StatefulPartitionedCall/StatefulPartitionedCall/vggface_senet50/conv4_3_1x1_up/Conv2D/ReadVariableOp", "op": "Const", "input": ["^StatefulPartitionedCall/sub"], "attr": {"value": {"tensor": {"dtype": "DT_FLOAT", "tensorShape": {"dim": [{"size": "1"}, {"size": "1"}, {"size": "64"}, {"size": "1024"}]}}}, "dtype": {"type": "DT_FLOAT"}}}, {"name": "StatefulPartitionedCall/StatefulPartitionedCall/StatefulPartitionedCall/vggface_senet50/conv4_3_1x1_up/BiasAdd/ReadVariableOp", "op": "Const", "input": ["^StatefulPartitionedCall/sub"], "attr": {"value": {"tensor": {"dtype": "DT_FLOAT", "tensorShape": {"dim": [{"size": "1024"}]}}}, "dtype": {"type": "DT_FLOAT"}}}, {"name": "StatefulPartitionedCall/StatefulPartitionedCall/StatefulPartitionedCall/vggface_senet50/global_average_pooling2d_9/Mean/reduction_indices", "op": "Const", "input": ["^StatefulPartitionedCall/sub"], "attr": {"value": {"tensor": {"dtype": "DT_INT32", "tensorShape": {"dim": [{"size": "2"}]}}}, "dtype": {"type": "DT_INT32"}}}, {"name": "StatefulPartitionedCall/StatefulPartitionedCall/StatefulPartitionedCall/vggface_senet50/reshape_9/strided_slice/stack", "op": "Const", "input": ["^StatefulPartitionedCall/sub"], "attr": {"value": {"tensor": {"dtype": "DT_INT32", "tensorShape": {"dim": [{"size": "1"}]}}}, "dtype": {"type": "DT_INT32"}}}, {"name": "StatefulPartitionedCall/StatefulPartitionedCall/StatefulPartitionedCall/vggface_senet50/reshape_9/strided_slice/stack_1", "op": "Const", "input": ["^StatefulPartitionedCall/sub"], "attr": {"value": {"tensor": {"dtype": "DT_INT32", "tensorShape": {"dim": [{"size": "1"}]}}}, "dtype": {"type": "DT_INT32"}}}, {"name": "StatefulPartitionedCall/StatefulPartitionedCall/StatefulPartitionedCall/vggface_senet50/reshape_9/strided_slice/stack_2", "op": "Const", "input": ["^StatefulPartitionedCall/sub"], "attr": {"value": {"tensor": {"dtype": "DT_INT32", "tensorShape": {"dim": [{"size": "1"}]}}}, "dtype": {"type": "DT_INT32"}}}, {"name": "StatefulPartitionedCall/StatefulPartitionedCall/StatefulPartitionedCall/vggface_senet50/reshape_9/Reshape/shape/1", "op": "Const", "input": ["^StatefulPartitionedCall/sub"], "attr": {"value": {"tensor": {"dtype": "DT_INT32", "tensorShape": {}}}, "dtype": {"type": "DT_INT32"}}}, {"name": "StatefulPartitionedCall/StatefulPartitionedCall/StatefulPartitionedCall/vggface_senet50/reshape_9/Reshape/shape/2", "op": "Const", "input": ["^StatefulPartitionedCall/sub"], "attr": {"dtype": {"type": "DT_INT32"}, "value": {"tensor": {"dtype": "DT_INT32", "tensorShape": {}}}}}, {"name": "StatefulPartitionedCall/StatefulPartitionedCall/StatefulPartitionedCall/vggface_senet50/reshape_9/Reshape/shape/3", "op": "Const", "input": ["^StatefulPartitionedCall/sub"], "attr": {"value": {"tensor": {"dtype": "DT_INT32", "tensorShape": {}}}, "dtype": {"type": "DT_INT32"}}}, {"name": "StatefulPartitionedCall/StatefulPartitionedCall/StatefulPartitionedCall/vggface_senet50/conv4_2_1x1_down/Conv2D/ReadVariableOp", "op": "Const", "input": ["^StatefulPartitionedCall/sub"], "attr": {"value": {"tensor": {"dtype": "DT_FLOAT", "tensorShape": {"dim": [{"size": "1"}, {"size": "1"}, {"size": "1024"}, {"size": "64"}]}}}, "dtype": {"type": "DT_FLOAT"}}}, {"name": "StatefulPartitionedCall/StatefulPartitionedCall/StatefulPartitionedCall/vggface_senet50/conv4_2_1x1_down/BiasAdd/ReadVariableOp", "op": "Const", "input": ["^StatefulPartitionedCall/sub"], "attr": {"value": {"tensor": {"dtype": "DT_FLOAT", "tensorShape": {"dim": [{"size": "64"}]}}}, "dtype": {"type": "DT_FLOAT"}}}, {"name": "StatefulPartitionedCall/StatefulPartitionedCall/StatefulPartitionedCall/vggface_senet50/conv4_2_1x1_up/Conv2D/ReadVariableOp", "op": "Const", "input": ["^StatefulPartitionedCall/sub"], "attr": {"value": {"tensor": {"dtype": "DT_FLOAT", "tensorShape": {"dim": [{"size": "1"}, {"size": "1"}, {"size": "64"}, {"size": "1024"}]}}}, "dtype": {"type": "DT_FLOAT"}}}, {"name": "StatefulPartitionedCall/StatefulPartitionedCall/StatefulPartitionedCall/vggface_senet50/conv4_2_1x1_up/BiasAdd/ReadVariableOp", "op": "Const", "input": ["^StatefulPartitionedCall/sub"], "attr": {"dtype": {"type": "DT_FLOAT"}, "value": {"tensor": {"dtype": "DT_FLOAT", "tensorShape": {"dim": [{"size": "1024"}]}}}}}, {"name": "StatefulPartitionedCall/StatefulPartitionedCall/StatefulPartitionedCall/vggface_senet50/global_average_pooling2d_8/Mean/reduction_indices", "op": "Const", "input": ["^StatefulPartitionedCall/sub"], "attr": {"dtype": {"type": "DT_INT32"}, "value": {"tensor": {"dtype": "DT_INT32", "tensorShape": {"dim": [{"size": "2"}]}}}}}, {"name": "StatefulPartitionedCall/StatefulPartitionedCall/StatefulPartitionedCall/vggface_senet50/reshape_8/strided_slice/stack", "op": "Const", "input": ["^StatefulPartitionedCall/sub"], "attr": {"value": {"tensor": {"dtype": "DT_INT32", "tensorShape": {"dim": [{"size": "1"}]}}}, "dtype": {"type": "DT_INT32"}}}, {"name": "StatefulPartitionedCall/StatefulPartitionedCall/StatefulPartitionedCall/vggface_senet50/reshape_8/strided_slice/stack_1", "op": "Const", "input": ["^StatefulPartitionedCall/sub"], "attr": {"value": {"tensor": {"dtype": "DT_INT32", "tensorShape": {"dim": [{"size": "1"}]}}}, "dtype": {"type": "DT_INT32"}}}, {"name": "StatefulPartitionedCall/StatefulPartitionedCall/StatefulPartitionedCall/vggface_senet50/reshape_8/strided_slice/stack_2", "op": "Const", "input": ["^StatefulPartitionedCall/sub"], "attr": {"value": {"tensor": {"dtype": "DT_INT32", "tensorShape": {"dim": [{"size": "1"}]}}}, "dtype": {"type": "DT_INT32"}}}, {"name": "StatefulPartitionedCall/StatefulPartitionedCall/StatefulPartitionedCall/vggface_senet50/reshape_8/Reshape/shape/1", "op": "Const", "input": ["^StatefulPartitionedCall/sub"], "attr": {"dtype": {"type": "DT_INT32"}, "value": {"tensor": {"dtype": "DT_INT32", "tensorShape": {}}}}}, {"name": "StatefulPartitionedCall/StatefulPartitionedCall/StatefulPartitionedCall/vggface_senet50/reshape_8/Reshape/shape/2", "op": "Const", "input": ["^StatefulPartitionedCall/sub"], "attr": {"dtype": {"type": "DT_INT32"}, "value": {"tensor": {"dtype": "DT_INT32", "tensorShape": {}}}}}, {"name": "StatefulPartitionedCall/StatefulPartitionedCall/StatefulPartitionedCall/vggface_senet50/reshape_8/Reshape/shape/3", "op": "Const", "input": ["^StatefulPartitionedCall/sub"], "attr": {"dtype": {"type": "DT_INT32"}, "value": {"tensor": {"dtype": "DT_INT32", "tensorShape": {}}}}}, {"name": "StatefulPartitionedCall/StatefulPartitionedCall/StatefulPartitionedCall/vggface_senet50/conv4_1_1x1_down/Conv2D/ReadVariableOp", "op": "Const", "input": ["^StatefulPartitionedCall/sub"], "attr": {"dtype": {"type": "DT_FLOAT"}, "value": {"tensor": {"dtype": "DT_FLOAT", "tensorShape": {"dim": [{"size": "1"}, {"size": "1"}, {"size": "1024"}, {"size": "64"}]}}}}}, {"name": "StatefulPartitionedCall/StatefulPartitionedCall/StatefulPartitionedCall/vggface_senet50/conv4_1_1x1_down/BiasAdd/ReadVariableOp", "op": "Const", "input": ["^StatefulPartitionedCall/sub"], "attr": {"value": {"tensor": {"dtype": "DT_FLOAT", "tensorShape": {"dim": [{"size": "64"}]}}}, "dtype": {"type": "DT_FLOAT"}}}, {"name": "StatefulPartitionedCall/StatefulPartitionedCall/StatefulPartitionedCall/vggface_senet50/conv4_1_1x1_up/Conv2D/ReadVariableOp", "op": "Const", "input": ["^StatefulPartitionedCall/sub"], "attr": {"value": {"tensor": {"dtype": "DT_FLOAT", "tensorShape": {"dim": [{"size": "1"}, {"size": "1"}, {"size": "64"}, {"size": "1024"}]}}}, "dtype": {"type": "DT_FLOAT"}}}, {"name": "StatefulPartitionedCall/StatefulPartitionedCall/StatefulPartitionedCall/vggface_senet50/conv4_1_1x1_up/BiasAdd/ReadVariableOp", "op": "Const", "input": ["^StatefulPartitionedCall/sub"], "attr": {"dtype": {"type": "DT_FLOAT"}, "value": {"tensor": {"dtype": "DT_FLOAT", "tensorShape": {"dim": [{"size": "1024"}]}}}}}, {"name": "StatefulPartitionedCall/StatefulPartitionedCall/StatefulPartitionedCall/vggface_senet50/global_average_pooling2d_7/Mean/reduction_indices", "op": "Const", "input": ["^StatefulPartitionedCall/sub"], "attr": {"dtype": {"type": "DT_INT32"}, "value": {"tensor": {"dtype": "DT_INT32", "tensorShape": {"dim": [{"size": "2"}]}}}}}, {"name": "StatefulPartitionedCall/StatefulPartitionedCall/StatefulPartitionedCall/vggface_senet50/reshape_7/strided_slice/stack", "op": "Const", "input": ["^StatefulPartitionedCall/sub"], "attr": {"value": {"tensor": {"dtype": "DT_INT32", "tensorShape": {"dim": [{"size": "1"}]}}}, "dtype": {"type": "DT_INT32"}}}, {"name": "StatefulPartitionedCall/StatefulPartitionedCall/StatefulPartitionedCall/vggface_senet50/reshape_7/strided_slice/stack_1", "op": "Const", "input": ["^StatefulPartitionedCall/sub"], "attr": {"dtype": {"type": "DT_INT32"}, "value": {"tensor": {"dtype": "DT_INT32", "tensorShape": {"dim": [{"size": "1"}]}}}}}, {"name": "StatefulPartitionedCall/StatefulPartitionedCall/StatefulPartitionedCall/vggface_senet50/reshape_7/strided_slice/stack_2", "op": "Const", "input": ["^StatefulPartitionedCall/sub"], "attr": {"dtype": {"type": "DT_INT32"}, "value": {"tensor": {"dtype": "DT_INT32", "tensorShape": {"dim": [{"size": "1"}]}}}}}, {"name": "StatefulPartitionedCall/StatefulPartitionedCall/StatefulPartitionedCall/vggface_senet50/reshape_7/Reshape/shape/1", "op": "Const", "input": ["^StatefulPartitionedCall/sub"], "attr": {"value": {"tensor": {"dtype": "DT_INT32", "tensorShape": {}}}, "dtype": {"type": "DT_INT32"}}}, {"name": "StatefulPartitionedCall/StatefulPartitionedCall/StatefulPartitionedCall/vggface_senet50/reshape_7/Reshape/shape/2", "op": "Const", "input": ["^StatefulPartitionedCall/sub"], "attr": {"value": {"tensor": {"dtype": "DT_INT32", "tensorShape": {}}}, "dtype": {"type": "DT_INT32"}}}, {"name": "StatefulPartitionedCall/StatefulPartitionedCall/StatefulPartitionedCall/vggface_senet50/reshape_7/Reshape/shape/3", "op": "Const", "input": ["^StatefulPartitionedCall/sub"], "attr": {"dtype": {"type": "DT_INT32"}, "value": {"tensor": {"dtype": "DT_INT32", "tensorShape": {}}}}}, {"name": "StatefulPartitionedCall/StatefulPartitionedCall/StatefulPartitionedCall/vggface_senet50/conv3_4_1x1_down/Conv2D/ReadVariableOp", "op": "Const", "input": ["^StatefulPartitionedCall/sub"], "attr": {"dtype": {"type": "DT_FLOAT"}, "value": {"tensor": {"dtype": "DT_FLOAT", "tensorShape": {"dim": [{"size": "1"}, {"size": "1"}, {"size": "512"}, {"size": "32"}]}}}}}, {"name": "StatefulPartitionedCall/StatefulPartitionedCall/StatefulPartitionedCall/vggface_senet50/conv3_4_1x1_down/BiasAdd/ReadVariableOp", "op": "Const", "input": ["^StatefulPartitionedCall/sub"], "attr": {"dtype": {"type": "DT_FLOAT"}, "value": {"tensor": {"dtype": "DT_FLOAT", "tensorShape": {"dim": [{"size": "32"}]}}}}}, {"name": "StatefulPartitionedCall/StatefulPartitionedCall/StatefulPartitionedCall/vggface_senet50/conv3_4_1x1_up/Conv2D/ReadVariableOp", "op": "Const", "input": ["^StatefulPartitionedCall/sub"], "attr": {"value": {"tensor": {"dtype": "DT_FLOAT", "tensorShape": {"dim": [{"size": "1"}, {"size": "1"}, {"size": "32"}, {"size": "512"}]}}}, "dtype": {"type": "DT_FLOAT"}}}, {"name": "StatefulPartitionedCall/StatefulPartitionedCall/StatefulPartitionedCall/vggface_senet50/conv3_4_1x1_up/BiasAdd/ReadVariableOp", "op": "Const", "input": ["^StatefulPartitionedCall/sub"], "attr": {"value": {"tensor": {"dtype": "DT_FLOAT", "tensorShape": {"dim": [{"size": "512"}]}}}, "dtype": {"type": "DT_FLOAT"}}}, {"name": "StatefulPartitionedCall/StatefulPartitionedCall/StatefulPartitionedCall/vggface_senet50/global_average_pooling2d_6/Mean/reduction_indices", "op": "Const", "input": ["^StatefulPartitionedCall/sub"], "attr": {"dtype": {"type": "DT_INT32"}, "value": {"tensor": {"dtype": "DT_INT32", "tensorShape": {"dim": [{"size": "2"}]}}}}}, {"name": "StatefulPartitionedCall/StatefulPartitionedCall/StatefulPartitionedCall/vggface_senet50/reshape_6/strided_slice/stack", "op": "Const", "input": ["^StatefulPartitionedCall/sub"], "attr": {"dtype": {"type": "DT_INT32"}, "value": {"tensor": {"dtype": "DT_INT32", "tensorShape": {"dim": [{"size": "1"}]}}}}}, {"name": "StatefulPartitionedCall/StatefulPartitionedCall/StatefulPartitionedCall/vggface_senet50/reshape_6/strided_slice/stack_1", "op": "Const", "input": ["^StatefulPartitionedCall/sub"], "attr": {"value": {"tensor": {"dtype": "DT_INT32", "tensorShape": {"dim": [{"size": "1"}]}}}, "dtype": {"type": "DT_INT32"}}}, {"name": "StatefulPartitionedCall/StatefulPartitionedCall/StatefulPartitionedCall/vggface_senet50/reshape_6/strided_slice/stack_2", "op": "Const", "input": ["^StatefulPartitionedCall/sub"], "attr": {"dtype": {"type": "DT_INT32"}, "value": {"tensor": {"dtype": "DT_INT32", "tensorShape": {"dim": [{"size": "1"}]}}}}}, {"name": "StatefulPartitionedCall/StatefulPartitionedCall/StatefulPartitionedCall/vggface_senet50/reshape_6/Reshape/shape/1", "op": "Const", "input": ["^StatefulPartitionedCall/sub"], "attr": {"dtype": {"type": "DT_INT32"}, "value": {"tensor": {"dtype": "DT_INT32", "tensorShape": {}}}}}, {"name": "StatefulPartitionedCall/StatefulPartitionedCall/StatefulPartitionedCall/vggface_senet50/reshape_6/Reshape/shape/2", "op": "Const", "input": ["^StatefulPartitionedCall/sub"], "attr": {"dtype": {"type": "DT_INT32"}, "value": {"tensor": {"dtype": "DT_INT32", "tensorShape": {}}}}}, {"name": "StatefulPartitionedCall/StatefulPartitionedCall/StatefulPartitionedCall/vggface_senet50/reshape_6/Reshape/shape/3", "op": "Const", "input": ["^StatefulPartitionedCall/sub"], "attr": {"dtype": {"type": "DT_INT32"}, "value": {"tensor": {"dtype": "DT_INT32", "tensorShape": {}}}}}, {"name": "StatefulPartitionedCall/StatefulPartitionedCall/StatefulPartitionedCall/vggface_senet50/conv3_3_1x1_down/Conv2D/ReadVariableOp", "op": "Const", "input": ["^StatefulPartitionedCall/sub"], "attr": {"dtype": {"type": "DT_FLOAT"}, "value": {"tensor": {"dtype": "DT_FLOAT", "tensorShape": {"dim": [{"size": "1"}, {"size": "1"}, {"size": "512"}, {"size": "32"}]}}}}}, {"name": "StatefulPartitionedCall/StatefulPartitionedCall/StatefulPartitionedCall/vggface_senet50/conv3_3_1x1_down/BiasAdd/ReadVariableOp", "op": "Const", "input": ["^StatefulPartitionedCall/sub"], "attr": {"dtype": {"type": "DT_FLOAT"}, "value": {"tensor": {"dtype": "DT_FLOAT", "tensorShape": {"dim": [{"size": "32"}]}}}}}, {"name": "StatefulPartitionedCall/StatefulPartitionedCall/StatefulPartitionedCall/vggface_senet50/conv3_3_1x1_up/Conv2D/ReadVariableOp", "op": "Const", "input": ["^StatefulPartitionedCall/sub"], "attr": {"value": {"tensor": {"dtype": "DT_FLOAT", "tensorShape": {"dim": [{"size": "1"}, {"size": "1"}, {"size": "32"}, {"size": "512"}]}}}, "dtype": {"type": "DT_FLOAT"}}}, {"name": "StatefulPartitionedCall/StatefulPartitionedCall/StatefulPartitionedCall/vggface_senet50/conv3_3_1x1_up/BiasAdd/ReadVariableOp", "op": "Const", "input": ["^StatefulPartitionedCall/sub"], "attr": {"value": {"tensor": {"dtype": "DT_FLOAT", "tensorShape": {"dim": [{"size": "512"}]}}}, "dtype": {"type": "DT_FLOAT"}}}, {"name": "StatefulPartitionedCall/StatefulPartitionedCall/StatefulPartitionedCall/vggface_senet50/global_average_pooling2d_5/Mean/reduction_indices", "op": "Const", "input": ["^StatefulPartitionedCall/sub"], "attr": {"value": {"tensor": {"dtype": "DT_INT32", "tensorShape": {"dim": [{"size": "2"}]}}}, "dtype": {"type": "DT_INT32"}}}, {"name": "StatefulPartitionedCall/StatefulPartitionedCall/StatefulPartitionedCall/vggface_senet50/reshape_5/strided_slice/stack", "op": "Const", "input": ["^StatefulPartitionedCall/sub"], "attr": {"dtype": {"type": "DT_INT32"}, "value": {"tensor": {"dtype": "DT_INT32", "tensorShape": {"dim": [{"size": "1"}]}}}}}, {"name": "StatefulPartitionedCall/StatefulPartitionedCall/StatefulPartitionedCall/vggface_senet50/reshape_5/strided_slice/stack_1", "op": "Const", "input": ["^StatefulPartitionedCall/sub"], "attr": {"value": {"tensor": {"dtype": "DT_INT32", "tensorShape": {"dim": [{"size": "1"}]}}}, "dtype": {"type": "DT_INT32"}}}, {"name": "StatefulPartitionedCall/StatefulPartitionedCall/StatefulPartitionedCall/vggface_senet50/reshape_5/strided_slice/stack_2", "op": "Const", "input": ["^StatefulPartitionedCall/sub"], "attr": {"value": {"tensor": {"dtype": "DT_INT32", "tensorShape": {"dim": [{"size": "1"}]}}}, "dtype": {"type": "DT_INT32"}}}, {"name": "StatefulPartitionedCall/StatefulPartitionedCall/StatefulPartitionedCall/vggface_senet50/reshape_5/Reshape/shape/1", "op": "Const", "input": ["^StatefulPartitionedCall/sub"], "attr": {"dtype": {"type": "DT_INT32"}, "value": {"tensor": {"dtype": "DT_INT32", "tensorShape": {}}}}}, {"name": "StatefulPartitionedCall/StatefulPartitionedCall/StatefulPartitionedCall/vggface_senet50/reshape_5/Reshape/shape/2", "op": "Const", "input": ["^StatefulPartitionedCall/sub"], "attr": {"value": {"tensor": {"dtype": "DT_INT32", "tensorShape": {}}}, "dtype": {"type": "DT_INT32"}}}, {"name": "StatefulPartitionedCall/StatefulPartitionedCall/StatefulPartitionedCall/vggface_senet50/reshape_5/Reshape/shape/3", "op": "Const", "input": ["^StatefulPartitionedCall/sub"], "attr": {"dtype": {"type": "DT_INT32"}, "value": {"tensor": {"dtype": "DT_INT32", "tensorShape": {}}}}}, {"name": "StatefulPartitionedCall/StatefulPartitionedCall/StatefulPartitionedCall/vggface_senet50/conv3_2_1x1_down/Conv2D/ReadVariableOp", "op": "Const", "input": ["^StatefulPartitionedCall/sub"], "attr": {"dtype": {"type": "DT_FLOAT"}, "value": {"tensor": {"dtype": "DT_FLOAT", "tensorShape": {"dim": [{"size": "1"}, {"size": "1"}, {"size": "512"}, {"size": "32"}]}}}}}, {"name": "StatefulPartitionedCall/StatefulPartitionedCall/StatefulPartitionedCall/vggface_senet50/conv3_2_1x1_down/BiasAdd/ReadVariableOp", "op": "Const", "input": ["^StatefulPartitionedCall/sub"], "attr": {"value": {"tensor": {"dtype": "DT_FLOAT", "tensorShape": {"dim": [{"size": "32"}]}}}, "dtype": {"type": "DT_FLOAT"}}}, {"name": "StatefulPartitionedCall/StatefulPartitionedCall/StatefulPartitionedCall/vggface_senet50/conv3_2_1x1_up/Conv2D/ReadVariableOp", "op": "Const", "input": ["^StatefulPartitionedCall/sub"], "attr": {"value": {"tensor": {"dtype": "DT_FLOAT", "tensorShape": {"dim": [{"size": "1"}, {"size": "1"}, {"size": "32"}, {"size": "512"}]}}}, "dtype": {"type": "DT_FLOAT"}}}, {"name": "StatefulPartitionedCall/StatefulPartitionedCall/StatefulPartitionedCall/vggface_senet50/conv3_2_1x1_up/BiasAdd/ReadVariableOp", "op": "Const", "input": ["^StatefulPartitionedCall/sub"], "attr": {"dtype": {"type": "DT_FLOAT"}, "value": {"tensor": {"dtype": "DT_FLOAT", "tensorShape": {"dim": [{"size": "512"}]}}}}}, {"name": "StatefulPartitionedCall/StatefulPartitionedCall/StatefulPartitionedCall/vggface_senet50/global_average_pooling2d_4/Mean/reduction_indices", "op": "Const", "input": ["^StatefulPartitionedCall/sub"], "attr": {"dtype": {"type": "DT_INT32"}, "value": {"tensor": {"dtype": "DT_INT32", "tensorShape": {"dim": [{"size": "2"}]}}}}}, {"name": "StatefulPartitionedCall/StatefulPartitionedCall/StatefulPartitionedCall/vggface_senet50/reshape_4/strided_slice/stack", "op": "Const", "input": ["^StatefulPartitionedCall/sub"], "attr": {"value": {"tensor": {"dtype": "DT_INT32", "tensorShape": {"dim": [{"size": "1"}]}}}, "dtype": {"type": "DT_INT32"}}}, {"name": "StatefulPartitionedCall/StatefulPartitionedCall/StatefulPartitionedCall/vggface_senet50/reshape_4/strided_slice/stack_1", "op": "Const", "input": ["^StatefulPartitionedCall/sub"], "attr": {"dtype": {"type": "DT_INT32"}, "value": {"tensor": {"dtype": "DT_INT32", "tensorShape": {"dim": [{"size": "1"}]}}}}}, {"name": "StatefulPartitionedCall/StatefulPartitionedCall/StatefulPartitionedCall/vggface_senet50/reshape_4/strided_slice/stack_2", "op": "Const", "input": ["^StatefulPartitionedCall/sub"], "attr": {"dtype": {"type": "DT_INT32"}, "value": {"tensor": {"dtype": "DT_INT32", "tensorShape": {"dim": [{"size": "1"}]}}}}}, {"name": "StatefulPartitionedCall/StatefulPartitionedCall/StatefulPartitionedCall/vggface_senet50/reshape_4/Reshape/shape/1", "op": "Const", "input": ["^StatefulPartitionedCall/sub"], "attr": {"dtype": {"type": "DT_INT32"}, "value": {"tensor": {"dtype": "DT_INT32", "tensorShape": {}}}}}, {"name": "StatefulPartitionedCall/StatefulPartitionedCall/StatefulPartitionedCall/vggface_senet50/reshape_4/Reshape/shape/2", "op": "Const", "input": ["^StatefulPartitionedCall/sub"], "attr": {"dtype": {"type": "DT_INT32"}, "value": {"tensor": {"dtype": "DT_INT32", "tensorShape": {}}}}}, {"name": "StatefulPartitionedCall/StatefulPartitionedCall/StatefulPartitionedCall/vggface_senet50/reshape_4/Reshape/shape/3", "op": "Const", "input": ["^StatefulPartitionedCall/sub"], "attr": {"dtype": {"type": "DT_INT32"}, "value": {"tensor": {"dtype": "DT_INT32", "tensorShape": {}}}}}, {"name": "StatefulPartitionedCall/StatefulPartitionedCall/StatefulPartitionedCall/vggface_senet50/conv3_1_1x1_down/Conv2D/ReadVariableOp", "op": "Const", "input": ["^StatefulPartitionedCall/sub"], "attr": {"dtype": {"type": "DT_FLOAT"}, "value": {"tensor": {"dtype": "DT_FLOAT", "tensorShape": {"dim": [{"size": "1"}, {"size": "1"}, {"size": "512"}, {"size": "32"}]}}}}}, {"name": "StatefulPartitionedCall/StatefulPartitionedCall/StatefulPartitionedCall/vggface_senet50/conv3_1_1x1_down/BiasAdd/ReadVariableOp", "op": "Const", "input": ["^StatefulPartitionedCall/sub"], "attr": {"dtype": {"type": "DT_FLOAT"}, "value": {"tensor": {"dtype": "DT_FLOAT", "tensorShape": {"dim": [{"size": "32"}]}}}}}, {"name": "StatefulPartitionedCall/StatefulPartitionedCall/StatefulPartitionedCall/vggface_senet50/conv3_1_1x1_up/Conv2D/ReadVariableOp", "op": "Const", "input": ["^StatefulPartitionedCall/sub"], "attr": {"dtype": {"type": "DT_FLOAT"}, "value": {"tensor": {"dtype": "DT_FLOAT", "tensorShape": {"dim": [{"size": "1"}, {"size": "1"}, {"size": "32"}, {"size": "512"}]}}}}}, {"name": "StatefulPartitionedCall/StatefulPartitionedCall/StatefulPartitionedCall/vggface_senet50/conv3_1_1x1_up/BiasAdd/ReadVariableOp", "op": "Const", "input": ["^StatefulPartitionedCall/sub"], "attr": {"value": {"tensor": {"dtype": "DT_FLOAT", "tensorShape": {"dim": [{"size": "512"}]}}}, "dtype": {"type": "DT_FLOAT"}}}, {"name": "StatefulPartitionedCall/StatefulPartitionedCall/StatefulPartitionedCall/vggface_senet50/global_average_pooling2d_3/Mean/reduction_indices", "op": "Const", "input": ["^StatefulPartitionedCall/sub"], "attr": {"value": {"tensor": {"dtype": "DT_INT32", "tensorShape": {"dim": [{"size": "2"}]}}}, "dtype": {"type": "DT_INT32"}}}, {"name": "StatefulPartitionedCall/StatefulPartitionedCall/StatefulPartitionedCall/vggface_senet50/reshape_3/strided_slice/stack", "op": "Const", "input": ["^StatefulPartitionedCall/sub"], "attr": {"dtype": {"type": "DT_INT32"}, "value": {"tensor": {"dtype": "DT_INT32", "tensorShape": {"dim": [{"size": "1"}]}}}}}, {"name": "StatefulPartitionedCall/StatefulPartitionedCall/StatefulPartitionedCall/vggface_senet50/reshape_3/strided_slice/stack_1", "op": "Const", "input": ["^StatefulPartitionedCall/sub"], "attr": {"value": {"tensor": {"dtype": "DT_INT32", "tensorShape": {"dim": [{"size": "1"}]}}}, "dtype": {"type": "DT_INT32"}}}, {"name": "StatefulPartitionedCall/StatefulPartitionedCall/StatefulPartitionedCall/vggface_senet50/reshape_3/strided_slice/stack_2", "op": "Const", "input": ["^StatefulPartitionedCall/sub"], "attr": {"dtype": {"type": "DT_INT32"}, "value": {"tensor": {"dtype": "DT_INT32", "tensorShape": {"dim": [{"size": "1"}]}}}}}, {"name": "StatefulPartitionedCall/StatefulPartitionedCall/StatefulPartitionedCall/vggface_senet50/reshape_3/Reshape/shape/1", "op": "Const", "input": ["^StatefulPartitionedCall/sub"], "attr": {"value": {"tensor": {"dtype": "DT_INT32", "tensorShape": {}}}, "dtype": {"type": "DT_INT32"}}}, {"name": "StatefulPartitionedCall/StatefulPartitionedCall/StatefulPartitionedCall/vggface_senet50/reshape_3/Reshape/shape/2", "op": "Const", "input": ["^StatefulPartitionedCall/sub"], "attr": {"dtype": {"type": "DT_INT32"}, "value": {"tensor": {"dtype": "DT_INT32", "tensorShape": {}}}}}, {"name": "StatefulPartitionedCall/StatefulPartitionedCall/StatefulPartitionedCall/vggface_senet50/reshape_3/Reshape/shape/3", "op": "Const", "input": ["^StatefulPartitionedCall/sub"], "attr": {"value": {"tensor": {"dtype": "DT_INT32", "tensorShape": {}}}, "dtype": {"type": "DT_INT32"}}}, {"name": "StatefulPartitionedCall/StatefulPartitionedCall/StatefulPartitionedCall/vggface_senet50/conv2_3_1x1_down/Conv2D/ReadVariableOp", "op": "Const", "input": ["^StatefulPartitionedCall/sub"], "attr": {"value": {"tensor": {"dtype": "DT_FLOAT", "tensorShape": {"dim": [{"size": "1"}, {"size": "1"}, {"size": "256"}, {"size": "16"}]}}}, "dtype": {"type": "DT_FLOAT"}}}, {"name": "StatefulPartitionedCall/StatefulPartitionedCall/StatefulPartitionedCall/vggface_senet50/conv2_3_1x1_down/BiasAdd/ReadVariableOp", "op": "Const", "input": ["^StatefulPartitionedCall/sub"], "attr": {"dtype": {"type": "DT_FLOAT"}, "value": {"tensor": {"dtype": "DT_FLOAT", "tensorShape": {"dim": [{"size": "16"}]}}}}}, {"name": "StatefulPartitionedCall/StatefulPartitionedCall/StatefulPartitionedCall/vggface_senet50/conv2_3_1x1_up/Conv2D/ReadVariableOp", "op": "Const", "input": ["^StatefulPartitionedCall/sub"], "attr": {"value": {"tensor": {"dtype": "DT_FLOAT", "tensorShape": {"dim": [{"size": "1"}, {"size": "1"}, {"size": "16"}, {"size": "256"}]}}}, "dtype": {"type": "DT_FLOAT"}}}, {"name": "StatefulPartitionedCall/StatefulPartitionedCall/StatefulPartitionedCall/vggface_senet50/conv2_3_1x1_up/BiasAdd/ReadVariableOp", "op": "Const", "input": ["^StatefulPartitionedCall/sub"], "attr": {"dtype": {"type": "DT_FLOAT"}, "value": {"tensor": {"dtype": "DT_FLOAT", "tensorShape": {"dim": [{"size": "256"}]}}}}}, {"name": "StatefulPartitionedCall/StatefulPartitionedCall/StatefulPartitionedCall/vggface_senet50/global_average_pooling2d_2/Mean/reduction_indices", "op": "Const", "input": ["^StatefulPartitionedCall/sub"], "attr": {"dtype": {"type": "DT_INT32"}, "value": {"tensor": {"dtype": "DT_INT32", "tensorShape": {"dim": [{"size": "2"}]}}}}}, {"name": "StatefulPartitionedCall/StatefulPartitionedCall/StatefulPartitionedCall/vggface_senet50/reshape_2/strided_slice/stack", "op": "Const", "input": ["^StatefulPartitionedCall/sub"], "attr": {"value": {"tensor": {"dtype": "DT_INT32", "tensorShape": {"dim": [{"size": "1"}]}}}, "dtype": {"type": "DT_INT32"}}}, {"name": "StatefulPartitionedCall/StatefulPartitionedCall/StatefulPartitionedCall/vggface_senet50/reshape_2/strided_slice/stack_1", "op": "Const", "input": ["^StatefulPartitionedCall/sub"], "attr": {"dtype": {"type": "DT_INT32"}, "value": {"tensor": {"dtype": "DT_INT32", "tensorShape": {"dim": [{"size": "1"}]}}}}}, {"name": "StatefulPartitionedCall/StatefulPartitionedCall/StatefulPartitionedCall/vggface_senet50/reshape_2/strided_slice/stack_2", "op": "Const", "input": ["^StatefulPartitionedCall/sub"], "attr": {"dtype": {"type": "DT_INT32"}, "value": {"tensor": {"dtype": "DT_INT32", "tensorShape": {"dim": [{"size": "1"}]}}}}}, {"name": "StatefulPartitionedCall/StatefulPartitionedCall/StatefulPartitionedCall/vggface_senet50/reshape_2/Reshape/shape/1", "op": "Const", "input": ["^StatefulPartitionedCall/sub"], "attr": {"dtype": {"type": "DT_INT32"}, "value": {"tensor": {"dtype": "DT_INT32", "tensorShape": {}}}}}, {"name": "StatefulPartitionedCall/StatefulPartitionedCall/StatefulPartitionedCall/vggface_senet50/reshape_2/Reshape/shape/2", "op": "Const", "input": ["^StatefulPartitionedCall/sub"], "attr": {"dtype": {"type": "DT_INT32"}, "value": {"tensor": {"dtype": "DT_INT32", "tensorShape": {}}}}}, {"name": "StatefulPartitionedCall/StatefulPartitionedCall/StatefulPartitionedCall/vggface_senet50/reshape_2/Reshape/shape/3", "op": "Const", "input": ["^StatefulPartitionedCall/sub"], "attr": {"dtype": {"type": "DT_INT32"}, "value": {"tensor": {"dtype": "DT_INT32", "tensorShape": {}}}}}, {"name": "StatefulPartitionedCall/StatefulPartitionedCall/StatefulPartitionedCall/vggface_senet50/conv2_2_1x1_down/Conv2D/ReadVariableOp", "op": "Const", "input": ["^StatefulPartitionedCall/sub"], "attr": {"value": {"tensor": {"dtype": "DT_FLOAT", "tensorShape": {"dim": [{"size": "1"}, {"size": "1"}, {"size": "256"}, {"size": "16"}]}}}, "dtype": {"type": "DT_FLOAT"}}}, {"name": "StatefulPartitionedCall/StatefulPartitionedCall/StatefulPartitionedCall/vggface_senet50/conv2_2_1x1_down/BiasAdd/ReadVariableOp", "op": "Const", "input": ["^StatefulPartitionedCall/sub"], "attr": {"dtype": {"type": "DT_FLOAT"}, "value": {"tensor": {"dtype": "DT_FLOAT", "tensorShape": {"dim": [{"size": "16"}]}}}}}, {"name": "StatefulPartitionedCall/StatefulPartitionedCall/StatefulPartitionedCall/vggface_senet50/conv2_2_1x1_up/Conv2D/ReadVariableOp", "op": "Const", "input": ["^StatefulPartitionedCall/sub"], "attr": {"value": {"tensor": {"dtype": "DT_FLOAT", "tensorShape": {"dim": [{"size": "1"}, {"size": "1"}, {"size": "16"}, {"size": "256"}]}}}, "dtype": {"type": "DT_FLOAT"}}}, {"name": "StatefulPartitionedCall/StatefulPartitionedCall/StatefulPartitionedCall/vggface_senet50/conv2_2_1x1_up/BiasAdd/ReadVariableOp", "op": "Const", "input": ["^StatefulPartitionedCall/sub"], "attr": {"value": {"tensor": {"dtype": "DT_FLOAT", "tensorShape": {"dim": [{"size": "256"}]}}}, "dtype": {"type": "DT_FLOAT"}}}, {"name": "StatefulPartitionedCall/StatefulPartitionedCall/StatefulPartitionedCall/vggface_senet50/global_average_pooling2d_1/Mean/reduction_indices", "op": "Const", "input": ["^StatefulPartitionedCall/sub"], "attr": {"dtype": {"type": "DT_INT32"}, "value": {"tensor": {"dtype": "DT_INT32", "tensorShape": {"dim": [{"size": "2"}]}}}}}, {"name": "StatefulPartitionedCall/StatefulPartitionedCall/StatefulPartitionedCall/vggface_senet50/reshape_1/strided_slice/stack", "op": "Const", "input": ["^StatefulPartitionedCall/sub"], "attr": {"dtype": {"type": "DT_INT32"}, "value": {"tensor": {"dtype": "DT_INT32", "tensorShape": {"dim": [{"size": "1"}]}}}}}, {"name": "StatefulPartitionedCall/StatefulPartitionedCall/StatefulPartitionedCall/vggface_senet50/reshape_1/strided_slice/stack_1", "op": "Const", "input": ["^StatefulPartitionedCall/sub"], "attr": {"dtype": {"type": "DT_INT32"}, "value": {"tensor": {"dtype": "DT_INT32", "tensorShape": {"dim": [{"size": "1"}]}}}}}, {"name": "StatefulPartitionedCall/StatefulPartitionedCall/StatefulPartitionedCall/vggface_senet50/reshape_1/strided_slice/stack_2", "op": "Const", "input": ["^StatefulPartitionedCall/sub"], "attr": {"value": {"tensor": {"dtype": "DT_INT32", "tensorShape": {"dim": [{"size": "1"}]}}}, "dtype": {"type": "DT_INT32"}}}, {"name": "StatefulPartitionedCall/StatefulPartitionedCall/StatefulPartitionedCall/vggface_senet50/reshape_1/Reshape/shape/1", "op": "Const", "input": ["^StatefulPartitionedCall/sub"], "attr": {"dtype": {"type": "DT_INT32"}, "value": {"tensor": {"dtype": "DT_INT32", "tensorShape": {}}}}}, {"name": "StatefulPartitionedCall/StatefulPartitionedCall/StatefulPartitionedCall/vggface_senet50/reshape_1/Reshape/shape/2", "op": "Const", "input": ["^StatefulPartitionedCall/sub"], "attr": {"dtype": {"type": "DT_INT32"}, "value": {"tensor": {"dtype": "DT_INT32", "tensorShape": {}}}}}, {"name": "StatefulPartitionedCall/StatefulPartitionedCall/StatefulPartitionedCall/vggface_senet50/reshape_1/Reshape/shape/3", "op": "Const", "input": ["^StatefulPartitionedCall/sub"], "attr": {"value": {"tensor": {"dtype": "DT_INT32", "tensorShape": {}}}, "dtype": {"type": "DT_INT32"}}}, {"name": "StatefulPartitionedCall/StatefulPartitionedCall/StatefulPartitionedCall/vggface_senet50/conv2_1_1x1_down/Conv2D/ReadVariableOp", "op": "Const", "input": ["^StatefulPartitionedCall/sub"], "attr": {"value": {"tensor": {"dtype": "DT_FLOAT", "tensorShape": {"dim": [{"size": "1"}, {"size": "1"}, {"size": "256"}, {"size": "16"}]}}}, "dtype": {"type": "DT_FLOAT"}}}, {"name": "StatefulPartitionedCall/StatefulPartitionedCall/StatefulPartitionedCall/vggface_senet50/conv2_1_1x1_down/BiasAdd/ReadVariableOp", "op": "Const", "input": ["^StatefulPartitionedCall/sub"], "attr": {"dtype": {"type": "DT_FLOAT"}, "value": {"tensor": {"dtype": "DT_FLOAT", "tensorShape": {"dim": [{"size": "16"}]}}}}}, {"name": "StatefulPartitionedCall/StatefulPartitionedCall/StatefulPartitionedCall/vggface_senet50/conv2_1_1x1_up/Conv2D/ReadVariableOp", "op": "Const", "input": ["^StatefulPartitionedCall/sub"], "attr": {"dtype": {"type": "DT_FLOAT"}, "value": {"tensor": {"dtype": "DT_FLOAT", "tensorShape": {"dim": [{"size": "1"}, {"size": "1"}, {"size": "16"}, {"size": "256"}]}}}}}, {"name": "StatefulPartitionedCall/StatefulPartitionedCall/StatefulPartitionedCall/vggface_senet50/conv2_1_1x1_up/BiasAdd/ReadVariableOp", "op": "Const", "input": ["^StatefulPartitionedCall/sub"], "attr": {"dtype": {"type": "DT_FLOAT"}, "value": {"tensor": {"dtype": "DT_FLOAT", "tensorShape": {"dim": [{"size": "256"}]}}}}}, {"name": "StatefulPartitionedCall/StatefulPartitionedCall/StatefulPartitionedCall/vggface_senet50/global_average_pooling2d_17/Mean/reduction_indices", "op": "Const", "input": ["^StatefulPartitionedCall/sub"], "attr": {"value": {"tensor": {"dtype": "DT_INT32", "tensorShape": {"dim": [{"size": "2"}]}}}, "dtype": {"type": "DT_INT32"}}}, {"name": "StatefulPartitionedCall/StatefulPartitionedCall/StatefulPartitionedCall/vggface_senet50/activation_1/Relu", "op": "_FusedConv2D", "input": ["StatefulPartitionedCall/sub", "StatefulPartitionedCall/StatefulPartitionedCall/StatefulPartitionedCall/vggface_senet50/conv1/7x7_s2/Conv2D_weights", "StatefulPartitionedCall/StatefulPartitionedCall/StatefulPartitionedCall/vggface_senet50/conv1/7x7_s2/Conv2D_bn_offset"], "device": "/device:CPU:0", "attr": {"dilations": {"list": {"i": ["1", "1", "1", "1"]}}, "strides": {"list": {"i": ["1", "2", "2", "1"]}}, "use_cudnn_on_gpu": {"b": true}, "data_format": {"s": "TkhXQw=="}, "T": {"type": "DT_FLOAT"}, "epsilon": {"f": 0.0}, "padding": {"s": "U0FNRQ=="}, "explicit_paddings": {"list": {}}, "num_args": {"i": "1"}, "fused_ops": {"list": {"s": ["Qmlhc0FkZA==", "UmVsdQ=="]}}}}, {"name": "StatefulPartitionedCall/StatefulPartitionedCall/StatefulPartitionedCall/vggface_senet50/max_pooling2d_1/MaxPool", "op": "MaxPool", "input": ["StatefulPartitionedCall/StatefulPartitionedCall/StatefulPartitionedCall/vggface_senet50/activation_1/Relu"], "attr": {"ksize": {"list": {"i": ["1", "3", "3", "1"]}}, "data_format": {"s": "TkhXQw=="}, "padding": {"s": "VkFMSUQ="}, "strides": {"list": {"i": ["1", "2", "2", "1"]}}, "explicit_paddings": {"list": {}}, "T": {"type": "DT_FLOAT"}}}, {"name": "StatefulPartitionedCall/StatefulPartitionedCall/StatefulPartitionedCall/vggface_senet50/activation_2/Relu", "op": "_FusedConv2D", "input": ["StatefulPartitionedCall/StatefulPartitionedCall/StatefulPartitionedCall/vggface_senet50/max_pooling2d_1/MaxPool", "StatefulPartitionedCall/StatefulPartitionedCall/StatefulPartitionedCall/vggface_senet50/conv2_1_1x1_reduce/Conv2D_weights", "StatefulPartitionedCall/StatefulPartitionedCall/StatefulPartitionedCall/vggface_senet50/conv2_1_1x1_reduce/Conv2D_bn_offset"], "device": "/device:CPU:0", "attr": {"dilations": {"list": {"i": ["1", "1", "1", "1"]}}, "T": {"type": "DT_FLOAT"}, "fused_ops": {"list": {"s": ["Qmlhc0FkZA==", "UmVsdQ=="]}}, "use_cudnn_on_gpu": {"b": true}, "padding": {"s": "VkFMSUQ="}, "strides": {"list": {"i": ["1", "1", "1", "1"]}}, "num_args": {"i": "1"}, "epsilon": {"f": 0.0}, "data_format": {"s": "TkhXQw=="}, "explicit_paddings": {"list": {}}}}, {"name": "StatefulPartitionedCall/StatefulPartitionedCall/StatefulPartitionedCall/vggface_senet50/conv2_1_1x1_proj/bn/FusedBatchNormV3", "op": "_FusedConv2D", "input": ["StatefulPartitionedCall/StatefulPartitionedCall/StatefulPartitionedCall/vggface_senet50/max_pooling2d_1/MaxPool", "StatefulPartitionedCall/StatefulPartitionedCall/StatefulPartitionedCall/vggface_senet50/conv2_1_1x1_proj/Conv2D_weights", "StatefulPartitionedCall/StatefulPartitionedCall/StatefulPartitionedCall/vggface_senet50/conv2_1_1x1_proj/Conv2D_bn_offset"], "device": "/device:CPU:0", "attr": {"fused_ops": {"list": {"s": ["Qmlhc0FkZA=="]}}, "num_args": {"i": "1"}, "data_format": {"s": "TkhXQw=="}, "dilations": {"list": {"i": ["1", "1", "1", "1"]}}, "use_cudnn_on_gpu": {"b": true}, "T": {"type": "DT_FLOAT"}, "epsilon": {"f": 0.0}, "strides": {"list": {"i": ["1", "1", "1", "1"]}}, "padding": {"s": "VkFMSUQ="}, "explicit_paddings": {"list": {}}}}, {"name": "StatefulPartitionedCall/StatefulPartitionedCall/StatefulPartitionedCall/vggface_senet50/activation_3/Relu", "op": "_FusedConv2D", "input": ["StatefulPartitionedCall/StatefulPartitionedCall/StatefulPartitionedCall/vggface_senet50/activation_2/Relu", "StatefulPartitionedCall/StatefulPartitionedCall/StatefulPartitionedCall/vggface_senet50/conv2_1_3x3/Conv2D_weights", "StatefulPartitionedCall/StatefulPartitionedCall/StatefulPartitionedCall/vggface_senet50/conv2_1_3x3/Conv2D_bn_offset"], "device": "/device:CPU:0", "attr": {"fused_ops": {"list": {"s": ["Qmlhc0FkZA==", "UmVsdQ=="]}}, "data_format": {"s": "TkhXQw=="}, "use_cudnn_on_gpu": {"b": true}, "explicit_paddings": {"list": {}}, "num_args": {"i": "1"}, "epsilon": {"f": 0.0}, "strides": {"list": {"i": ["1", "1", "1", "1"]}}, "dilations": {"list": {"i": ["1", "1", "1", "1"]}}, "padding": {"s": "U0FNRQ=="}, "T": {"type": "DT_FLOAT"}}}, {"name": "StatefulPartitionedCall/StatefulPartitionedCall/StatefulPartitionedCall/vggface_senet50/conv2_1_1x1_increase/bn/FusedBatchNormV3", "op": "_FusedConv2D", "input": ["StatefulPartitionedCall/StatefulPartitionedCall/StatefulPartitionedCall/vggface_senet50/activation_3/Relu", "StatefulPartitionedCall/StatefulPartitionedCall/StatefulPartitionedCall/vggface_senet50/conv2_1_1x1_increase/Conv2D_weights", "StatefulPartitionedCall/StatefulPartitionedCall/StatefulPartitionedCall/vggface_senet50/conv2_1_1x1_increase/Conv2D_bn_offset"], "device": "/device:CPU:0", "attr": {"strides": {"list": {"i": ["1", "1", "1", "1"]}}, "num_args": {"i": "1"}, "explicit_paddings": {"list": {}}, "padding": {"s": "VkFMSUQ="}, "data_format": {"s": "TkhXQw=="}, "use_cudnn_on_gpu": {"b": true}, "dilations": {"list": {"i": ["1", "1", "1", "1"]}}, "epsilon": {"f": 0.0}, "fused_ops": {"list": {"s": ["Qmlhc0FkZA=="]}}, "T": {"type": "DT_FLOAT"}}}, {"name": "StatefulPartitionedCall/StatefulPartitionedCall/StatefulPartitionedCall/vggface_senet50/global_average_pooling2d_1/Mean", "op": "Mean", "input": ["StatefulPartitionedCall/StatefulPartitionedCall/StatefulPartitionedCall/vggface_senet50/conv2_1_1x1_increase/bn/FusedBatchNormV3", "StatefulPartitionedCall/StatefulPartitionedCall/StatefulPartitionedCall/vggface_senet50/global_average_pooling2d_1/Mean/reduction_indices"], "attr": {"T": {"type": "DT_FLOAT"}, "keep_dims": {"b": false}, "Tidx": {"type": "DT_INT32"}}}, {"name": "StatefulPartitionedCall/StatefulPartitionedCall/StatefulPartitionedCall/vggface_senet50/reshape_1/Shape", "op": "Shape", "input": ["StatefulPartitionedCall/StatefulPartitionedCall/StatefulPartitionedCall/vggface_senet50/global_average_pooling2d_1/Mean"], "attr": {"T": {"type": "DT_FLOAT"}, "out_type": {"type": "DT_INT32"}}}, {"name": "StatefulPartitionedCall/StatefulPartitionedCall/StatefulPartitionedCall/vggface_senet50/reshape_1/strided_slice", "op": "StridedSlice", "input": ["StatefulPartitionedCall/StatefulPartitionedCall/StatefulPartitionedCall/vggface_senet50/reshape_1/Shape", "StatefulPartitionedCall/StatefulPartitionedCall/StatefulPartitionedCall/vggface_senet50/reshape_1/strided_slice/stack", "StatefulPartitionedCall/StatefulPartitionedCall/StatefulPartitionedCall/vggface_senet50/reshape_1/strided_slice/stack_1", "StatefulPartitionedCall/StatefulPartitionedCall/StatefulPartitionedCall/vggface_senet50/reshape_1/strided_slice/stack_2"], "attr": {"Index": {"type": "DT_INT32"}, "new_axis_mask": {"i": "0"}, "shrink_axis_mask": {"i": "1"}, "ellipsis_mask": {"i": "0"}, "begin_mask": {"i": "0"}, "T": {"type": "DT_INT32"}, "end_mask": {"i": "0"}}}, {"name": "StatefulPartitionedCall/StatefulPartitionedCall/StatefulPartitionedCall/vggface_senet50/reshape_1/Reshape/shape", "op": "Pack", "input": ["StatefulPartitionedCall/StatefulPartitionedCall/StatefulPartitionedCall/vggface_senet50/reshape_1/strided_slice", "StatefulPartitionedCall/StatefulPartitionedCall/StatefulPartitionedCall/vggface_senet50/reshape_1/Reshape/shape/1", "StatefulPartitionedCall/StatefulPartitionedCall/StatefulPartitionedCall/vggface_senet50/reshape_1/Reshape/shape/2", "StatefulPartitionedCall/StatefulPartitionedCall/StatefulPartitionedCall/vggface_senet50/reshape_1/Reshape/shape/3"], "attr": {"axis": {"i": "0"}, "N": {"i": "4"}, "T": {"type": "DT_INT32"}}}, {"name": "StatefulPartitionedCall/StatefulPartitionedCall/StatefulPartitionedCall/vggface_senet50/reshape_1/Reshape", "op": "Reshape", "input": ["StatefulPartitionedCall/StatefulPartitionedCall/StatefulPartitionedCall/vggface_senet50/global_average_pooling2d_1/Mean", "StatefulPartitionedCall/StatefulPartitionedCall/StatefulPartitionedCall/vggface_senet50/reshape_1/Reshape/shape"], "attr": {"T": {"type": "DT_FLOAT"}, "Tshape": {"type": "DT_INT32"}}}, {"name": "StatefulPartitionedCall/StatefulPartitionedCall/StatefulPartitionedCall/vggface_senet50/activation_4/Relu", "op": "_FusedConv2D", "input": ["StatefulPartitionedCall/StatefulPartitionedCall/StatefulPartitionedCall/vggface_senet50/reshape_1/Reshape", "StatefulPartitionedCall/StatefulPartitionedCall/StatefulPartitionedCall/vggface_senet50/conv2_1_1x1_down/Conv2D/ReadVariableOp", "StatefulPartitionedCall/StatefulPartitionedCall/StatefulPartitionedCall/vggface_senet50/conv2_1_1x1_down/BiasAdd/ReadVariableOp"], "device": "/device:CPU:0", "attr": {"epsilon": {"f": 0.0}, "fused_ops": {"list": {"s": ["Qmlhc0FkZA==", "UmVsdQ=="]}}, "data_format": {"s": "TkhXQw=="}, "T": {"type": "DT_FLOAT"}, "dilations": {"list": {"i": ["1", "1", "1", "1"]}}, "use_cudnn_on_gpu": {"b": true}, "strides": {"list": {"i": ["1", "1", "1", "1"]}}, "explicit_paddings": {"list": {}}, "num_args": {"i": "1"}, "padding": {"s": "VkFMSUQ="}}}, {"name": "StatefulPartitionedCall/StatefulPartitionedCall/StatefulPartitionedCall/vggface_senet50/conv2_1_1x1_up/BiasAdd", "op": "_FusedConv2D", "input": ["StatefulPartitionedCall/StatefulPartitionedCall/StatefulPartitionedCall/vggface_senet50/activation_4/Relu", "StatefulPartitionedCall/StatefulPartitionedCall/StatefulPartitionedCall/vggface_senet50/conv2_1_1x1_up/Conv2D/ReadVariableOp", "StatefulPartitionedCall/StatefulPartitionedCall/StatefulPartitionedCall/vggface_senet50/conv2_1_1x1_up/BiasAdd/ReadVariableOp"], "device": "/device:CPU:0", "attr": {"use_cudnn_on_gpu": {"b": true}, "T": {"type": "DT_FLOAT"}, "padding": {"s": "VkFMSUQ="}, "fused_ops": {"list": {"s": ["Qmlhc0FkZA=="]}}, "explicit_paddings": {"list": {}}, "epsilon": {"f": 0.0}, "dilations": {"list": {"i": ["1", "1", "1", "1"]}}, "strides": {"list": {"i": ["1", "1", "1", "1"]}}, "data_format": {"s": "TkhXQw=="}, "num_args": {"i": "1"}}}, {"name": "StatefulPartitionedCall/StatefulPartitionedCall/StatefulPartitionedCall/vggface_senet50/activation_5/Sigmoid", "op": "Sigmoid", "input": ["StatefulPartitionedCall/StatefulPartitionedCall/StatefulPartitionedCall/vggface_senet50/conv2_1_1x1_up/BiasAdd"], "attr": {"T": {"type": "DT_FLOAT"}}}, {"name": "StatefulPartitionedCall/StatefulPartitionedCall/StatefulPartitionedCall/vggface_senet50/multiply_1/mul", "op": "Mul", "input": ["StatefulPartitionedCall/StatefulPartitionedCall/StatefulPartitionedCall/vggface_senet50/conv2_1_1x1_increase/bn/FusedBatchNormV3", "StatefulPartitionedCall/StatefulPartitionedCall/StatefulPartitionedCall/vggface_senet50/activation_5/Sigmoid"], "attr": {"T": {"type": "DT_FLOAT"}}}, {"name": "StatefulPartitionedCall/StatefulPartitionedCall/StatefulPartitionedCall/vggface_senet50/add_1/add", "op": "AddV2", "input": ["StatefulPartitionedCall/StatefulPartitionedCall/StatefulPartitionedCall/vggface_senet50/multiply_1/mul", "StatefulPartitionedCall/StatefulPartitionedCall/StatefulPartitionedCall/vggface_senet50/conv2_1_1x1_proj/bn/FusedBatchNormV3"], "attr": {"T": {"type": "DT_FLOAT"}}}, {"name": "StatefulPartitionedCall/StatefulPartitionedCall/StatefulPartitionedCall/vggface_senet50/activation_6/Relu", "op": "Relu", "input": ["StatefulPartitionedCall/StatefulPartitionedCall/StatefulPartitionedCall/vggface_senet50/add_1/add"], "attr": {"T": {"type": "DT_FLOAT"}}}, {"name": "StatefulPartitionedCall/StatefulPartitionedCall/StatefulPartitionedCall/vggface_senet50/activation_7/Relu", "op": "_FusedConv2D", "input": ["StatefulPartitionedCall/StatefulPartitionedCall/StatefulPartitionedCall/vggface_senet50/activation_6/Relu", "StatefulPartitionedCall/StatefulPartitionedCall/StatefulPartitionedCall/vggface_senet50/conv2_2_1x1_reduce/Conv2D_weights", "StatefulPartitionedCall/StatefulPartitionedCall/StatefulPartitionedCall/vggface_senet50/conv2_2_1x1_reduce/Conv2D_bn_offset"], "device": "/device:CPU:0", "attr": {"data_format": {"s": "TkhXQw=="}, "epsilon": {"f": 0.0}, "explicit_paddings": {"list": {}}, "strides": {"list": {"i": ["1", "1", "1", "1"]}}, "fused_ops": {"list": {"s": ["Qmlhc0FkZA==", "UmVsdQ=="]}}, "dilations": {"list": {"i": ["1", "1", "1", "1"]}}, "T": {"type": "DT_FLOAT"}, "padding": {"s": "VkFMSUQ="}, "num_args": {"i": "1"}, "use_cudnn_on_gpu": {"b": true}}}, {"name": "StatefulPartitionedCall/StatefulPartitionedCall/StatefulPartitionedCall/vggface_senet50/activation_8/Relu", "op": "_FusedConv2D", "input": ["StatefulPartitionedCall/StatefulPartitionedCall/StatefulPartitionedCall/vggface_senet50/activation_7/Relu", "StatefulPartitionedCall/StatefulPartitionedCall/StatefulPartitionedCall/vggface_senet50/conv2_2_3x3/Conv2D_weights", "StatefulPartitionedCall/StatefulPartitionedCall/StatefulPartitionedCall/vggface_senet50/conv2_2_3x3/Conv2D_bn_offset"], "device": "/device:CPU:0", "attr": {"epsilon": {"f": 0.0}, "explicit_paddings": {"list": {}}, "padding": {"s": "U0FNRQ=="}, "data_format": {"s": "TkhXQw=="}, "fused_ops": {"list": {"s": ["Qmlhc0FkZA==", "UmVsdQ=="]}}, "num_args": {"i": "1"}, "dilations": {"list": {"i": ["1", "1", "1", "1"]}}, "strides": {"list": {"i": ["1", "1", "1", "1"]}}, "use_cudnn_on_gpu": {"b": true}, "T": {"type": "DT_FLOAT"}}}, {"name": "StatefulPartitionedCall/StatefulPartitionedCall/StatefulPartitionedCall/vggface_senet50/conv2_2_1x1_increase/bn/FusedBatchNormV3", "op": "_FusedConv2D", "input": ["StatefulPartitionedCall/StatefulPartitionedCall/StatefulPartitionedCall/vggface_senet50/activation_8/Relu", "StatefulPartitionedCall/StatefulPartitionedCall/StatefulPartitionedCall/vggface_senet50/conv2_2_1x1_increase/Conv2D_weights", "StatefulPartitionedCall/StatefulPartitionedCall/StatefulPartitionedCall/vggface_senet50/conv2_2_1x1_increase/Conv2D_bn_offset"], "device": "/device:CPU:0", "attr": {"explicit_paddings": {"list": {}}, "fused_ops": {"list": {"s": ["Qmlhc0FkZA=="]}}, "epsilon": {"f": 0.0}, "dilations": {"list": {"i": ["1", "1", "1", "1"]}}, "num_args": {"i": "1"}, "strides": {"list": {"i": ["1", "1", "1", "1"]}}, "data_format": {"s": "TkhXQw=="}, "use_cudnn_on_gpu": {"b": true}, "T": {"type": "DT_FLOAT"}, "padding": {"s": "VkFMSUQ="}}}, {"name": "StatefulPartitionedCall/StatefulPartitionedCall/StatefulPartitionedCall/vggface_senet50/global_average_pooling2d_2/Mean", "op": "Mean", "input": ["StatefulPartitionedCall/StatefulPartitionedCall/StatefulPartitionedCall/vggface_senet50/conv2_2_1x1_increase/bn/FusedBatchNormV3", "StatefulPartitionedCall/StatefulPartitionedCall/StatefulPartitionedCall/vggface_senet50/global_average_pooling2d_2/Mean/reduction_indices"], "attr": {"T": {"type": "DT_FLOAT"}, "Tidx": {"type": "DT_INT32"}, "keep_dims": {"b": false}}}, {"name": "StatefulPartitionedCall/StatefulPartitionedCall/StatefulPartitionedCall/vggface_senet50/reshape_2/Shape", "op": "Shape", "input": ["StatefulPartitionedCall/StatefulPartitionedCall/StatefulPartitionedCall/vggface_senet50/global_average_pooling2d_2/Mean"], "attr": {"out_type": {"type": "DT_INT32"}, "T": {"type": "DT_FLOAT"}}}, {"name": "StatefulPartitionedCall/StatefulPartitionedCall/StatefulPartitionedCall/vggface_senet50/reshape_2/strided_slice", "op": "StridedSlice", "input": ["StatefulPartitionedCall/StatefulPartitionedCall/StatefulPartitionedCall/vggface_senet50/reshape_2/Shape", "StatefulPartitionedCall/StatefulPartitionedCall/StatefulPartitionedCall/vggface_senet50/reshape_2/strided_slice/stack", "StatefulPartitionedCall/StatefulPartitionedCall/StatefulPartitionedCall/vggface_senet50/reshape_2/strided_slice/stack_1", "StatefulPartitionedCall/StatefulPartitionedCall/StatefulPartitionedCall/vggface_senet50/reshape_2/strided_slice/stack_2"], "attr": {"Index": {"type": "DT_INT32"}, "begin_mask": {"i": "0"}, "end_mask": {"i": "0"}, "T": {"type": "DT_INT32"}, "ellipsis_mask": {"i": "0"}, "shrink_axis_mask": {"i": "1"}, "new_axis_mask": {"i": "0"}}}, {"name": "StatefulPartitionedCall/StatefulPartitionedCall/StatefulPartitionedCall/vggface_senet50/reshape_2/Reshape/shape", "op": "Pack", "input": ["StatefulPartitionedCall/StatefulPartitionedCall/StatefulPartitionedCall/vggface_senet50/reshape_2/strided_slice", "StatefulPartitionedCall/StatefulPartitionedCall/StatefulPartitionedCall/vggface_senet50/reshape_2/Reshape/shape/1", "StatefulPartitionedCall/StatefulPartitionedCall/StatefulPartitionedCall/vggface_senet50/reshape_2/Reshape/shape/2", "StatefulPartitionedCall/StatefulPartitionedCall/StatefulPartitionedCall/vggface_senet50/reshape_2/Reshape/shape/3"], "attr": {"T": {"type": "DT_INT32"}, "N": {"i": "4"}, "axis": {"i": "0"}}}, {"name": "StatefulPartitionedCall/StatefulPartitionedCall/StatefulPartitionedCall/vggface_senet50/reshape_2/Reshape", "op": "Reshape", "input": ["StatefulPartitionedCall/StatefulPartitionedCall/StatefulPartitionedCall/vggface_senet50/global_average_pooling2d_2/Mean", "StatefulPartitionedCall/StatefulPartitionedCall/StatefulPartitionedCall/vggface_senet50/reshape_2/Reshape/shape"], "attr": {"Tshape": {"type": "DT_INT32"}, "T": {"type": "DT_FLOAT"}}}, {"name": "StatefulPartitionedCall/StatefulPartitionedCall/StatefulPartitionedCall/vggface_senet50/activation_9/Relu", "op": "_FusedConv2D", "input": ["StatefulPartitionedCall/StatefulPartitionedCall/StatefulPartitionedCall/vggface_senet50/reshape_2/Reshape", "StatefulPartitionedCall/StatefulPartitionedCall/StatefulPartitionedCall/vggface_senet50/conv2_2_1x1_down/Conv2D/ReadVariableOp", "StatefulPartitionedCall/StatefulPartitionedCall/StatefulPartitionedCall/vggface_senet50/conv2_2_1x1_down/BiasAdd/ReadVariableOp"], "device": "/device:CPU:0", "attr": {"explicit_paddings": {"list": {}}, "fused_ops": {"list": {"s": ["Qmlhc0FkZA==", "UmVsdQ=="]}}, "dilations": {"list": {"i": ["1", "1", "1", "1"]}}, "data_format": {"s": "TkhXQw=="}, "epsilon": {"f": 0.0}, "num_args": {"i": "1"}, "padding": {"s": "VkFMSUQ="}, "strides": {"list": {"i": ["1", "1", "1", "1"]}}, "T": {"type": "DT_FLOAT"}, "use_cudnn_on_gpu": {"b": true}}}, {"name": "StatefulPartitionedCall/StatefulPartitionedCall/StatefulPartitionedCall/vggface_senet50/conv2_2_1x1_up/BiasAdd", "op": "_FusedConv2D", "input": ["StatefulPartitionedCall/StatefulPartitionedCall/StatefulPartitionedCall/vggface_senet50/activation_9/Relu", "StatefulPartitionedCall/StatefulPartitionedCall/StatefulPartitionedCall/vggface_senet50/conv2_2_1x1_up/Conv2D/ReadVariableOp", "StatefulPartitionedCall/StatefulPartitionedCall/StatefulPartitionedCall/vggface_senet50/conv2_2_1x1_up/BiasAdd/ReadVariableOp"], "device": "/device:CPU:0", "attr": {"epsilon": {"f": 0.0}, "padding": {"s": "VkFMSUQ="}, "strides": {"list": {"i": ["1", "1", "1", "1"]}}, "explicit_paddings": {"list": {}}, "T": {"type": "DT_FLOAT"}, "num_args": {"i": "1"}, "data_format": {"s": "TkhXQw=="}, "fused_ops": {"list": {"s": ["Qmlhc0FkZA=="]}}, "dilations": {"list": {"i": ["1", "1", "1", "1"]}}, "use_cudnn_on_gpu": {"b": true}}}, {"name": "StatefulPartitionedCall/StatefulPartitionedCall/StatefulPartitionedCall/vggface_senet50/activation_10/Sigmoid", "op": "Sigmoid", "input": ["StatefulPartitionedCall/StatefulPartitionedCall/StatefulPartitionedCall/vggface_senet50/conv2_2_1x1_up/BiasAdd"], "attr": {"T": {"type": "DT_FLOAT"}}}, {"name": "StatefulPartitionedCall/StatefulPartitionedCall/StatefulPartitionedCall/vggface_senet50/multiply_2/mul", "op": "Mul", "input": ["StatefulPartitionedCall/StatefulPartitionedCall/StatefulPartitionedCall/vggface_senet50/conv2_2_1x1_increase/bn/FusedBatchNormV3", "StatefulPartitionedCall/StatefulPartitionedCall/StatefulPartitionedCall/vggface_senet50/activation_10/Sigmoid"], "attr": {"T": {"type": "DT_FLOAT"}}}, {"name": "StatefulPartitionedCall/StatefulPartitionedCall/StatefulPartitionedCall/vggface_senet50/add_2/add", "op": "AddV2", "input": ["StatefulPartitionedCall/StatefulPartitionedCall/StatefulPartitionedCall/vggface_senet50/multiply_2/mul", "StatefulPartitionedCall/StatefulPartitionedCall/StatefulPartitionedCall/vggface_senet50/activation_6/Relu"], "attr": {"T": {"type": "DT_FLOAT"}}}, {"name": "StatefulPartitionedCall/StatefulPartitionedCall/StatefulPartitionedCall/vggface_senet50/activation_11/Relu", "op": "Relu", "input": ["StatefulPartitionedCall/StatefulPartitionedCall/StatefulPartitionedCall/vggface_senet50/add_2/add"], "attr": {"T": {"type": "DT_FLOAT"}}}, {"name": "StatefulPartitionedCall/StatefulPartitionedCall/StatefulPartitionedCall/vggface_senet50/activation_12/Relu", "op": "_FusedConv2D", "input": ["StatefulPartitionedCall/StatefulPartitionedCall/StatefulPartitionedCall/vggface_senet50/activation_11/Relu", "StatefulPartitionedCall/StatefulPartitionedCall/StatefulPartitionedCall/vggface_senet50/conv2_3_1x1_reduce/Conv2D_weights", "StatefulPartitionedCall/StatefulPartitionedCall/StatefulPartitionedCall/vggface_senet50/conv2_3_1x1_reduce/Conv2D_bn_offset"], "device": "/device:CPU:0", "attr": {"strides": {"list": {"i": ["1", "1", "1", "1"]}}, "fused_ops": {"list": {"s": ["Qmlhc0FkZA==", "UmVsdQ=="]}}, "num_args": {"i": "1"}, "use_cudnn_on_gpu": {"b": true}, "padding": {"s": "VkFMSUQ="}, "dilations": {"list": {"i": ["1", "1", "1", "1"]}}, "explicit_paddings": {"list": {}}, "T": {"type": "DT_FLOAT"}, "epsilon": {"f": 0.0}, "data_format": {"s": "TkhXQw=="}}}, {"name": "StatefulPartitionedCall/StatefulPartitionedCall/StatefulPartitionedCall/vggface_senet50/activation_13/Relu", "op": "_FusedConv2D", "input": ["StatefulPartitionedCall/StatefulPartitionedCall/StatefulPartitionedCall/vggface_senet50/activation_12/Relu", "StatefulPartitionedCall/StatefulPartitionedCall/StatefulPartitionedCall/vggface_senet50/conv2_3_3x3/Conv2D_weights", "StatefulPartitionedCall/StatefulPartitionedCall/StatefulPartitionedCall/vggface_senet50/conv2_3_3x3/Conv2D_bn_offset"], "device": "/device:CPU:0", "attr": {"padding": {"s": "U0FNRQ=="}, "use_cudnn_on_gpu": {"b": true}, "data_format": {"s": "TkhXQw=="}, "num_args": {"i": "1"}, "dilations": {"list": {"i": ["1", "1", "1", "1"]}}, "epsilon": {"f": 0.0}, "T": {"type": "DT_FLOAT"}, "strides": {"list": {"i": ["1", "1", "1", "1"]}}, "explicit_paddings": {"list": {}}, "fused_ops": {"list": {"s": ["Qmlhc0FkZA==", "UmVsdQ=="]}}}}, {"name": "StatefulPartitionedCall/StatefulPartitionedCall/StatefulPartitionedCall/vggface_senet50/conv2_3_1x1_increase/bn/FusedBatchNormV3", "op": "_FusedConv2D", "input": ["StatefulPartitionedCall/StatefulPartitionedCall/StatefulPartitionedCall/vggface_senet50/activation_13/Relu", "StatefulPartitionedCall/StatefulPartitionedCall/StatefulPartitionedCall/vggface_senet50/conv2_3_1x1_increase/Conv2D_weights", "StatefulPartitionedCall/StatefulPartitionedCall/StatefulPartitionedCall/vggface_senet50/conv2_3_1x1_increase/Conv2D_bn_offset"], "device": "/device:CPU:0", "attr": {"use_cudnn_on_gpu": {"b": true}, "fused_ops": {"list": {"s": ["Qmlhc0FkZA=="]}}, "epsilon": {"f": 0.0}, "data_format": {"s": "TkhXQw=="}, "T": {"type": "DT_FLOAT"}, "padding": {"s": "VkFMSUQ="}, "dilations": {"list": {"i": ["1", "1", "1", "1"]}}, "num_args": {"i": "1"}, "explicit_paddings": {"list": {}}, "strides": {"list": {"i": ["1", "1", "1", "1"]}}}}, {"name": "StatefulPartitionedCall/StatefulPartitionedCall/StatefulPartitionedCall/vggface_senet50/global_average_pooling2d_3/Mean", "op": "Mean", "input": ["StatefulPartitionedCall/StatefulPartitionedCall/StatefulPartitionedCall/vggface_senet50/conv2_3_1x1_increase/bn/FusedBatchNormV3", "StatefulPartitionedCall/StatefulPartitionedCall/StatefulPartitionedCall/vggface_senet50/global_average_pooling2d_3/Mean/reduction_indices"], "attr": {"Tidx": {"type": "DT_INT32"}, "T": {"type": "DT_FLOAT"}, "keep_dims": {"b": false}}}, {"name": "StatefulPartitionedCall/StatefulPartitionedCall/StatefulPartitionedCall/vggface_senet50/reshape_3/Shape", "op": "Shape", "input": ["StatefulPartitionedCall/StatefulPartitionedCall/StatefulPartitionedCall/vggface_senet50/global_average_pooling2d_3/Mean"], "attr": {"T": {"type": "DT_FLOAT"}, "out_type": {"type": "DT_INT32"}}}, {"name": "StatefulPartitionedCall/StatefulPartitionedCall/StatefulPartitionedCall/vggface_senet50/reshape_3/strided_slice", "op": "StridedSlice", "input": ["StatefulPartitionedCall/StatefulPartitionedCall/StatefulPartitionedCall/vggface_senet50/reshape_3/Shape", "StatefulPartitionedCall/StatefulPartitionedCall/StatefulPartitionedCall/vggface_senet50/reshape_3/strided_slice/stack", "StatefulPartitionedCall/StatefulPartitionedCall/StatefulPartitionedCall/vggface_senet50/reshape_3/strided_slice/stack_1", "StatefulPartitionedCall/StatefulPartitionedCall/StatefulPartitionedCall/vggface_senet50/reshape_3/strided_slice/stack_2"], "attr": {"T": {"type": "DT_INT32"}, "new_axis_mask": {"i": "0"}, "shrink_axis_mask": {"i": "1"}, "begin_mask": {"i": "0"}, "end_mask": {"i": "0"}, "ellipsis_mask": {"i": "0"}, "Index": {"type": "DT_INT32"}}}, {"name": "StatefulPartitionedCall/StatefulPartitionedCall/StatefulPartitionedCall/vggface_senet50/reshape_3/Reshape/shape", "op": "Pack", "input": ["StatefulPartitionedCall/StatefulPartitionedCall/StatefulPartitionedCall/vggface_senet50/reshape_3/strided_slice", "StatefulPartitionedCall/StatefulPartitionedCall/StatefulPartitionedCall/vggface_senet50/reshape_3/Reshape/shape/1", "StatefulPartitionedCall/StatefulPartitionedCall/StatefulPartitionedCall/vggface_senet50/reshape_3/Reshape/shape/2", "StatefulPartitionedCall/StatefulPartitionedCall/StatefulPartitionedCall/vggface_senet50/reshape_3/Reshape/shape/3"], "attr": {"N": {"i": "4"}, "axis": {"i": "0"}, "T": {"type": "DT_INT32"}}}, {"name": "StatefulPartitionedCall/StatefulPartitionedCall/StatefulPartitionedCall/vggface_senet50/reshape_3/Reshape", "op": "Reshape", "input": ["StatefulPartitionedCall/StatefulPartitionedCall/StatefulPartitionedCall/vggface_senet50/global_average_pooling2d_3/Mean", "StatefulPartitionedCall/StatefulPartitionedCall/StatefulPartitionedCall/vggface_senet50/reshape_3/Reshape/shape"], "attr": {"T": {"type": "DT_FLOAT"}, "Tshape": {"type": "DT_INT32"}}}, {"name": "StatefulPartitionedCall/StatefulPartitionedCall/StatefulPartitionedCall/vggface_senet50/activation_14/Relu", "op": "_FusedConv2D", "input": ["StatefulPartitionedCall/StatefulPartitionedCall/StatefulPartitionedCall/vggface_senet50/reshape_3/Reshape", "StatefulPartitionedCall/StatefulPartitionedCall/StatefulPartitionedCall/vggface_senet50/conv2_3_1x1_down/Conv2D/ReadVariableOp", "StatefulPartitionedCall/StatefulPartitionedCall/StatefulPartitionedCall/vggface_senet50/conv2_3_1x1_down/BiasAdd/ReadVariableOp"], "device": "/device:CPU:0", "attr": {"use_cudnn_on_gpu": {"b": true}, "num_args": {"i": "1"}, "dilations": {"list": {"i": ["1", "1", "1", "1"]}}, "fused_ops": {"list": {"s": ["Qmlhc0FkZA==", "UmVsdQ=="]}}, "epsilon": {"f": 0.0}, "padding": {"s": "VkFMSUQ="}, "data_format": {"s": "TkhXQw=="}, "strides": {"list": {"i": ["1", "1", "1", "1"]}}, "T": {"type": "DT_FLOAT"}, "explicit_paddings": {"list": {}}}}, {"name": "StatefulPartitionedCall/StatefulPartitionedCall/StatefulPartitionedCall/vggface_senet50/conv2_3_1x1_up/BiasAdd", "op": "_FusedConv2D", "input": ["StatefulPartitionedCall/StatefulPartitionedCall/StatefulPartitionedCall/vggface_senet50/activation_14/Relu", "StatefulPartitionedCall/StatefulPartitionedCall/StatefulPartitionedCall/vggface_senet50/conv2_3_1x1_up/Conv2D/ReadVariableOp", "StatefulPartitionedCall/StatefulPartitionedCall/StatefulPartitionedCall/vggface_senet50/conv2_3_1x1_up/BiasAdd/ReadVariableOp"], "device": "/device:CPU:0", "attr": {"strides": {"list": {"i": ["1", "1", "1", "1"]}}, "epsilon": {"f": 0.0}, "data_format": {"s": "TkhXQw=="}, "T": {"type": "DT_FLOAT"}, "use_cudnn_on_gpu": {"b": true}, "explicit_paddings": {"list": {}}, "num_args": {"i": "1"}, "padding": {"s": "VkFMSUQ="}, "dilations": {"list": {"i": ["1", "1", "1", "1"]}}, "fused_ops": {"list": {"s": ["Qmlhc0FkZA=="]}}}}, {"name": "StatefulPartitionedCall/StatefulPartitionedCall/StatefulPartitionedCall/vggface_senet50/activation_15/Sigmoid", "op": "Sigmoid", "input": ["StatefulPartitionedCall/StatefulPartitionedCall/StatefulPartitionedCall/vggface_senet50/conv2_3_1x1_up/BiasAdd"], "attr": {"T": {"type": "DT_FLOAT"}}}, {"name": "StatefulPartitionedCall/StatefulPartitionedCall/StatefulPartitionedCall/vggface_senet50/multiply_3/mul", "op": "Mul", "input": ["StatefulPartitionedCall/StatefulPartitionedCall/StatefulPartitionedCall/vggface_senet50/conv2_3_1x1_increase/bn/FusedBatchNormV3", "StatefulPartitionedCall/StatefulPartitionedCall/StatefulPartitionedCall/vggface_senet50/activation_15/Sigmoid"], "attr": {"T": {"type": "DT_FLOAT"}}}, {"name": "StatefulPartitionedCall/StatefulPartitionedCall/StatefulPartitionedCall/vggface_senet50/add_3/add", "op": "AddV2", "input": ["StatefulPartitionedCall/StatefulPartitionedCall/StatefulPartitionedCall/vggface_senet50/multiply_3/mul", "StatefulPartitionedCall/StatefulPartitionedCall/StatefulPartitionedCall/vggface_senet50/activation_11/Relu"], "attr": {"T": {"type": "DT_FLOAT"}}}, {"name": "StatefulPartitionedCall/StatefulPartitionedCall/StatefulPartitionedCall/vggface_senet50/activation_16/Relu", "op": "Relu", "input": ["StatefulPartitionedCall/StatefulPartitionedCall/StatefulPartitionedCall/vggface_senet50/add_3/add"], "attr": {"T": {"type": "DT_FLOAT"}}}, {"name": "StatefulPartitionedCall/StatefulPartitionedCall/StatefulPartitionedCall/vggface_senet50/activation_17/Relu", "op": "_FusedConv2D", "input": ["StatefulPartitionedCall/StatefulPartitionedCall/StatefulPartitionedCall/vggface_senet50/activation_16/Relu", "StatefulPartitionedCall/StatefulPartitionedCall/StatefulPartitionedCall/vggface_senet50/conv3_1_1x1_reduce/Conv2D_weights", "StatefulPartitionedCall/StatefulPartitionedCall/StatefulPartitionedCall/vggface_senet50/conv3_1_1x1_reduce/Conv2D_bn_offset"], "device": "/device:CPU:0", "attr": {"padding": {"s": "VkFMSUQ="}, "fused_ops": {"list": {"s": ["Qmlhc0FkZA==", "UmVsdQ=="]}}, "data_format": {"s": "TkhXQw=="}, "epsilon": {"f": 0.0}, "explicit_paddings": {"list": {}}, "strides": {"list": {"i": ["1", "2", "2", "1"]}}, "num_args": {"i": "1"}, "T": {"type": "DT_FLOAT"}, "dilations": {"list": {"i": ["1", "1", "1", "1"]}}, "use_cudnn_on_gpu": {"b": true}}}, {"name": "StatefulPartitionedCall/StatefulPartitionedCall/StatefulPartitionedCall/vggface_senet50/conv3_1_1x1_proj/bn/FusedBatchNormV3", "op": "_FusedConv2D", "input": ["StatefulPartitionedCall/StatefulPartitionedCall/StatefulPartitionedCall/vggface_senet50/activation_16/Relu", "StatefulPartitionedCall/StatefulPartitionedCall/StatefulPartitionedCall/vggface_senet50/conv3_1_1x1_proj/Conv2D_weights", "StatefulPartitionedCall/StatefulPartitionedCall/StatefulPartitionedCall/vggface_senet50/conv3_1_1x1_proj/Conv2D_bn_offset"], "device": "/device:CPU:0", "attr": {"epsilon": {"f": 0.0}, "dilations": {"list": {"i": ["1", "1", "1", "1"]}}, "num_args": {"i": "1"}, "padding": {"s": "VkFMSUQ="}, "data_format": {"s": "TkhXQw=="}, "T": {"type": "DT_FLOAT"}, "strides": {"list": {"i": ["1", "2", "2", "1"]}}, "fused_ops": {"list": {"s": ["Qmlhc0FkZA=="]}}, "explicit_paddings": {"list": {}}, "use_cudnn_on_gpu": {"b": true}}}, {"name": "StatefulPartitionedCall/StatefulPartitionedCall/StatefulPartitionedCall/vggface_senet50/activation_18/Relu", "op": "_FusedConv2D", "input": ["StatefulPartitionedCall/StatefulPartitionedCall/StatefulPartitionedCall/vggface_senet50/activation_17/Relu", "StatefulPartitionedCall/StatefulPartitionedCall/StatefulPartitionedCall/vggface_senet50/conv3_1_3x3/Conv2D_weights", "StatefulPartitionedCall/StatefulPartitionedCall/StatefulPartitionedCall/vggface_senet50/conv3_1_3x3/Conv2D_bn_offset"], "device": "/device:CPU:0", "attr": {"T": {"type": "DT_FLOAT"}, "explicit_paddings": {"list": {}}, "use_cudnn_on_gpu": {"b": true}, "padding": {"s": "U0FNRQ=="}, "fused_ops": {"list": {"s": ["Qmlhc0FkZA==", "UmVsdQ=="]}}, "dilations": {"list": {"i": ["1", "1", "1", "1"]}}, "num_args": {"i": "1"}, "data_format": {"s": "TkhXQw=="}, "epsilon": {"f": 0.0}, "strides": {"list": {"i": ["1", "1", "1", "1"]}}}}, {"name": "StatefulPartitionedCall/StatefulPartitionedCall/StatefulPartitionedCall/vggface_senet50/conv3_1_1x1_increase/bn/FusedBatchNormV3", "op": "_FusedConv2D", "input": ["StatefulPartitionedCall/StatefulPartitionedCall/StatefulPartitionedCall/vggface_senet50/activation_18/Relu", "StatefulPartitionedCall/StatefulPartitionedCall/StatefulPartitionedCall/vggface_senet50/conv3_1_1x1_increase/Conv2D_weights", "StatefulPartitionedCall/StatefulPartitionedCall/StatefulPartitionedCall/vggface_senet50/conv3_1_1x1_increase/Conv2D_bn_offset"], "device": "/device:CPU:0", "attr": {"epsilon": {"f": 0.0}, "data_format": {"s": "TkhXQw=="}, "padding": {"s": "VkFMSUQ="}, "strides": {"list": {"i": ["1", "1", "1", "1"]}}, "fused_ops": {"list": {"s": ["Qmlhc0FkZA=="]}}, "num_args": {"i": "1"}, "explicit_paddings": {"list": {}}, "use_cudnn_on_gpu": {"b": true}, "dilations": {"list": {"i": ["1", "1", "1", "1"]}}, "T": {"type": "DT_FLOAT"}}}, {"name": "StatefulPartitionedCall/StatefulPartitionedCall/StatefulPartitionedCall/vggface_senet50/global_average_pooling2d_4/Mean", "op": "Mean", "input": ["StatefulPartitionedCall/StatefulPartitionedCall/StatefulPartitionedCall/vggface_senet50/conv3_1_1x1_increase/bn/FusedBatchNormV3", "StatefulPartitionedCall/StatefulPartitionedCall/StatefulPartitionedCall/vggface_senet50/global_average_pooling2d_4/Mean/reduction_indices"], "attr": {"Tidx": {"type": "DT_INT32"}, "T": {"type": "DT_FLOAT"}, "keep_dims": {"b": false}}}, {"name": "StatefulPartitionedCall/StatefulPartitionedCall/StatefulPartitionedCall/vggface_senet50/reshape_4/Shape", "op": "Shape", "input": ["StatefulPartitionedCall/StatefulPartitionedCall/StatefulPartitionedCall/vggface_senet50/global_average_pooling2d_4/Mean"], "attr": {"out_type": {"type": "DT_INT32"}, "T": {"type": "DT_FLOAT"}}}, {"name": "StatefulPartitionedCall/StatefulPartitionedCall/StatefulPartitionedCall/vggface_senet50/reshape_4/strided_slice", "op": "StridedSlice", "input": ["StatefulPartitionedCall/StatefulPartitionedCall/StatefulPartitionedCall/vggface_senet50/reshape_4/Shape", "StatefulPartitionedCall/StatefulPartitionedCall/StatefulPartitionedCall/vggface_senet50/reshape_4/strided_slice/stack", "StatefulPartitionedCall/StatefulPartitionedCall/StatefulPartitionedCall/vggface_senet50/reshape_4/strided_slice/stack_1", "StatefulPartitionedCall/StatefulPartitionedCall/StatefulPartitionedCall/vggface_senet50/reshape_4/strided_slice/stack_2"], "attr": {"ellipsis_mask": {"i": "0"}, "end_mask": {"i": "0"}, "T": {"type": "DT_INT32"}, "shrink_axis_mask": {"i": "1"}, "new_axis_mask": {"i": "0"}, "Index": {"type": "DT_INT32"}, "begin_mask": {"i": "0"}}}, {"name": "StatefulPartitionedCall/StatefulPartitionedCall/StatefulPartitionedCall/vggface_senet50/reshape_4/Reshape/shape", "op": "Pack", "input": ["StatefulPartitionedCall/StatefulPartitionedCall/StatefulPartitionedCall/vggface_senet50/reshape_4/strided_slice", "StatefulPartitionedCall/StatefulPartitionedCall/StatefulPartitionedCall/vggface_senet50/reshape_4/Reshape/shape/1", "StatefulPartitionedCall/StatefulPartitionedCall/StatefulPartitionedCall/vggface_senet50/reshape_4/Reshape/shape/2", "StatefulPartitionedCall/StatefulPartitionedCall/StatefulPartitionedCall/vggface_senet50/reshape_4/Reshape/shape/3"], "attr": {"T": {"type": "DT_INT32"}, "N": {"i": "4"}, "axis": {"i": "0"}}}, {"name": "StatefulPartitionedCall/StatefulPartitionedCall/StatefulPartitionedCall/vggface_senet50/reshape_4/Reshape", "op": "Reshape", "input": ["StatefulPartitionedCall/StatefulPartitionedCall/StatefulPartitionedCall/vggface_senet50/global_average_pooling2d_4/Mean", "StatefulPartitionedCall/StatefulPartitionedCall/StatefulPartitionedCall/vggface_senet50/reshape_4/Reshape/shape"], "attr": {"T": {"type": "DT_FLOAT"}, "Tshape": {"type": "DT_INT32"}}}, {"name": "StatefulPartitionedCall/StatefulPartitionedCall/StatefulPartitionedCall/vggface_senet50/activation_19/Relu", "op": "_FusedConv2D", "input": ["StatefulPartitionedCall/StatefulPartitionedCall/StatefulPartitionedCall/vggface_senet50/reshape_4/Reshape", "StatefulPartitionedCall/StatefulPartitionedCall/StatefulPartitionedCall/vggface_senet50/conv3_1_1x1_down/Conv2D/ReadVariableOp", "StatefulPartitionedCall/StatefulPartitionedCall/StatefulPartitionedCall/vggface_senet50/conv3_1_1x1_down/BiasAdd/ReadVariableOp"], "device": "/device:CPU:0", "attr": {"dilations": {"list": {"i": ["1", "1", "1", "1"]}}, "epsilon": {"f": 0.0}, "use_cudnn_on_gpu": {"b": true}, "num_args": {"i": "1"}, "data_format": {"s": "TkhXQw=="}, "padding": {"s": "VkFMSUQ="}, "fused_ops": {"list": {"s": ["Qmlhc0FkZA==", "UmVsdQ=="]}}, "T": {"type": "DT_FLOAT"}, "strides": {"list": {"i": ["1", "1", "1", "1"]}}, "explicit_paddings": {"list": {}}}}, {"name": "StatefulPartitionedCall/StatefulPartitionedCall/StatefulPartitionedCall/vggface_senet50/conv3_1_1x1_up/BiasAdd", "op": "_FusedConv2D", "input": ["StatefulPartitionedCall/StatefulPartitionedCall/StatefulPartitionedCall/vggface_senet50/activation_19/Relu", "StatefulPartitionedCall/StatefulPartitionedCall/StatefulPartitionedCall/vggface_senet50/conv3_1_1x1_up/Conv2D/ReadVariableOp", "StatefulPartitionedCall/StatefulPartitionedCall/StatefulPartitionedCall/vggface_senet50/conv3_1_1x1_up/BiasAdd/ReadVariableOp"], "device": "/device:CPU:0", "attr": {"fused_ops": {"list": {"s": ["Qmlhc0FkZA=="]}}, "use_cudnn_on_gpu": {"b": true}, "num_args": {"i": "1"}, "strides": {"list": {"i": ["1", "1", "1", "1"]}}, "data_format": {"s": "TkhXQw=="}, "dilations": {"list": {"i": ["1", "1", "1", "1"]}}, "epsilon": {"f": 0.0}, "padding": {"s": "VkFMSUQ="}, "explicit_paddings": {"list": {}}, "T": {"type": "DT_FLOAT"}}}, {"name": "StatefulPartitionedCall/StatefulPartitionedCall/StatefulPartitionedCall/vggface_senet50/activation_20/Sigmoid", "op": "Sigmoid", "input": ["StatefulPartitionedCall/StatefulPartitionedCall/StatefulPartitionedCall/vggface_senet50/conv3_1_1x1_up/BiasAdd"], "attr": {"T": {"type": "DT_FLOAT"}}}, {"name": "StatefulPartitionedCall/StatefulPartitionedCall/StatefulPartitionedCall/vggface_senet50/multiply_4/mul", "op": "Mul", "input": ["StatefulPartitionedCall/StatefulPartitionedCall/StatefulPartitionedCall/vggface_senet50/conv3_1_1x1_increase/bn/FusedBatchNormV3", "StatefulPartitionedCall/StatefulPartitionedCall/StatefulPartitionedCall/vggface_senet50/activation_20/Sigmoid"], "attr": {"T": {"type": "DT_FLOAT"}}}, {"name": "StatefulPartitionedCall/StatefulPartitionedCall/StatefulPartitionedCall/vggface_senet50/add_4/add", "op": "AddV2", "input": ["StatefulPartitionedCall/StatefulPartitionedCall/StatefulPartitionedCall/vggface_senet50/multiply_4/mul", "StatefulPartitionedCall/StatefulPartitionedCall/StatefulPartitionedCall/vggface_senet50/conv3_1_1x1_proj/bn/FusedBatchNormV3"], "attr": {"T": {"type": "DT_FLOAT"}}}, {"name": "StatefulPartitionedCall/StatefulPartitionedCall/StatefulPartitionedCall/vggface_senet50/activation_21/Relu", "op": "Relu", "input": ["StatefulPartitionedCall/StatefulPartitionedCall/StatefulPartitionedCall/vggface_senet50/add_4/add"], "attr": {"T": {"type": "DT_FLOAT"}}}, {"name": "StatefulPartitionedCall/StatefulPartitionedCall/StatefulPartitionedCall/vggface_senet50/activation_22/Relu", "op": "_FusedConv2D", "input": ["StatefulPartitionedCall/StatefulPartitionedCall/StatefulPartitionedCall/vggface_senet50/activation_21/Relu", "StatefulPartitionedCall/StatefulPartitionedCall/StatefulPartitionedCall/vggface_senet50/conv3_2_1x1_reduce/Conv2D_weights", "StatefulPartitionedCall/StatefulPartitionedCall/StatefulPartitionedCall/vggface_senet50/conv3_2_1x1_reduce/Conv2D_bn_offset"], "device": "/device:CPU:0", "attr": {"fused_ops": {"list": {"s": ["Qmlhc0FkZA==", "UmVsdQ=="]}}, "padding": {"s": "VkFMSUQ="}, "epsilon": {"f": 0.0}, "data_format": {"s": "TkhXQw=="}, "T": {"type": "DT_FLOAT"}, "dilations": {"list": {"i": ["1", "1", "1", "1"]}}, "num_args": {"i": "1"}, "use_cudnn_on_gpu": {"b": true}, "strides": {"list": {"i": ["1", "1", "1", "1"]}}, "explicit_paddings": {"list": {}}}}, {"name": "StatefulPartitionedCall/StatefulPartitionedCall/StatefulPartitionedCall/vggface_senet50/activation_23/Relu", "op": "_FusedConv2D", "input": ["StatefulPartitionedCall/StatefulPartitionedCall/StatefulPartitionedCall/vggface_senet50/activation_22/Relu", "StatefulPartitionedCall/StatefulPartitionedCall/StatefulPartitionedCall/vggface_senet50/conv3_2_3x3/Conv2D_weights", "StatefulPartitionedCall/StatefulPartitionedCall/StatefulPartitionedCall/vggface_senet50/conv3_2_3x3/Conv2D_bn_offset"], "device": "/device:CPU:0", "attr": {"use_cudnn_on_gpu": {"b": true}, "strides": {"list": {"i": ["1", "1", "1", "1"]}}, "fused_ops": {"list": {"s": ["Qmlhc0FkZA==", "UmVsdQ=="]}}, "T": {"type": "DT_FLOAT"}, "dilations": {"list": {"i": ["1", "1", "1", "1"]}}, "explicit_paddings": {"list": {}}, "data_format": {"s": "TkhXQw=="}, "epsilon": {"f": 0.0}, "num_args": {"i": "1"}, "padding": {"s": "U0FNRQ=="}}}, {"name": "StatefulPartitionedCall/StatefulPartitionedCall/StatefulPartitionedCall/vggface_senet50/conv3_2_1x1_increase/bn/FusedBatchNormV3", "op": "_FusedConv2D", "input": ["StatefulPartitionedCall/StatefulPartitionedCall/StatefulPartitionedCall/vggface_senet50/activation_23/Relu", "StatefulPartitionedCall/StatefulPartitionedCall/StatefulPartitionedCall/vggface_senet50/conv3_2_1x1_increase/Conv2D_weights", "StatefulPartitionedCall/StatefulPartitionedCall/StatefulPartitionedCall/vggface_senet50/conv3_2_1x1_increase/Conv2D_bn_offset"], "device": "/device:CPU:0", "attr": {"fused_ops": {"list": {"s": ["Qmlhc0FkZA=="]}}, "padding": {"s": "VkFMSUQ="}, "use_cudnn_on_gpu": {"b": true}, "num_args": {"i": "1"}, "epsilon": {"f": 0.0}, "data_format": {"s": "TkhXQw=="}, "dilations": {"list": {"i": ["1", "1", "1", "1"]}}, "T": {"type": "DT_FLOAT"}, "strides": {"list": {"i": ["1", "1", "1", "1"]}}, "explicit_paddings": {"list": {}}}}, {"name": "StatefulPartitionedCall/StatefulPartitionedCall/StatefulPartitionedCall/vggface_senet50/global_average_pooling2d_5/Mean", "op": "Mean", "input": ["StatefulPartitionedCall/StatefulPartitionedCall/StatefulPartitionedCall/vggface_senet50/conv3_2_1x1_increase/bn/FusedBatchNormV3", "StatefulPartitionedCall/StatefulPartitionedCall/StatefulPartitionedCall/vggface_senet50/global_average_pooling2d_5/Mean/reduction_indices"], "attr": {"keep_dims": {"b": false}, "Tidx": {"type": "DT_INT32"}, "T": {"type": "DT_FLOAT"}}}, {"name": "StatefulPartitionedCall/StatefulPartitionedCall/StatefulPartitionedCall/vggface_senet50/reshape_5/Shape", "op": "Shape", "input": ["StatefulPartitionedCall/StatefulPartitionedCall/StatefulPartitionedCall/vggface_senet50/global_average_pooling2d_5/Mean"], "attr": {"T": {"type": "DT_FLOAT"}, "out_type": {"type": "DT_INT32"}}}, {"name": "StatefulPartitionedCall/StatefulPartitionedCall/StatefulPartitionedCall/vggface_senet50/reshape_5/strided_slice", "op": "StridedSlice", "input": ["StatefulPartitionedCall/StatefulPartitionedCall/StatefulPartitionedCall/vggface_senet50/reshape_5/Shape", "StatefulPartitionedCall/StatefulPartitionedCall/StatefulPartitionedCall/vggface_senet50/reshape_5/strided_slice/stack", "StatefulPartitionedCall/StatefulPartitionedCall/StatefulPartitionedCall/vggface_senet50/reshape_5/strided_slice/stack_1", "StatefulPartitionedCall/StatefulPartitionedCall/StatefulPartitionedCall/vggface_senet50/reshape_5/strided_slice/stack_2"], "attr": {"new_axis_mask": {"i": "0"}, "Index": {"type": "DT_INT32"}, "shrink_axis_mask": {"i": "1"}, "ellipsis_mask": {"i": "0"}, "begin_mask": {"i": "0"}, "end_mask": {"i": "0"}, "T": {"type": "DT_INT32"}}}, {"name": "StatefulPartitionedCall/StatefulPartitionedCall/StatefulPartitionedCall/vggface_senet50/reshape_5/Reshape/shape", "op": "Pack", "input": ["StatefulPartitionedCall/StatefulPartitionedCall/StatefulPartitionedCall/vggface_senet50/reshape_5/strided_slice", "StatefulPartitionedCall/StatefulPartitionedCall/StatefulPartitionedCall/vggface_senet50/reshape_5/Reshape/shape/1", "StatefulPartitionedCall/StatefulPartitionedCall/StatefulPartitionedCall/vggface_senet50/reshape_5/Reshape/shape/2", "StatefulPartitionedCall/StatefulPartitionedCall/StatefulPartitionedCall/vggface_senet50/reshape_5/Reshape/shape/3"], "attr": {"axis": {"i": "0"}, "T": {"type": "DT_INT32"}, "N": {"i": "4"}}}, {"name": "StatefulPartitionedCall/StatefulPartitionedCall/StatefulPartitionedCall/vggface_senet50/reshape_5/Reshape", "op": "Reshape", "input": ["StatefulPartitionedCall/StatefulPartitionedCall/StatefulPartitionedCall/vggface_senet50/global_average_pooling2d_5/Mean", "StatefulPartitionedCall/StatefulPartitionedCall/StatefulPartitionedCall/vggface_senet50/reshape_5/Reshape/shape"], "attr": {"Tshape": {"type": "DT_INT32"}, "T": {"type": "DT_FLOAT"}}}, {"name": "StatefulPartitionedCall/StatefulPartitionedCall/StatefulPartitionedCall/vggface_senet50/activation_24/Relu", "op": "_FusedConv2D", "input": ["StatefulPartitionedCall/StatefulPartitionedCall/StatefulPartitionedCall/vggface_senet50/reshape_5/Reshape", "StatefulPartitionedCall/StatefulPartitionedCall/StatefulPartitionedCall/vggface_senet50/conv3_2_1x1_down/Conv2D/ReadVariableOp", "StatefulPartitionedCall/StatefulPartitionedCall/StatefulPartitionedCall/vggface_senet50/conv3_2_1x1_down/BiasAdd/ReadVariableOp"], "device": "/device:CPU:0", "attr": {"use_cudnn_on_gpu": {"b": true}, "num_args": {"i": "1"}, "data_format": {"s": "TkhXQw=="}, "epsilon": {"f": 0.0}, "fused_ops": {"list": {"s": ["Qmlhc0FkZA==", "UmVsdQ=="]}}, "explicit_paddings": {"list": {}}, "T": {"type": "DT_FLOAT"}, "padding": {"s": "VkFMSUQ="}, "strides": {"list": {"i": ["1", "1", "1", "1"]}}, "dilations": {"list": {"i": ["1", "1", "1", "1"]}}}}, {"name": "StatefulPartitionedCall/StatefulPartitionedCall/StatefulPartitionedCall/vggface_senet50/conv3_2_1x1_up/BiasAdd", "op": "_FusedConv2D", "input": ["StatefulPartitionedCall/StatefulPartitionedCall/StatefulPartitionedCall/vggface_senet50/activation_24/Relu", "StatefulPartitionedCall/StatefulPartitionedCall/StatefulPartitionedCall/vggface_senet50/conv3_2_1x1_up/Conv2D/ReadVariableOp", "StatefulPartitionedCall/StatefulPartitionedCall/StatefulPartitionedCall/vggface_senet50/conv3_2_1x1_up/BiasAdd/ReadVariableOp"], "device": "/device:CPU:0", "attr": {"padding": {"s": "VkFMSUQ="}, "T": {"type": "DT_FLOAT"}, "data_format": {"s": "TkhXQw=="}, "num_args": {"i": "1"}, "fused_ops": {"list": {"s": ["Qmlhc0FkZA=="]}}, "epsilon": {"f": 0.0}, "strides": {"list": {"i": ["1", "1", "1", "1"]}}, "dilations": {"list": {"i": ["1", "1", "1", "1"]}}, "use_cudnn_on_gpu": {"b": true}, "explicit_paddings": {"list": {}}}}, {"name": "StatefulPartitionedCall/StatefulPartitionedCall/StatefulPartitionedCall/vggface_senet50/activation_25/Sigmoid", "op": "Sigmoid", "input": ["StatefulPartitionedCall/StatefulPartitionedCall/StatefulPartitionedCall/vggface_senet50/conv3_2_1x1_up/BiasAdd"], "attr": {"T": {"type": "DT_FLOAT"}}}, {"name": "StatefulPartitionedCall/StatefulPartitionedCall/StatefulPartitionedCall/vggface_senet50/multiply_5/mul", "op": "Mul", "input": ["StatefulPartitionedCall/StatefulPartitionedCall/StatefulPartitionedCall/vggface_senet50/conv3_2_1x1_increase/bn/FusedBatchNormV3", "StatefulPartitionedCall/StatefulPartitionedCall/StatefulPartitionedCall/vggface_senet50/activation_25/Sigmoid"], "attr": {"T": {"type": "DT_FLOAT"}}}, {"name": "StatefulPartitionedCall/StatefulPartitionedCall/StatefulPartitionedCall/vggface_senet50/add_5/add", "op": "AddV2", "input": ["StatefulPartitionedCall/StatefulPartitionedCall/StatefulPartitionedCall/vggface_senet50/multiply_5/mul", "StatefulPartitionedCall/StatefulPartitionedCall/StatefulPartitionedCall/vggface_senet50/activation_21/Relu"], "attr": {"T": {"type": "DT_FLOAT"}}}, {"name": "StatefulPartitionedCall/StatefulPartitionedCall/StatefulPartitionedCall/vggface_senet50/activation_26/Relu", "op": "Relu", "input": ["StatefulPartitionedCall/StatefulPartitionedCall/StatefulPartitionedCall/vggface_senet50/add_5/add"], "attr": {"T": {"type": "DT_FLOAT"}}}, {"name": "StatefulPartitionedCall/StatefulPartitionedCall/StatefulPartitionedCall/vggface_senet50/activation_27/Relu", "op": "_FusedConv2D", "input": ["StatefulPartitionedCall/StatefulPartitionedCall/StatefulPartitionedCall/vggface_senet50/activation_26/Relu", "StatefulPartitionedCall/StatefulPartitionedCall/StatefulPartitionedCall/vggface_senet50/conv3_3_1x1_reduce/Conv2D_weights", "StatefulPartitionedCall/StatefulPartitionedCall/StatefulPartitionedCall/vggface_senet50/conv3_3_1x1_reduce/Conv2D_bn_offset"], "device": "/device:CPU:0", "attr": {"T": {"type": "DT_FLOAT"}, "epsilon": {"f": 0.0}, "padding": {"s": "VkFMSUQ="}, "strides": {"list": {"i": ["1", "1", "1", "1"]}}, "num_args": {"i": "1"}, "use_cudnn_on_gpu": {"b": true}, "explicit_paddings": {"list": {}}, "fused_ops": {"list": {"s": ["Qmlhc0FkZA==", "UmVsdQ=="]}}, "dilations": {"list": {"i": ["1", "1", "1", "1"]}}, "data_format": {"s": "TkhXQw=="}}}, {"name": "StatefulPartitionedCall/StatefulPartitionedCall/StatefulPartitionedCall/vggface_senet50/activation_28/Relu", "op": "_FusedConv2D", "input": ["StatefulPartitionedCall/StatefulPartitionedCall/StatefulPartitionedCall/vggface_senet50/activation_27/Relu", "StatefulPartitionedCall/StatefulPartitionedCall/StatefulPartitionedCall/vggface_senet50/conv3_3_3x3/Conv2D_weights", "StatefulPartitionedCall/StatefulPartitionedCall/StatefulPartitionedCall/vggface_senet50/conv3_3_3x3/Conv2D_bn_offset"], "device": "/device:CPU:0", "attr": {"num_args": {"i": "1"}, "data_format": {"s": "TkhXQw=="}, "dilations": {"list": {"i": ["1", "1", "1", "1"]}}, "fused_ops": {"list": {"s": ["Qmlhc0FkZA==", "UmVsdQ=="]}}, "epsilon": {"f": 0.0}, "use_cudnn_on_gpu": {"b": true}, "padding": {"s": "U0FNRQ=="}, "T": {"type": "DT_FLOAT"}, "explicit_paddings": {"list": {}}, "strides": {"list": {"i": ["1", "1", "1", "1"]}}}}, {"name": "StatefulPartitionedCall/StatefulPartitionedCall/StatefulPartitionedCall/vggface_senet50/conv3_3_1x1_increase/bn/FusedBatchNormV3", "op": "_FusedConv2D", "input": ["StatefulPartitionedCall/StatefulPartitionedCall/StatefulPartitionedCall/vggface_senet50/activation_28/Relu", "StatefulPartitionedCall/StatefulPartitionedCall/StatefulPartitionedCall/vggface_senet50/conv3_3_1x1_increase/Conv2D_weights", "StatefulPartitionedCall/StatefulPartitionedCall/StatefulPartitionedCall/vggface_senet50/conv3_3_1x1_increase/Conv2D_bn_offset"], "device": "/device:CPU:0", "attr": {"epsilon": {"f": 0.0}, "use_cudnn_on_gpu": {"b": true}, "padding": {"s": "VkFMSUQ="}, "fused_ops": {"list": {"s": ["Qmlhc0FkZA=="]}}, "T": {"type": "DT_FLOAT"}, "num_args": {"i": "1"}, "explicit_paddings": {"list": {}}, "strides": {"list": {"i": ["1", "1", "1", "1"]}}, "dilations": {"list": {"i": ["1", "1", "1", "1"]}}, "data_format": {"s": "TkhXQw=="}}}, {"name": "StatefulPartitionedCall/StatefulPartitionedCall/StatefulPartitionedCall/vggface_senet50/global_average_pooling2d_6/Mean", "op": "Mean", "input": ["StatefulPartitionedCall/StatefulPartitionedCall/StatefulPartitionedCall/vggface_senet50/conv3_3_1x1_increase/bn/FusedBatchNormV3", "StatefulPartitionedCall/StatefulPartitionedCall/StatefulPartitionedCall/vggface_senet50/global_average_pooling2d_6/Mean/reduction_indices"], "attr": {"keep_dims": {"b": false}, "Tidx": {"type": "DT_INT32"}, "T": {"type": "DT_FLOAT"}}}, {"name": "StatefulPartitionedCall/StatefulPartitionedCall/StatefulPartitionedCall/vggface_senet50/reshape_6/Shape", "op": "Shape", "input": ["StatefulPartitionedCall/StatefulPartitionedCall/StatefulPartitionedCall/vggface_senet50/global_average_pooling2d_6/Mean"], "attr": {"T": {"type": "DT_FLOAT"}, "out_type": {"type": "DT_INT32"}}}, {"name": "StatefulPartitionedCall/StatefulPartitionedCall/StatefulPartitionedCall/vggface_senet50/reshape_6/strided_slice", "op": "StridedSlice", "input": ["StatefulPartitionedCall/StatefulPartitionedCall/StatefulPartitionedCall/vggface_senet50/reshape_6/Shape", "StatefulPartitionedCall/StatefulPartitionedCall/StatefulPartitionedCall/vggface_senet50/reshape_6/strided_slice/stack", "StatefulPartitionedCall/StatefulPartitionedCall/StatefulPartitionedCall/vggface_senet50/reshape_6/strided_slice/stack_1", "StatefulPartitionedCall/StatefulPartitionedCall/StatefulPartitionedCall/vggface_senet50/reshape_6/strided_slice/stack_2"], "attr": {"ellipsis_mask": {"i": "0"}, "begin_mask": {"i": "0"}, "new_axis_mask": {"i": "0"}, "Index": {"type": "DT_INT32"}, "end_mask": {"i": "0"}, "shrink_axis_mask": {"i": "1"}, "T": {"type": "DT_INT32"}}}, {"name": "StatefulPartitionedCall/StatefulPartitionedCall/StatefulPartitionedCall/vggface_senet50/reshape_6/Reshape/shape", "op": "Pack", "input": ["StatefulPartitionedCall/StatefulPartitionedCall/StatefulPartitionedCall/vggface_senet50/reshape_6/strided_slice", "StatefulPartitionedCall/StatefulPartitionedCall/StatefulPartitionedCall/vggface_senet50/reshape_6/Reshape/shape/1", "StatefulPartitionedCall/StatefulPartitionedCall/StatefulPartitionedCall/vggface_senet50/reshape_6/Reshape/shape/2", "StatefulPartitionedCall/StatefulPartitionedCall/StatefulPartitionedCall/vggface_senet50/reshape_6/Reshape/shape/3"], "attr": {"axis": {"i": "0"}, "T": {"type": "DT_INT32"}, "N": {"i": "4"}}}, {"name": "StatefulPartitionedCall/StatefulPartitionedCall/StatefulPartitionedCall/vggface_senet50/reshape_6/Reshape", "op": "Reshape", "input": ["StatefulPartitionedCall/StatefulPartitionedCall/StatefulPartitionedCall/vggface_senet50/global_average_pooling2d_6/Mean", "StatefulPartitionedCall/StatefulPartitionedCall/StatefulPartitionedCall/vggface_senet50/reshape_6/Reshape/shape"], "attr": {"T": {"type": "DT_FLOAT"}, "Tshape": {"type": "DT_INT32"}}}, {"name": "StatefulPartitionedCall/StatefulPartitionedCall/StatefulPartitionedCall/vggface_senet50/activation_29/Relu", "op": "_FusedConv2D", "input": ["StatefulPartitionedCall/StatefulPartitionedCall/StatefulPartitionedCall/vggface_senet50/reshape_6/Reshape", "StatefulPartitionedCall/StatefulPartitionedCall/StatefulPartitionedCall/vggface_senet50/conv3_3_1x1_down/Conv2D/ReadVariableOp", "StatefulPartitionedCall/StatefulPartitionedCall/StatefulPartitionedCall/vggface_senet50/conv3_3_1x1_down/BiasAdd/ReadVariableOp"], "device": "/device:CPU:0", "attr": {"explicit_paddings": {"list": {}}, "dilations": {"list": {"i": ["1", "1", "1", "1"]}}, "use_cudnn_on_gpu": {"b": true}, "data_format": {"s": "TkhXQw=="}, "num_args": {"i": "1"}, "padding": {"s": "VkFMSUQ="}, "T": {"type": "DT_FLOAT"}, "epsilon": {"f": 0.0}, "fused_ops": {"list": {"s": ["Qmlhc0FkZA==", "UmVsdQ=="]}}, "strides": {"list": {"i": ["1", "1", "1", "1"]}}}}, {"name": "StatefulPartitionedCall/StatefulPartitionedCall/StatefulPartitionedCall/vggface_senet50/conv3_3_1x1_up/BiasAdd", "op": "_FusedConv2D", "input": ["StatefulPartitionedCall/StatefulPartitionedCall/StatefulPartitionedCall/vggface_senet50/activation_29/Relu", "StatefulPartitionedCall/StatefulPartitionedCall/StatefulPartitionedCall/vggface_senet50/conv3_3_1x1_up/Conv2D/ReadVariableOp", "StatefulPartitionedCall/StatefulPartitionedCall/StatefulPartitionedCall/vggface_senet50/conv3_3_1x1_up/BiasAdd/ReadVariableOp"], "device": "/device:CPU:0", "attr": {"epsilon": {"f": 0.0}, "fused_ops": {"list": {"s": ["Qmlhc0FkZA=="]}}, "T": {"type": "DT_FLOAT"}, "data_format": {"s": "TkhXQw=="}, "use_cudnn_on_gpu": {"b": true}, "num_args": {"i": "1"}, "padding": {"s": "VkFMSUQ="}, "explicit_paddings": {"list": {}}, "dilations": {"list": {"i": ["1", "1", "1", "1"]}}, "strides": {"list": {"i": ["1", "1", "1", "1"]}}}}, {"name": "StatefulPartitionedCall/StatefulPartitionedCall/StatefulPartitionedCall/vggface_senet50/activation_30/Sigmoid", "op": "Sigmoid", "input": ["StatefulPartitionedCall/StatefulPartitionedCall/StatefulPartitionedCall/vggface_senet50/conv3_3_1x1_up/BiasAdd"], "attr": {"T": {"type": "DT_FLOAT"}}}, {"name": "StatefulPartitionedCall/StatefulPartitionedCall/StatefulPartitionedCall/vggface_senet50/multiply_6/mul", "op": "Mul", "input": ["StatefulPartitionedCall/StatefulPartitionedCall/StatefulPartitionedCall/vggface_senet50/conv3_3_1x1_increase/bn/FusedBatchNormV3", "StatefulPartitionedCall/StatefulPartitionedCall/StatefulPartitionedCall/vggface_senet50/activation_30/Sigmoid"], "attr": {"T": {"type": "DT_FLOAT"}}}, {"name": "StatefulPartitionedCall/StatefulPartitionedCall/StatefulPartitionedCall/vggface_senet50/add_6/add", "op": "AddV2", "input": ["StatefulPartitionedCall/StatefulPartitionedCall/StatefulPartitionedCall/vggface_senet50/multiply_6/mul", "StatefulPartitionedCall/StatefulPartitionedCall/StatefulPartitionedCall/vggface_senet50/activation_26/Relu"], "attr": {"T": {"type": "DT_FLOAT"}}}, {"name": "StatefulPartitionedCall/StatefulPartitionedCall/StatefulPartitionedCall/vggface_senet50/activation_31/Relu", "op": "Relu", "input": ["StatefulPartitionedCall/StatefulPartitionedCall/StatefulPartitionedCall/vggface_senet50/add_6/add"], "attr": {"T": {"type": "DT_FLOAT"}}}, {"name": "StatefulPartitionedCall/StatefulPartitionedCall/StatefulPartitionedCall/vggface_senet50/activation_32/Relu", "op": "_FusedConv2D", "input": ["StatefulPartitionedCall/StatefulPartitionedCall/StatefulPartitionedCall/vggface_senet50/activation_31/Relu", "StatefulPartitionedCall/StatefulPartitionedCall/StatefulPartitionedCall/vggface_senet50/conv3_4_1x1_reduce/Conv2D_weights", "StatefulPartitionedCall/StatefulPartitionedCall/StatefulPartitionedCall/vggface_senet50/conv3_4_1x1_reduce/Conv2D_bn_offset"], "device": "/device:CPU:0", "attr": {"T": {"type": "DT_FLOAT"}, "data_format": {"s": "TkhXQw=="}, "fused_ops": {"list": {"s": ["Qmlhc0FkZA==", "UmVsdQ=="]}}, "padding": {"s": "VkFMSUQ="}, "epsilon": {"f": 0.0}, "num_args": {"i": "1"}, "use_cudnn_on_gpu": {"b": true}, "dilations": {"list": {"i": ["1", "1", "1", "1"]}}, "explicit_paddings": {"list": {}}, "strides": {"list": {"i": ["1", "1", "1", "1"]}}}}, {"name": "StatefulPartitionedCall/StatefulPartitionedCall/StatefulPartitionedCall/vggface_senet50/activation_33/Relu", "op": "_FusedConv2D", "input": ["StatefulPartitionedCall/StatefulPartitionedCall/StatefulPartitionedCall/vggface_senet50/activation_32/Relu", "StatefulPartitionedCall/StatefulPartitionedCall/StatefulPartitionedCall/vggface_senet50/conv3_4_3x3/Conv2D_weights", "StatefulPartitionedCall/StatefulPartitionedCall/StatefulPartitionedCall/vggface_senet50/conv3_4_3x3/Conv2D_bn_offset"], "device": "/device:CPU:0", "attr": {"use_cudnn_on_gpu": {"b": true}, "epsilon": {"f": 0.0}, "explicit_paddings": {"list": {}}, "fused_ops": {"list": {"s": ["Qmlhc0FkZA==", "UmVsdQ=="]}}, "T": {"type": "DT_FLOAT"}, "dilations": {"list": {"i": ["1", "1", "1", "1"]}}, "strides": {"list": {"i": ["1", "1", "1", "1"]}}, "padding": {"s": "U0FNRQ=="}, "data_format": {"s": "TkhXQw=="}, "num_args": {"i": "1"}}}, {"name": "StatefulPartitionedCall/StatefulPartitionedCall/StatefulPartitionedCall/vggface_senet50/conv3_4_1x1_increase/bn/FusedBatchNormV3", "op": "_FusedConv2D", "input": ["StatefulPartitionedCall/StatefulPartitionedCall/StatefulPartitionedCall/vggface_senet50/activation_33/Relu", "StatefulPartitionedCall/StatefulPartitionedCall/StatefulPartitionedCall/vggface_senet50/conv3_4_1x1_increase/Conv2D_weights", "StatefulPartitionedCall/StatefulPartitionedCall/StatefulPartitionedCall/vggface_senet50/conv3_4_1x1_increase/Conv2D_bn_offset"], "device": "/device:CPU:0", "attr": {"padding": {"s": "VkFMSUQ="}, "T": {"type": "DT_FLOAT"}, "fused_ops": {"list": {"s": ["Qmlhc0FkZA=="]}}, "explicit_paddings": {"list": {}}, "epsilon": {"f": 0.0}, "num_args": {"i": "1"}, "use_cudnn_on_gpu": {"b": true}, "data_fo…
l_average_pooling2d_17/Mean"], "attr": {"T": {"type": "DT_FLOAT"}}}], "library": {}, "versions": {"producer": 898}}, "weightsManifest": [{"paths": ["group1-shard1of25.bin", "group1-shard2of25.bin", "group1-shard3of25.bin", "group1-shard4of25.bin", "group1-shard5of25.bin", "group1-shard6of25.bin", "group1-shard7of25.bin", "group1-shard8of25.bin", "group1-shard9of25.bin", "group1-shard10of25.bin", "group1-shard11of25.bin", "group1-shard12of25.bin", "group1-shard13of25.bin", "group1-shard14of25.bin", "group1-shard15of25.bin", "group1-shard16of25.bin", "group1-shard17of25.bin", "group1-shard18of25.bin", "group1-shard19of25.bin", "group1-shard20of25.bin", "group1-shard21of25.bin", "group1-shard22of25.bin", "group1-shard23of25.bin", "group1-shard24of25.bin", "group1-shard25of25.bin"], "weights": [{"name": "StatefulPartitionedCall/strided_slice/stack", "shape": [2], "dtype": "int32"}, {"name": "StatefulPartitionedCall/strided_slice/stack_1", "shape": [2], "dtype": "int32"}, {"name": "StatefulPartitionedCall/strided_slice/stack_2", "shape": [2], "dtype": "int32"}, {"name": "StatefulPartitionedCall/Const", "shape": [1, 1, 1, 3], "dtype": "float32"}, {"name": "StatefulPartitionedCall/StatefulPartitionedCall/StatefulPartitionedCall/vggface_senet50/conv1/7x7_s2/Conv2D_weights", "shape": [7, 7, 3, 64], "dtype": "float32"}, {"name": "StatefulPartitionedCall/StatefulPartitionedCall/StatefulPartitionedCall/vggface_senet50/conv1/7x7_s2/Conv2D_bn_offset", "shape": [64], "dtype": "float32"}, {"name": "StatefulPartitionedCall/StatefulPartitionedCall/StatefulPartitionedCall/vggface_senet50/conv2_1_1x1_reduce/Conv2D_weights", "shape": [1, 1, 64, 64], "dtype": "float32"}, {"name": "StatefulPartitionedCall/StatefulPartitionedCall/StatefulPartitionedCall/vggface_senet50/conv2_1_1x1_reduce/Conv2D_bn_offset", "shape": [64], "dtype": "float32"}, {"name": "StatefulPartitionedCall/StatefulPartitionedCall/StatefulPartitionedCall/vggface_senet50/conv2_1_1x1_proj/Conv2D_weights", "shape": [1, 1, 64, 256], "dtype": "float32"}, {"name": "StatefulPartitionedCall/StatefulPartitionedCall/StatefulPartitionedCall/vggface_senet50/conv2_1_1x1_proj/Conv2D_bn_offset", "shape": [256], "dtype": "float32"}, {"name": "StatefulPartitionedCall/StatefulPartitionedCall/StatefulPartitionedCall/vggface_senet50/conv2_1_3x3/Conv2D_weights", "shape": [3, 3, 64, 64], "dtype": "float32"}, {"name": "StatefulPartitionedCall/StatefulPartitionedCall/StatefulPartitionedCall/vggface_senet50/conv2_1_3x3/Conv2D_bn_offset", "shape": [64], "dtype": "float32"}, {"name": "StatefulPartitionedCall/StatefulPartitionedCall/StatefulPartitionedCall/vggface_senet50/conv2_1_1x1_increase/Conv2D_weights", "shape": [1, 1, 64, 256], "dtype": "float32"}, {"name": "StatefulPartitionedCall/StatefulPartitionedCall/StatefulPartitionedCall/vggface_senet50/conv2_1_1x1_increase/Conv2D_bn_offset", "shape": [256], "dtype": "float32"}, {"name": "StatefulPartitionedCall/StatefulPartitionedCall/StatefulPartitionedCall/vggface_senet50/conv2_2_1x1_reduce/Conv2D_weights", "shape": [1, 1, 256, 64], "dtype": "float32"}, {"name": "StatefulPartitionedCall/StatefulPartitionedCall/StatefulPartitionedCall/vggface_senet50/conv2_2_1x1_reduce/Conv2D_bn_offset", "shape": [64], "dtype": "float32"}, {"name": "StatefulPartitionedCall/StatefulPartitionedCall/StatefulPartitionedCall/vggface_senet50/conv2_2_3x3/Conv2D_weights", "shape": [3, 3, 64, 64], "dtype": "float32"}, {"name": "StatefulPartitionedCall/StatefulPartitionedCall/StatefulPartitionedCall/vggface_senet50/conv2_2_3x3/Conv2D_bn_offset", "shape": [64], "dtype": "float32"}, {"name": "StatefulPartitionedCall/StatefulPartitionedCall/StatefulPartitionedCall/vggface_senet50/conv2_2_1x1_increase/Conv2D_weights", "shape": [1, 1, 64, 256], "dtype": "float32"}, {"name": "StatefulPartitionedCall/StatefulPartitionedCall/StatefulPartitionedCall/vggface_senet50/conv4_6_1x1_reduce/Conv2D_weights", "shape": [1, 1, 1024, 256], "dtype": "float32"}, {"name": "StatefulPartitionedCall/StatefulPartitionedCall/StatefulPartitionedCall/vggface_senet50/conv2_2_1x1_increase/Conv2D_bn_offset", "shape": [256], "dtype": "float32"}, {"name": "StatefulPartitionedCall/StatefulPartitionedCall/StatefulPartitionedCall/vggface_senet50/conv4_6_1x1_reduce/Conv2D_bn_offset", "shape": [256], "dtype": "float32"}, {"name": "StatefulPartitionedCall/StatefulPartitionedCall/StatefulPartitionedCall/vggface_senet50/conv2_3_1x1_reduce/Conv2D_weights", "shape": [1, 1, 256, 64], "dtype": "float32"}, {"name": "StatefulPartitionedCall/StatefulPartitionedCall/StatefulPartitionedCall/vggface_senet50/conv2_3_1x1_reduce/Conv2D_bn_offset", "shape": [64], "dtype": "float32"}, {"name": "StatefulPartitionedCall/StatefulPartitionedCall/StatefulPartitionedCall/vggface_senet50/conv4_6_3x3/Conv2D_weights", "shape": [3, 3, 256, 256], "dtype": "float32"}, {"name": "StatefulPartitionedCall/StatefulPartitionedCall/StatefulPartitionedCall/vggface_senet50/conv2_3_3x3/Conv2D_weights", "shape": [3, 3, 64, 64], "dtype": "float32"}, {"name": "StatefulPartitionedCall/StatefulPartitionedCall/StatefulPartitionedCall/vggface_senet50/conv5_3_1x1_reduce/Conv2D_weights", "shape": [1, 1, 2048, 512], "dtype": "float32"}, {"name": "StatefulPartitionedCall/StatefulPartitionedCall/StatefulPartitionedCall/vggface_senet50/conv2_3_3x3/Conv2D_bn_offset", "shape": [64], "dtype": "float32"}, {"name": "StatefulPartitionedCall/StatefulPartitionedCall/StatefulPartitionedCall/vggface_senet50/conv4_6_3x3/Conv2D_bn_offset", "shape": [256], "dtype": "float32"}, {"name": "StatefulPartitionedCall/StatefulPartitionedCall/StatefulPartitionedCall/vggface_senet50/conv2_3_1x1_increase/Conv2D_weights", "shape": [1, 1, 64, 256], "dtype": "float32"}, {"name": "StatefulPartitionedCall/StatefulPartitionedCall/StatefulPartitionedCall/vggface_senet50/conv2_3_1x1_increase/Conv2D_bn_offset", "shape": [256], "dtype": "float32"}, {"name": "StatefulPartitionedCall/StatefulPartitionedCall/StatefulPartitionedCall/vggface_senet50/conv4_6_1x1_increase/Conv2D_weights", "shape": [1, 1, 256, 1024], "dtype": "float32"}, {"name": "StatefulPartitionedCall/StatefulPartitionedCall/StatefulPartitionedCall/vggface_senet50/conv5_3_1x1_reduce/Conv2D_bn_offset", "shape": [512], "dtype": "float32"}, {"name": "StatefulPartitionedCall/StatefulPartitionedCall/StatefulPartitionedCall/vggface_senet50/conv3_1_1x1_reduce/Conv2D_weights", "shape": [1, 1, 256, 128], "dtype": "float32"}, {"name": "StatefulPartitionedCall/StatefulPartitionedCall/StatefulPartitionedCall/vggface_senet50/conv4_6_1x1_increase/Conv2D_bn_offset", "shape": [1024], "dtype": "float32"}, {"name": "StatefulPartitionedCall/StatefulPartitionedCall/StatefulPartitionedCall/vggface_senet50/conv3_1_1x1_reduce/Conv2D_bn_offset", "shape": [128], "dtype": "float32"}, {"name": "StatefulPartitionedCall/StatefulPartitionedCall/StatefulPartitionedCall/vggface_senet50/conv3_1_1x1_proj/Conv2D_weights", "shape": [1, 1, 256, 512], "dtype": "float32"}, {"name": "StatefulPartitionedCall/StatefulPartitionedCall/StatefulPartitionedCall/vggface_senet50/conv3_1_1x1_proj/Conv2D_bn_offset", "shape": [512], "dtype": "float32"}, {"name": "StatefulPartitionedCall/StatefulPartitionedCall/StatefulPartitionedCall/vggface_senet50/conv3_1_3x3/Conv2D_weights", "shape": [3, 3, 128, 128], "dtype": "float32"}, {"name": "StatefulPartitionedCall/StatefulPartitionedCall/StatefulPartitionedCall/vggface_senet50/conv3_1_3x3/Conv2D_bn_offset", "shape": [128], "dtype": "float32"}, {"name": "StatefulPartitionedCall/StatefulPartitionedCall/StatefulPartitionedCall/vggface_senet50/conv3_1_1x1_increase/Conv2D_weights", "shape": [1, 1, 128, 512], "dtype": "float32"}, {"name": "StatefulPartitionedCall/StatefulPartitionedCall/StatefulPartitionedCall/vggface_senet50/conv3_1_1x1_increase/Conv2D_bn_offset", "shape": [512], "dtype": "float32"}, {"name": "StatefulPartitionedCall/StatefulPartitionedCall/StatefulPartitionedCall/vggface_senet50/conv3_2_1x1_reduce/Conv2D_weights", "shape": [1, 1, 512, 128], "dtype": "float32"}, {"name": "StatefulPartitionedCall/StatefulPartitionedCall/StatefulPartitionedCall/vggface_senet50/conv3_2_1x1_reduce/Conv2D_bn_offset", "shape": [128], "dtype": "float32"}, {"name": "StatefulPartitionedCall/StatefulPartitionedCall/StatefulPartitionedCall/vggface_senet50/conv5_3_3x3/Conv2D_weights", "shape": [3, 3, 512, 512], "dtype": "float32"}, {"name": "StatefulPartitionedCall/StatefulPartitionedCall/StatefulPartitionedCall/vggface_senet50/conv3_2_3x3/Conv2D_weights", "shape": [3, 3, 128, 128], "dtype": "float32"}, {"name": "StatefulPartitionedCall/StatefulPartitionedCall/StatefulPartitionedCall/vggface_senet50/conv3_2_3x3/Conv2D_bn_offset", "shape": [128], "dtype": "float32"}, {"name": "StatefulPartitionedCall/StatefulPartitionedCall/StatefulPartitionedCall/vggface_senet50/conv3_2_1x1_increase/Conv2D_weights", "shape": [1, 1, 128, 512], "dtype": "float32"}, {"name": "StatefulPartitionedCall/StatefulPartitionedCall/StatefulPartitionedCall/vggface_senet50/conv3_2_1x1_increase/Conv2D_bn_offset", "shape": [512], "dtype": "float32"}, {"name": "StatefulPartitionedCall/StatefulPartitionedCall/StatefulPartitionedCall/vggface_senet50/conv5_1_1x1_reduce/Conv2D_weights", "shape": [1, 1, 1024, 512], "dtype": "float32"}, {"name": "StatefulPartitionedCall/StatefulPartitionedCall/StatefulPartitionedCall/vggface_senet50/conv3_3_1x1_reduce/Conv2D_weights", "shape": [1, 1, 512, 128], "dtype": "float32"}, {"name": "StatefulPartitionedCall/StatefulPartitionedCall/StatefulPartitionedCall/vggface_senet50/conv3_3_1x1_reduce/Conv2D_bn_offset", "shape": [128], "dtype": "float32"}, {"name": "StatefulPartitionedCall/StatefulPartitionedCall/StatefulPartitionedCall/vggface_senet50/conv5_1_1x1_reduce/Conv2D_bn_offset", "shape": [512], "dtype": "float32"}, {"name": "StatefulPartitionedCall/StatefulPartitionedCall/StatefulPartitionedCall/vggface_senet50/conv3_3_3x3/Conv2D_weights", "shape": [3, 3, 128, 128], "dtype": "float32"}, {"name": "StatefulPartitionedCall/StatefulPartitionedCall/StatefulPartitionedCall/vggface_senet50/conv5_3_3x3/Conv2D_bn_offset", "shape": [512], "dtype": "float32"}, {"name": "StatefulPartitionedCall/StatefulPartitionedCall/StatefulPartitionedCall/vggface_senet50/conv3_3_3x3/Conv2D_bn_offset", "shape": [128], "dtype": "float32"}, {"name": "StatefulPartitionedCall/StatefulPartitionedCall/StatefulPartitionedCall/vggface_senet50/conv3_3_1x1_increase/Conv2D_weights", "shape": [1, 1, 128, 512], "dtype": "float32"}, {"name": "StatefulPartitionedCall/StatefulPartitionedCall/StatefulPartitionedCall/vggface_senet50/conv5_1_1x1_proj/Conv2D_weights", "shape": [1, 1, 1024, 2048], "dtype": "float32"}, {"name": "StatefulPartitionedCall/StatefulPartitionedCall/StatefulPartitionedCall/vggface_senet50/conv3_3_1x1_increase/Conv2D_bn_offset", "shape": [512], "dtype": "float32"}, {"name": "StatefulPartitionedCall/StatefulPartitionedCall/StatefulPartitionedCall/vggface_senet50/conv5_1_1x1_proj/Conv2D_bn_offset", "shape": [2048], "dtype": "float32"}, {"name": "StatefulPartitionedCall/StatefulPartitionedCall/StatefulPartitionedCall/vggface_senet50/conv3_4_1x1_reduce/Conv2D_weights", "shape": [1, 1, 512, 128], "dtype": "float32"}, {"name": "StatefulPartitionedCall/StatefulPartitionedCall/StatefulPartitionedCall/vggface_senet50/conv5_1_3x3/Conv2D_weights", "shape": [3, 3, 512, 512], "dtype": "float32"}, {"name": "StatefulPartitionedCall/StatefulPartitionedCall/StatefulPartitionedCall/vggface_senet50/conv3_4_1x1_reduce/Conv2D_bn_offset", "shape": [128], "dtype": "float32"}, {"name": "StatefulPartitionedCall/StatefulPartitionedCall/StatefulPartitionedCall/vggface_senet50/conv3_4_3x3/Conv2D_weights", "shape": [3, 3, 128, 128], "dtype": "float32"}, {"name": "StatefulPartitionedCall/StatefulPartitionedCall/StatefulPartitionedCall/vggface_senet50/conv5_1_3x3/Conv2D_bn_offset", "shape": [512], "dtype": "float32"}, {"name": "StatefulPartitionedCall/StatefulPartitionedCall/StatefulPartitionedCall/vggface_senet50/conv3_4_3x3/Conv2D_bn_offset", "shape": [128], "dtype": "float32"}, {"name": "StatefulPartitionedCall/StatefulPartitionedCall/StatefulPartitionedCall/vggface_senet50/conv5_3_1x1_increase/Conv2D_weights", "shape": [1, 1, 512, 2048], "dtype": "float32"}, {"name": "StatefulPartitionedCall/StatefulPartitionedCall/StatefulPartitionedCall/vggface_senet50/conv3_4_1x1_increase/Conv2D_weights", "shape": [1, 1, 128, 512], "dtype": "float32"}, {"name": "StatefulPartitionedCall/StatefulPartitionedCall/StatefulPartitionedCall/vggface_senet50/conv3_4_1x1_increase/Conv2D_bn_offset", "shape": [512], "dtype": "float32"}, {"name": "StatefulPartitionedCall/StatefulPartitionedCall/StatefulPartitionedCall/vggface_senet50/conv5_1_1x1_increase/Conv2D_weights", "shape": [1, 1, 512, 2048], "dtype": "float32"}, {"name": "StatefulPartitionedCall/StatefulPartitionedCall/StatefulPartitionedCall/vggface_senet50/conv5_1_1x1_increase/Conv2D_bn_offset", "shape": [2048], "dtype": "float32"}, {"name": "StatefulPartitionedCall/StatefulPartitionedCall/StatefulPartitionedCall/vggface_senet50/conv4_1_1x1_reduce/Conv2D_weights", "shape": [1, 1, 512, 256], "dtype": "float32"}, {"name": "StatefulPartitionedCall/StatefulPartitionedCall/StatefulPartitionedCall/vggface_senet50/conv4_1_1x1_reduce/Conv2D_bn_offset", "shape": [256], "dtype": "float32"}, {"name": "StatefulPartitionedCall/StatefulPartitionedCall/StatefulPartitionedCall/vggface_senet50/conv4_1_1x1_proj/Conv2D_weights", "shape": [1, 1, 512, 1024], "dtype": "float32"}, {"name": "StatefulPartitionedCall/StatefulPartitionedCall/StatefulPartitionedCall/vggface_senet50/conv4_1_1x1_proj/Conv2D_bn_offset", "shape": [1024], "dtype": "float32"}, {"name": "StatefulPartitionedCall/StatefulPartitionedCall/StatefulPartitionedCall/vggface_senet50/conv4_1_3x3/Conv2D_weights", "shape": [3, 3, 256, 256], "dtype": "float32"}, {"name": "StatefulPartitionedCall/StatefulPartitionedCall/StatefulPartitionedCall/vggface_senet50/conv4_1_3x3/Conv2D_bn_offset", "shape": [256], "dtype": "float32"}, {"name": "StatefulPartitionedCall/StatefulPartitionedCall/StatefulPartitionedCall/vggface_senet50/conv4_1_1x1_increase/Conv2D_weights", "shape": [1, 1, 256, 1024], "dtype": "float32"}, {"name": "StatefulPartitionedCall/StatefulPartitionedCall/StatefulPartitionedCall/vggface_senet50/conv4_1_1x1_increase/Conv2D_bn_offset", "shape": [1024], "dtype": "float32"}, {"name": "StatefulPartitionedCall/StatefulPartitionedCall/StatefulPartitionedCall/vggface_senet50/conv5_3_1x1_increase/Conv2D_bn_offset", "shape": [2048], "dtype": "float32"}, {"name": "StatefulPartitionedCall/StatefulPartitionedCall/StatefulPartitionedCall/vggface_senet50/conv4_2_1x1_reduce/Conv2D_weights", "shape": [1, 1, 1024, 256], "dtype": "float32"}, {"name": "StatefulPartitionedCall/StatefulPartitionedCall/StatefulPartitionedCall/vggface_senet50/conv4_2_1x1_reduce/Conv2D_bn_offset", "shape": [256], "dtype": "float32"}, {"name": "StatefulPartitionedCall/StatefulPartitionedCall/StatefulPartitionedCall/vggface_senet50/conv4_2_3x3/Conv2D_weights", "shape": [3, 3, 256, 256], "dtype": "float32"}, {"name": "StatefulPartitionedCall/StatefulPartitionedCall/StatefulPartitionedCall/vggface_senet50/conv4_2_3x3/Conv2D_bn_offset", "shape": [256], "dtype": "float32"}, {"name": "StatefulPartitionedCall/StatefulPartitionedCall/StatefulPartitionedCall/vggface_senet50/conv4_2_1x1_increase/Conv2D_weights", "shape": [1, 1, 256, 1024], "dtype": "float32"}, {"name": "StatefulPartitionedCall/StatefulPartitionedCall/StatefulPartitionedCall/vggface_senet50/conv4_2_1x1_increase/Conv2D_bn_offset", "shape": [1024], "dtype": "float32"}, {"name": "StatefulPartitionedCall/StatefulPartitionedCall/StatefulPartitionedCall/vggface_senet50/conv5_2_1x1_reduce/Conv2D_weights", "shape": [1, 1, 2048, 512], "dtype": "float32"}, {"name": "StatefulPartitionedCall/StatefulPartitionedCall/StatefulPartitionedCall/vggface_senet50/conv4_3_1x1_reduce/Conv2D_weights", "shape": [1, 1, 1024, 256], "dtype": "float32"}, {"name": "StatefulPartitionedCall/StatefulPartitionedCall/StatefulPartitionedCall/vggface_senet50/conv5_2_1x1_reduce/Conv2D_bn_offset", "shape": [512], "dtype": "float32"}, {"name": "StatefulPartitionedCall/StatefulPartitionedCall/StatefulPartitionedCall/vggface_senet50/conv4_3_1x1_reduce/Conv2D_bn_offset", "shape": [256], "dtype": "float32"}, {"name": "StatefulPartitionedCall/StatefulPartitionedCall/StatefulPartitionedCall/vggface_senet50/conv4_3_3x3/Conv2D_weights", "shape": [3, 3, 256, 256], "dtype": "float32"}, {"name": "StatefulPartitionedCall/StatefulPartitionedCall/StatefulPartitionedCall/vggface_senet50/conv4_3_3x3/Conv2D_bn_offset", "shape": [256], "dtype": "float32"}, {"name": "StatefulPartitionedCall/StatefulPartitionedCall/StatefulPartitionedCall/vggface_senet50/conv5_2_3x3/Conv2D_weights", "shape": [3, 3, 512, 512], "dtype": "float32"}, {"name": "StatefulPartitionedCall/StatefulPartitionedCall/StatefulPartitionedCall/vggface_senet50/conv4_3_1x1_increase/Conv2D_weights", "shape": [1, 1, 256, 1024], "dtype": "float32"}, {"name": "StatefulPartitionedCall/StatefulPartitionedCall/StatefulPartitionedCall/vggface_senet50/conv4_3_1x1_increase/Conv2D_bn_offset", "shape": [1024], "dtype": "float32"}, {"name": "StatefulPartitionedCall/StatefulPartitionedCall/StatefulPartitionedCall/vggface_senet50/conv5_2_3x3/Conv2D_bn_offset", "shape": [512], "dtype": "float32"}, {"name": "StatefulPartitionedCall/StatefulPartitionedCall/StatefulPartitionedCall/vggface_senet50/conv4_4_1x1_reduce/Conv2D_weights", "shape": [1, 1, 1024, 256], "dtype": "float32"}, {"name": "StatefulPartitionedCall/StatefulPartitionedCall/StatefulPartitionedCall/vggface_senet50/conv5_2_1x1_increase/Conv2D_weights", "shape": [1, 1, 512, 2048], "dtype": "float32"}, {"name": "StatefulPartitionedCall/StatefulPartitionedCall/StatefulPartitionedCall/vggface_senet50/conv4_4_1x1_reduce/Conv2D_bn_offset", "shape": [256], "dtype": "float32"}, {"name": "StatefulPartitionedCall/StatefulPartitionedCall/StatefulPartitionedCall/vggface_senet50/conv4_4_3x3/Conv2D_weights", "shape": [3, 3, 256, 256], "dtype": "float32"}, {"name": "StatefulPartitionedCall/StatefulPartitionedCall/StatefulPartitionedCall/vggface_senet50/conv5_2_1x1_increase/Conv2D_bn_offset", "shape": [2048], "dtype": "float32"}, {"name": "StatefulPartitionedCall/StatefulPartitionedCall/StatefulPartitionedCall/vggface_senet50/conv4_4_3x3/Conv2D_bn_offset", "shape": [256], "dtype": "float32"}, {"name": "StatefulPartitionedCall/StatefulPartitionedCall/StatefulPartitionedCall/vggface_senet50/conv4_4_1x1_increase/Conv2D_weights", "shape": [1, 1, 256, 1024], "dtype": "float32"}, {"name": "StatefulPartitionedCall/StatefulPartitionedCall/StatefulPartitionedCall/vggface_senet50/conv4_4_1x1_increase/Conv2D_bn_offset", "shape": [1024], "dtype": "float32"}, {"name": "StatefulPartitionedCall/StatefulPartitionedCall/StatefulPartitionedCall/vggface_senet50/conv4_5_1x1_reduce/Conv2D_weights", "shape": [1, 1, 1024, 256], "dtype": "float32"}, {"name": "StatefulPartitionedCall/StatefulPartitionedCall/StatefulPartitionedCall/vggface_senet50/conv4_5_1x1_reduce/Conv2D_bn_offset", "shape": [256], "dtype": "float32"}, {"name": "StatefulPartitionedCall/StatefulPartitionedCall/StatefulPartitionedCall/vggface_senet50/conv4_5_3x3/Conv2D_weights", "shape": [3, 3, 256, 256], "dtype": "float32"}, {"name": "StatefulPartitionedCall/StatefulPartitionedCall/StatefulPartitionedCall/vggface_senet50/conv4_5_3x3/Conv2D_bn_offset", "shape": [256], "dtype": "float32"}, {"name": "StatefulPartitionedCall/StatefulPartitionedCall/StatefulPartitionedCall/vggface_senet50/conv4_5_1x1_increase/Conv2D_weights", "shape": [1, 1, 256, 1024], "dtype": "float32"}, {"name": "StatefulPartitionedCall/StatefulPartitionedCall/StatefulPartitionedCall/vggface_senet50/conv4_5_1x1_increase/Conv2D_bn_offset", "shape": [1024], "dtype": "float32"}, {"name": "StatefulPartitionedCall/StatefulPartitionedCall/StatefulPartitionedCall/vggface_senet50/global_average_pooling2d_16/Mean/reduction_indices", "shape": [2], "dtype": "int32"}, {"name": "StatefulPartitionedCall/StatefulPartitionedCall/StatefulPartitionedCall/vggface_senet50/reshape_16/strided_slice/stack", "shape": [1], "dtype": "int32"}, {"name": "StatefulPartitionedCall/StatefulPartitionedCall/StatefulPartitionedCall/vggface_senet50/reshape_16/strided_slice/stack_1", "shape": [1], "dtype": "int32"}, {"name": "StatefulPartitionedCall/StatefulPartitionedCall/StatefulPartitionedCall/vggface_senet50/reshape_16/strided_slice/stack_2", "shape": [1], "dtype": "int32"}, {"name": "StatefulPartitionedCall/StatefulPartitionedCall/StatefulPartitionedCall/vggface_senet50/reshape_16/Reshape/shape/1", "shape": [], "dtype": "int32"}, {"name": "StatefulPartitionedCall/StatefulPartitionedCall/StatefulPartitionedCall/vggface_senet50/reshape_16/Reshape/shape/2", "shape": [], "dtype": "int32"}, {"name": "StatefulPartitionedCall/StatefulPartitionedCall/StatefulPartitionedCall/vggface_senet50/reshape_16/Reshape/shape/3", "shape": [], "dtype": "int32"}, {"name": "StatefulPartitionedCall/StatefulPartitionedCall/StatefulPartitionedCall/vggface_senet50/conv5_3_1x1_down/Conv2D/ReadVariableOp", "shape": [1, 1, 2048, 128], "dtype": "float32"}, {"name": "StatefulPartitionedCall/StatefulPartitionedCall/StatefulPartitionedCall/vggface_senet50/conv5_3_1x1_down/BiasAdd/ReadVariableOp", "shape": [128], "dtype": "float32"}, {"name": "StatefulPartitionedCall/StatefulPartitionedCall/StatefulPartitionedCall/vggface_senet50/conv5_3_1x1_up/Conv2D/ReadVariableOp", "shape": [1, 1, 128, 2048], "dtype": "float32"}, {"name": "StatefulPartitionedCall/StatefulPartitionedCall/StatefulPartitionedCall/vggface_senet50/conv5_3_1x1_up/BiasAdd/ReadVariableOp", "shape": [2048], "dtype": "float32"}, {"name": "StatefulPartitionedCall/StatefulPartitionedCall/StatefulPartitionedCall/vggface_senet50/global_average_pooling2d_15/Mean/reduction_indices", "shape": [2], "dtype": "int32"}, {"name": "StatefulPartitionedCall/StatefulPartitionedCall/StatefulPartitionedCall/vggface_senet50/reshape_15/strided_slice/stack", "shape": [1], "dtype": "int32"}, {"name": "StatefulPartitionedCall/StatefulPartitionedCall/StatefulPartitionedCall/vggface_senet50/reshape_15/strided_slice/stack_1", "shape": [1], "dtype": "int32"}, {"name": "StatefulPartitionedCall/StatefulPartitionedCall/StatefulPartitionedCall/vggface_senet50/reshape_15/strided_slice/stack_2", "shape": [1], "dtype": "int32"}, {"name": "StatefulPartitionedCall/StatefulPartitionedCall/StatefulPartitionedCall/vggface_senet50/reshape_15/Reshape/shape/1", "shape": [], "dtype": "int32"}, {"name": "StatefulPartitionedCall/StatefulPartitionedCall/StatefulPartitionedCall/vggface_senet50/reshape_15/Reshape/shape/2", "shape": [], "dtype": "int32"}, {"name": "StatefulPartitionedCall/StatefulPartitionedCall/StatefulPartitionedCall/vggface_senet50/reshape_15/Reshape/shape/3", "shape": [], "dtype": "int32"}, {"name": "StatefulPartitionedCall/StatefulPartitionedCall/StatefulPartitionedCall/vggface_senet50/conv5_2_1x1_down/Conv2D/ReadVariableOp", "shape": [1, 1, 2048, 128], "dtype": "float32"}, {"name": "StatefulPartitionedCall/StatefulPartitionedCall/StatefulPartitionedCall/vggface_senet50/conv5_2_1x1_down/BiasAdd/ReadVariableOp", "shape": [128], "dtype": "float32"}, {"name": "StatefulPartitionedCall/StatefulPartitionedCall/StatefulPartitionedCall/vggface_senet50/conv5_2_1x1_up/Conv2D/ReadVariableOp", "shape": [1, 1, 128, 2048], "dtype": "float32"}, {"name": "StatefulPartitionedCall/StatefulPartitionedCall/StatefulPartitionedCall/vggface_senet50/conv5_2_1x1_up/BiasAdd/ReadVariableOp", "shape": [2048], "dtype": "float32"}, {"name": "StatefulPartitionedCall/StatefulPartitionedCall/StatefulPartitionedCall/vggface_senet50/global_average_pooling2d_14/Mean/reduction_indices", "shape": [2], "dtype": "int32"}, {"name": "StatefulPartitionedCall/StatefulPartitionedCall/StatefulPartitionedCall/vggface_senet50/reshape_14/strided_slice/stack", "shape": [1], "dtype": "int32"}, {"name": "StatefulPartitionedCall/StatefulPartitionedCall/StatefulPartitionedCall/vggface_senet50/reshape_14/strided_slice/stack_1", "shape": [1], "dtype": "int32"}, {"name": "StatefulPartitionedCall/StatefulPartitionedCall/StatefulPartitionedCall/vggface_senet50/reshape_14/strided_slice/stack_2", "shape": [1], "dtype": "int32"}, {"name": "StatefulPartitionedCall/StatefulPartitionedCall/StatefulPartitionedCall/vggface_senet50/reshape_14/Reshape/shape/1", "shape": [], "dtype": "int32"}, {"name": "StatefulPartitionedCall/StatefulPartitionedCall/StatefulPartitionedCall/vggface_senet50/reshape_14/Reshape/shape/2", "shape": [], "dtype": "int32"}, {"name": "StatefulPartitionedCall/StatefulPartitionedCall/StatefulPartitionedCall/vggface_senet50/reshape_14/Reshape/shape/3", "shape": [], "dtype": "int32"}, {"name": "StatefulPartitionedCall/StatefulPartitionedCall/StatefulPartitionedCall/vggface_senet50/conv5_1_1x1_down/Conv2D/ReadVariableOp", "shape": [1, 1, 2048, 128], "dtype": "float32"}, {"name": "StatefulPartitionedCall/StatefulPartitionedCall/StatefulPartitionedCall/vggface_senet50/conv5_1_1x1_down/BiasAdd/ReadVariableOp", "shape": [128], "dtype": "float32"}, {"name": "StatefulPartitionedCall/StatefulPartitionedCall/StatefulPartitionedCall/vggface_senet50/conv5_1_1x1_up/Conv2D/ReadVariableOp", "shape": [1, 1, 128, 2048], "dtype": "float32"}, {"name": "StatefulPartitionedCall/StatefulPartitionedCall/StatefulPartitionedCall/vggface_senet50/conv5_1_1x1_up/BiasAdd/ReadVariableOp", "shape": [2048], "dtype": "float32"}, {"name": "StatefulPartitionedCall/StatefulPartitionedCall/StatefulPartitionedCall/vggface_senet50/global_average_pooling2d_13/Mean/reduction_indices", "shape": [2], "dtype": "int32"}, {"name": "StatefulPartitionedCall/StatefulPartitionedCall/StatefulPartitionedCall/vggface_senet50/reshape_13/strided_slice/stack", "shape": [1], "dtype": "int32"}, {"name": "StatefulPartitionedCall/StatefulPartitionedCall/StatefulPartitionedCall/vggface_senet50/reshape_13/strided_slice/stack_1", "shape": [1], "dtype": "int32"}, {"name": "StatefulPartitionedCall/StatefulPartitionedCall/StatefulPartitionedCall/vggface_senet50/reshape_13/strided_slice/stack_2", "shape": [1], "dtype": "int32"}, {"name": "StatefulPartitionedCall/StatefulPartitionedCall/StatefulPartitionedCall/vggface_senet50/reshape_13/Reshape/shape/1", "shape": [], "dtype": "int32"}, {"name": "StatefulPartitionedCall/StatefulPartitionedCall/StatefulPartitionedCall/vggface_senet50/reshape_13/Reshape/shape/2", "shape": [], "dtype": "int32"}, {"name": "StatefulPartitionedCall/StatefulPartitionedCall/StatefulPartitionedCall/vggface_senet50/reshape_13/Reshape/shape/3", "shape": [], "dtype": "int32"}, {"name": "StatefulPartitionedCall/StatefulPartitionedCall/StatefulPartitionedCall/vggface_senet50/conv4_6_1x1_down/Conv2D/ReadVariableOp", "shape": [1, 1, 1024, 64], "dtype": "float32"}, {"name": "StatefulPartitionedCall/StatefulPartitionedCall/StatefulPartitionedCall/vggface_senet50/conv4_6_1x1_down/BiasAdd/ReadVariableOp", "shape": [64], "dtype": "float32"}, {"name": "StatefulPartitionedCall/StatefulPartitionedCall/StatefulPartitionedCall/vggface_senet50/conv4_6_1x1_up/Conv2D/ReadVariableOp", "shape": [1, 1, 64, 1024], "dtype": "float32"}, {"name": "StatefulPartitionedCall/StatefulPartitionedCall/StatefulPartitionedCall/vggface_senet50/conv4_6_1x1_up/BiasAdd/ReadVariableOp", "shape": [1024], "dtype": "float32"}, {"name": "StatefulPartitionedCall/StatefulPartitionedCall/StatefulPartitionedCall/vggface_senet50/global_average_pooling2d_12/Mean/reduction_indices", "shape": [2], "dtype": "int32"}, {"name": "StatefulPartitionedCall/StatefulPartitionedCall/StatefulPartitionedCall/vggface_senet50/reshape_12/strided_slice/stack", "shape": [1], "dtype": "int32"}, {"name": "StatefulPartitionedCall/StatefulPartitionedCall/StatefulPartitionedCall/vggface_senet50/reshape_12/strided_slice/stack_1", "shape": [1], "dtype": "int32"}, {"name": "StatefulPartitionedCall/StatefulPartitionedCall/StatefulPartitionedCall/vggface_senet50/reshape_12/strided_slice/stack_2", "shape": [1], "dtype": "int32"}, {"name": "StatefulPartitionedCall/StatefulPartitionedCall/StatefulPartitionedCall/vggface_senet50/reshape_12/Reshape/shape/1", "shape": [], "dtype": "int32"}, {"name": "StatefulPartitionedCall/StatefulPartitionedCall/StatefulPartitionedCall/vggface_senet50/reshape_12/Reshape/shape/2", "shape": [], "dtype": "int32"}, {"name": "StatefulPartitionedCall/StatefulPartitionedCall/StatefulPartitionedCall/vggface_senet50/reshape_12/Reshape/shape/3", "shape": [], "dtype": "int32"}, {"name": "StatefulPartitionedCall/StatefulPartitionedCall/StatefulPartitionedCall/vggface_senet50/conv4_5_1x1_down/Conv2D/ReadVariableOp", "shape": [1, 1, 1024, 64], "dtype": "float32"}, {"name": "StatefulPartitionedCall/StatefulPartitionedCall/StatefulPartitionedCall/vggface_senet50/conv4_5_1x1_down/BiasAdd/ReadVariableOp", "shape": [64], "dtype": "float32"}, {"name": "StatefulPartitionedCall/StatefulPartitionedCall/StatefulPartitionedCall/vggface_senet50/conv4_5_1x1_up/Conv2D/ReadVariableOp", "shape": [1, 1, 64, 1024], "dtype": "float32"}, {"name": "StatefulPartitionedCall/StatefulPartitionedCall/StatefulPartitionedCall/vggface_senet50/conv4_5_1x1_up/BiasAdd/ReadVariableOp", "shape": [1024], "dtype": "float32"}, {"name": "StatefulPartitionedCall/StatefulPartitionedCall/StatefulPartitionedCall/vggface_senet50/global_average_pooling2d_11/Mean/reduction_indices", "shape": [2], "dtype": "int32"}, {"name": "StatefulPartitionedCall/StatefulPartitionedCall/StatefulPartitionedCall/vggface_senet50/reshape_11/strided_slice/stack", "shape": [1], "dtype": "int32"}, {"name": "StatefulPartitionedCall/StatefulPartitionedCall/StatefulPartitionedCall/vggface_senet50/reshape_11/strided_slice/stack_1", "shape": [1], "dtype": "int32"}, {"name": "StatefulPartitionedCall/StatefulPartitionedCall/StatefulPartitionedCall/vggface_senet50/reshape_11/strided_slice/stack_2", "shape": [1], "dtype": "int32"}, {"name": "StatefulPartitionedCall/StatefulPartitionedCall/StatefulPartitionedCall/vggface_senet50/reshape_11/Reshape/shape/1", "shape": [], "dtype": "int32"}, {"name": "StatefulPartitionedCall/StatefulPartitionedCall/StatefulPartitionedCall/vggface_senet50/reshape_11/Reshape/shape/2", "shape": [], "dtype": "int32"}, {"name": "StatefulPartitionedCall/StatefulPartitionedCall/StatefulPartitionedCall/vggface_senet50/reshape_11/Reshape/shape/3", "shape": [], "dtype": "int32"}, {"name": "StatefulPartitionedCall/StatefulPartitionedCall/StatefulPartitionedCall/vggface_senet50/conv4_4_1x1_down/Conv2D/ReadVariableOp", "shape": [1, 1, 1024, 64], "dtype": "float32"}, {"name": "StatefulPartitionedCall/StatefulPartitionedCall/StatefulPartitionedCall/vggface_senet50/conv4_4_1x1_down/BiasAdd/ReadVariableOp", "shape": [64], "dtype": "float32"}, {"name": "StatefulPartitionedCall/StatefulPartitionedCall/StatefulPartitionedCall/vggface_senet50/conv4_4_1x1_up/Conv2D/ReadVariableOp", "shape": [1, 1, 64, 1024], "dtype": "float32"}, {"name": "StatefulPartitionedCall/StatefulPartitionedCall/StatefulPartitionedCall/vggface_senet50/conv4_4_1x1_up/BiasAdd/ReadVariableOp", "shape": [1024], "dtype": "float32"}, {"name": "StatefulPartitionedCall/StatefulPartitionedCall/StatefulPartitionedCall/vggface_senet50/global_average_pooling2d_10/Mean/reduction_indices", "shape": [2], "dtype": "int32"}, {"name": "StatefulPartitionedCall/StatefulPartitionedCall/StatefulPartitionedCall/vggface_senet50/reshape_10/strided_slice/stack", "shape": [1], "dtype": "int32"}, {"name": "StatefulPartitionedCall/StatefulPartitionedCall/StatefulPartitionedCall/vggface_senet50/reshape_10/strided_slice/stack_1", "shape": [1], "dtype": "int32"}, {"name": "StatefulPartitionedCall/StatefulPartitionedCall/StatefulPartitionedCall/vggface_senet50/reshape_10/strided_slice/stack_2", "shape": [1], "dtype": "int32"}, {"name": "StatefulPartitionedCall/StatefulPartitionedCall/StatefulPartitionedCall/vggface_senet50/reshape_10/Reshape/shape/1", "shape": [], "dtype": "int32"}, {"name": "StatefulPartitionedCall/StatefulPartitionedCall/StatefulPartitionedCall/vggface_senet50/reshape_10/Reshape/shape/2", "shape": [], "dtype": "int32"}, {"name": "StatefulPartitionedCall/StatefulPartitionedCall/StatefulPartitionedCall/vggface_senet50/reshape_10/Reshape/shape/3", "shape": [], "dtype": "int32"}, {"name": "StatefulPartitionedCall/StatefulPartitionedCall/StatefulPartitionedCall/vggface_senet50/conv4_3_1x1_down/Conv2D/ReadVariableOp", "shape": [1, 1, 1024, 64], "dtype": "float32"}, {"name": "StatefulPartitionedCall/StatefulPartitionedCall/StatefulPartitionedCall/vggface_senet50/conv4_3_1x1_down/BiasAdd/ReadVariableOp", "shape": [64], "dtype": "float32"}, {"name": "StatefulPartitionedCall/StatefulPartitionedCall/StatefulPartitionedCall/vggface_senet50/conv4_3_1x1_up/Conv2D/ReadVariableOp", "shape": [1, 1, 64, 1024], "dtype": "float32"}, {"name": "StatefulPartitionedCall/StatefulPartitionedCall/StatefulPartitionedCall/vggface_senet50/conv4_3_1x1_up/BiasAdd/ReadVariableOp", "shape": [1024], "dtype": "float32"}, {"name": "StatefulPartitionedCall/StatefulPartitionedCall/StatefulPartitionedCall/vggface_senet50/global_average_pooling2d_9/Mean/reduction_indices", "shape": [2], "dtype": "int32"}, {"name": "StatefulPartitionedCall/StatefulPartitionedCall/StatefulPartitionedCall/vggface_senet50/reshape_9/strided_slice/stack", "shape": [1], "dtype": "int32"}, {"name": "StatefulPartitionedCall/StatefulPartitionedCall/StatefulPartitionedCall/vggface_senet50/reshape_9/strided_slice/stack_1", "shape": [1], "dtype": "int32"}, {"name": "StatefulPartitionedCall/StatefulPartitionedCall/StatefulPartitionedCall/vggface_senet50/reshape_9/strided_slice/stack_2", "shape": [1], "dtype": "int32"}, {"name": "StatefulPartitionedCall/StatefulPartitionedCall/StatefulPartitionedCall/vggface_senet50/reshape_9/Reshape/shape/1", "shape": [], "dtype": "int32"}, {"name": "StatefulPartitionedCall/StatefulPartitionedCall/StatefulPartitionedCall/vggface_senet50/reshape_9/Reshape/shape/2", "shape": [], "dtype": "int32"}, {"name": "StatefulPartitionedCall/StatefulPartitionedCall/StatefulPartitionedCall/vggface_senet50/reshape_9/Reshape/shape/3", "shape": [], "dtype": "int32"}, {"name": "StatefulPartitionedCall/StatefulPartitionedCall/StatefulPartitionedCall/vggface_senet50/conv4_2_1x1_down/Conv2D/ReadVariableOp", "shape": [1, 1, 1024, 64], "dtype": "float32"}, {"name": "StatefulPartitionedCall/StatefulPartitionedCall/StatefulPartitionedCall/vggface_senet50/conv4_2_1x1_down/BiasAdd/ReadVariableOp", "shape": [64], "dtype": "float32"}, {"name": "StatefulPartitionedCall/StatefulPartitionedCall/StatefulPartitionedCall/vggface_senet50/conv4_2_1x1_up/Conv2D/ReadVariableOp", "shape": [1, 1, 64, 1024], "dtype": "float32"}, {"name": "StatefulPartitionedCall/StatefulPartitionedCall/StatefulPartitionedCall/vggface_senet50/conv4_2_1x1_up/BiasAdd/ReadVariableOp", "shape": [1024], "dtype": "float32"}, {"name": "StatefulPartitionedCall/StatefulPartitionedCall/StatefulPartitionedCall/vggface_senet50/global_average_pooling2d_8/Mean/reduction_indices", "shape": [2], "dtype": "int32"}, {"name": "StatefulPartitionedCall/StatefulPartitionedCall/StatefulPartitionedCall/vggface_senet50/reshape_8/strided_slice/stack", "shape": [1], "dtype": "int32"}, {"name": "StatefulPartitionedCall/StatefulPartitionedCall/StatefulPartitionedCall/vggface_senet50/reshape_8/strided_slice/stack_1", "shape": [1], "dtype": "int32"}, {"name": "StatefulPartitionedCall/StatefulPartitionedCall/StatefulPartitionedCall/vggface_senet50/reshape_8/strided_slice/stack_2", "shape": [1], "dtype": "int32"}, {"name": "StatefulPartitionedCall/StatefulPartitionedCall/StatefulPartitionedCall/vggface_senet50/reshape_8/Reshape/shape/1", "shape": [], "dtype": "int32"}, {"name": "StatefulPartitionedCall/StatefulPartitionedCall/StatefulPartitionedCall/vggface_senet50/reshape_8/Reshape/shape/2", "shape": [], "dtype": "int32"}, {"name": "StatefulPartitionedCall/StatefulPartitionedCall/StatefulPartitionedCall/vggface_senet50/reshape_8/Reshape/shape/3", "shape": [], "dtype": "int32"}, {"name": "StatefulPartitionedCall/StatefulPartitionedCall/StatefulPartitionedCall/vggface_senet50/conv4_1_1x1_down/Conv2D/ReadVariableOp", "shape": [1, 1, 1024, 64], "dtype": "float32"}, {"name": "StatefulPartitionedCall/StatefulPartitionedCall/StatefulPartitionedCall/vggface_senet50/conv4_1_1x1_down/BiasAdd/ReadVariableOp", "shape": [64], "dtype": "float32"}, {"name": "StatefulPartitionedCall/StatefulPartitionedCall/StatefulPartitionedCall/vggface_senet50/conv4_1_1x1_up/Conv2D/ReadVariableOp", "shape": [1, 1, 64, 1024], "dtype": "float32"}, {"name": "StatefulPartitionedCall/StatefulPartitionedCall/StatefulPartitionedCall/vggface_senet50/conv4_1_1x1_up/BiasAdd/ReadVariableOp", "shape": [1024], "dtype": "float32"}, {"name": "StatefulPartitionedCall/StatefulPartitionedCall/StatefulPartitionedCall/vggface_senet50/global_average_pooling2d_7/Mean/reduction_indices", "shape": [2], "dtype": "int32"}, {"name": "StatefulPartitionedCall/StatefulPartitionedCall/StatefulPartitionedCall/vggface_senet50/reshape_7/strided_slice/stack", "shape": [1], "dtype": "int32"}, {"name": "StatefulPartitionedCall/StatefulPartitionedCall/StatefulPartitionedCall/vggface_senet50/reshape_7/strided_slice/stack_1", "shape": [1], "dtype": "int32"}, {"name": "StatefulPartitionedCall/StatefulPartitionedCall/StatefulPartitionedCall/vggface_senet50/reshape_7/strided_slice/stack_2", "shape": [1], "dtype": "int32"}, {"name": "StatefulPartitionedCall/StatefulPartitionedCall/StatefulPartitionedCall/vggface_senet50/reshape_7/Reshape/shape/1", "shape": [], "dtype": "int32"}, {"name": "StatefulPartitionedCall/StatefulPartitionedCall/StatefulPartitionedCall/vggface_senet50/reshape_7/Reshape/shape/2", "shape": [], "dtype": "int32"}, {"name": "StatefulPartitionedCall/StatefulPartitionedCall/StatefulPartitionedCall/vggface_senet50/reshape_7/Reshape/shape/3", "shape": [], "dtype": "int32"}, {"name": "StatefulPartitionedCall/StatefulPartitionedCall/StatefulPartitionedCall/vggface_senet50/conv3_4_1x1_down/Conv2D/ReadVariableOp", "shape": [1, 1, 512, 32], "dtype": "float32"}, {"name": "StatefulPartitionedCall/StatefulPartitionedCall/StatefulPartitionedCall/vggface_senet50/conv3_4_1x1_down/BiasAdd/ReadVariableOp", "shape": [32], "dtype": "float32"}, {"name": "StatefulPartitionedCall/StatefulPartitionedCall/StatefulPartitionedCall/vggface_senet50/conv3_4_1x1_up/Conv2D/ReadVariableOp", "shape": [1, 1, 32, 512], "dtype": "float32"}, {"name": "StatefulPartitionedCall/StatefulPartitionedCall/StatefulPartitionedCall/vggface_senet50/conv3_4_1x1_up/BiasAdd/ReadVariableOp", "shape": [512], "dtype": "float32"}, {"name": "StatefulPartitionedCall/StatefulPartitionedCall/StatefulPartitionedCall/vggface_senet50/global_average_pooling2d_6/Mean/reduction_indices", "shape": [2], "dtype": "int32"}, {"name": "StatefulPartitionedCall/StatefulPartitionedCall/StatefulPartitionedCall/vggface_senet50/reshape_6/strided_slice/stack", "shape": [1], "dtype": "int32"}, {"name": "StatefulPartitionedCall/StatefulPartitionedCall/StatefulPartitionedCall/vggface_senet50/reshape_6/strided_slice/stack_1", "shape": [1], "dtype": "int32"}, {"name": "StatefulPartitionedCall/StatefulPartitionedCall/StatefulPartitionedCall/vggface_senet50/reshape_6/strided_slice/stack_2", "shape": [1], "dtype": "int32"}, {"name": "StatefulPartitionedCall/StatefulPartitionedCall/StatefulPartitionedCall/vggface_senet50/reshape_6/Reshape/shape/1", "shape": [], "dtype": "int32"}, {"name": "StatefulPartitionedCall/StatefulPartitionedCall/StatefulPartitionedCall/vggface_senet50/reshape_6/Reshape/shape/2", "shape": [], "dtype": "int32"}, {"name": "StatefulPartitionedCall/StatefulPartitionedCall/StatefulPartitionedCall/vggface_senet50/reshape_6/Reshape/shape/3", "shape": [], "dtype": "int32"}, {"name": "StatefulPartitionedCall/StatefulPartitionedCall/StatefulPartitionedCall/vggface_senet50/conv3_3_1x1_down/Conv2D/ReadVariableOp", "shape": [1, 1, 512, 32], "dtype": "float32"}, {"name": "StatefulPartitionedCall/StatefulPartitionedCall/StatefulPartitionedCall/vggface_senet50/conv3_3_1x1_down/BiasAdd/ReadVariableOp", "shape": [32], "dtype": "float32"}, {"name": "StatefulPartitionedCall/StatefulPartitionedCall/StatefulPartitionedCall/vggface_senet50/conv3_3_1x1_up/Conv2D/ReadVariableOp", "shape": [1, 1, 32, 512], "dtype": "float32"}, {"name": "StatefulPartitionedCall/StatefulPartitionedCall/StatefulPartitionedCall/vggface_senet50/conv3_3_1x1_up/BiasAdd/ReadVariableOp", "shape": [512], "dtype": "float32"}, {"name": "StatefulPartitionedCall/StatefulPartitionedCall/StatefulPartitionedCall/vggface_senet50/global_average_pooling2d_5/Mean/reduction_indices", "shape": [2], "dtype": "int32"}, {"name": "StatefulPartitionedCall/StatefulPartitionedCall/StatefulPartitionedCall/vggface_senet50/reshape_5/strided_slice/stack", "shape": [1], "dtype": "int32"}, {"name": "StatefulPartitionedCall/StatefulPartitionedCall/StatefulPartitionedCall/vggface_senet50/reshape_5/strided_slice/stack_1", "shape": [1], "dtype": "int32"}, {"name": "StatefulPartitionedCall/StatefulPartitionedCall/StatefulPartitionedCall/vggface_senet50/reshape_5/strided_slice/stack_2", "shape": [1], "dtype": "int32"}, {"name": "StatefulPartitionedCall/StatefulPartitionedCall/StatefulPartitionedCall/vggface_senet50/reshape_5/Reshape/shape/1", "shape": [], "dtype": "int32"}, {"name": "StatefulPartitionedCall/StatefulPartitionedCall/StatefulPartitionedCall/vggface_senet50/reshape_5/Reshape/shape/2", "shape": [], "dtype": "int32"}, {"name": "StatefulPartitionedCall/StatefulPartitionedCall/StatefulPartitionedCall/vggface_senet50/reshape_5/Reshape/shape/3", "shape": [], "dtype": "int32"}, {"name": "StatefulPartitionedCall/StatefulPartitionedCall/StatefulPartitionedCall/vggface_senet50/conv3_2_1x1_down/Conv2D/ReadVariableOp", "shape": [1, 1, 512, 32], "dtype": "float32"}, {"name": "StatefulPartitionedCall/StatefulPartitionedCall/StatefulPartitionedCall/vggface_senet50/conv3_2_1x1_down/BiasAdd/ReadVariableOp", "shape": [32], "dtype": "float32"}, {"name": "StatefulPartitionedCall/StatefulPartitionedCall/StatefulPartitionedCall/vggface_senet50/conv3_2_1x1_up/Conv2D/ReadVariableOp", "shape": [1, 1, 32, 512], "dtype": "float32"}, {"name": "StatefulPartitionedCall/StatefulPartitionedCall/StatefulPartitionedCall/vggface_senet50/conv3_2_1x1_up/BiasAdd/ReadVariableOp", "shape": [512], "dtype": "float32"}, {"name": "StatefulPartitionedCall/StatefulPartitionedCall/StatefulPartitionedCall/vggface_senet50/global_average_pooling2d_4/Mean/reduction_indices", "shape": [2], "dtype": "int32"}, {"name": "StatefulPartitionedCall/StatefulPartitionedCall/StatefulPartitionedCall/vggface_senet50/reshape_4/strided_slice/stack", "shape": [1], "dtype": "int32"}, {"name": "StatefulPartitionedCall/StatefulPartitionedCall/StatefulPartitionedCall/vggface_senet50/reshape_4/strided_slice/stack_1", "shape": [1], "dtype": "int32"}, {"name": "StatefulPartitionedCall/StatefulPartitionedCall/StatefulPartitionedCall/vggface_senet50/reshape_4/strided_slice/stack_2", "shape": [1], "dtype": "int32"}, {"name": "StatefulPartitionedCall/StatefulPartitionedCall/StatefulPartitionedCall/vggface_senet50/reshape_4/Reshape/shape/1", "shape": [], "dtype": "int32"}, {"name": "StatefulPartitionedCall/StatefulPartitionedCall/StatefulPartitionedCall/vggface_senet50/reshape_4/Reshape/shape/2", "shape": [], "dtype": "int32"}, {"name": "StatefulPartitionedCall/StatefulPartitionedCall/StatefulPartitionedCall/vggface_senet50/reshape_4/Reshape/shape/3", "shape": [], "dtype": "int32"}, {"name": "StatefulPartitionedCall/StatefulPartitionedCall/StatefulPartitionedCall/vggface_senet50/conv3_1_1x1_down/Conv2D/ReadVariableOp", "shape": [1, 1, 512, 32], "dtype": "float32"}, {"name": "StatefulPartitionedCall/StatefulPartitionedCall/StatefulPartitionedCall/vggface_senet50/conv3_1_1x1_down/BiasAdd/ReadVariableOp", "shape": [32], "dtype": "float32"}, {"name": "StatefulPartitionedCall/StatefulPartitionedCall/StatefulPartitionedCall/vggface_senet50/conv3_1_1x1_up/Conv2D/ReadVariableOp", "shape": [1, 1, 32, 512], "dtype": "float32"}, {"name": "StatefulPartitionedCall/StatefulPartitionedCall/StatefulPartitionedCall/vggface_senet50/conv3_1_1x1_up/BiasAdd/ReadVariableOp", "shape": [512], "dtype": "float32"}, {"name": "StatefulPartitionedCall/StatefulPartitionedCall/StatefulPartitionedCall/vggface_senet50/global_average_pooling2d_3/Mean/reduction_indices", "shape": [2], "dtype": "int32"}, {"name": "StatefulPartitionedCall/StatefulPartitionedCall/StatefulPartitionedCall/vggface_senet50/reshape_3/strided_slice/stack", "shape": [1], "dtype": "int32"}, {"name": "StatefulPartitionedCall/StatefulPartitionedCall/StatefulPartitionedCall/vggface_senet50/reshape_3/strided_slice/stack_1", "shape": [1], "dtype": "int32"}, {"name": "StatefulPartitionedCall/StatefulPartitionedCall/StatefulPartitionedCall/vggface_senet50/reshape_3/strided_slice/stack_2", "shape": [1], "dtype": "int32"}, {"name": "StatefulPartitionedCall/StatefulPartitionedCall/StatefulPartitionedCall/vggface_senet50/reshape_3/Reshape/shape/1", "shape": [], "dtype": "int32"}, {"name": "StatefulPartitionedCall/StatefulPartitionedCall/StatefulPartitionedCall/vggface_senet50/reshape_3/Reshape/shape/2", "shape": [], "dtype": "int32"}, {"name": "StatefulPartitionedCall/StatefulPartitionedCall/StatefulPartitionedCall/vggface_senet50/reshape_3/Reshape/shape/3", "shape": [], "dtype": "int32"}, {"name": "StatefulPartitionedCall/StatefulPartitionedCall/StatefulPartitionedCall/vggface_senet50/conv2_3_1x1_down/Conv2D/ReadVariableOp", "shape": [1, 1, 256, 16], "dtype": "float32"}, {"name": "StatefulPartitionedCall/StatefulPartitionedCall/StatefulPartitionedCall/vggface_senet50/conv2_3_1x1_down/BiasAdd/ReadVariableOp", "shape": [16], "dtype": "float32"}, {"name": "StatefulPartitionedCall/StatefulPartitionedCall/StatefulPartitionedCall/vggface_senet50/conv2_3_1x1_up/Conv2D/ReadVariableOp", "shape": [1, 1, 16, 256], "dtype": "float32"}, {"name": "StatefulPartitionedCall/StatefulPartitionedCall/StatefulPartitionedCall/vggface_senet50/conv2_3_1x1_up/BiasAdd/ReadVariableOp", "shape": [256], "dtype": "float32"}, {"name": "StatefulPartitionedCall/StatefulPartitionedCall/StatefulPartitionedCall/vggface_senet50/global_average_pooling2d_2/Mean/reduction_indices", "shape": [2], "dtype": "int32"}, {"name": "StatefulPartitionedCall/StatefulPartitionedCall/StatefulPartitionedCall/vggface_senet50/reshape_2/strided_slice/stack", "shape": [1], "dtype": "int32"}, {"name": "StatefulPartitionedCall/StatefulPartitionedCall/StatefulPartitionedCall/vggface_senet50/reshape_2/strided_slice/stack_1", "shape": [1], "dtype": "int32"}, {"name": "StatefulPartitionedCall/StatefulPartitionedCall/StatefulPartitionedCall/vggface_senet50/reshape_2/strided_slice/stack_2", "shape": [1], "dtype": "int32"}, {"name": "StatefulPartitionedCall/StatefulPartitionedCall/StatefulPartitionedCall/vggface_senet50/reshape_2/Reshape/shape/1", "shape": [], "dtype": "int32"}, {"name": "StatefulPartitionedCall/StatefulPartitionedCall/StatefulPartitionedCall/vggface_senet50/reshape_2/Reshape/shape/2", "shape": [], "dtype": "int32"}, {"name": "StatefulPartitionedCall/StatefulPartitionedCall/StatefulPartitionedCall/vggface_senet50/reshape_2/Reshape/shape/3", "shape": [], "dtype": "int32"}, {"name": "StatefulPartitionedCall/StatefulPartitionedCall/StatefulPartitionedCall/vggface_senet50/conv2_2_1x1_down/Conv2D/ReadVariableOp", "shape": [1, 1, 256, 16], "dtype": "float32"}, {"name": "StatefulPartitionedCall/StatefulPartitionedCall/StatefulPartitionedCall/vggface_senet50/conv2_2_1x1_down/BiasAdd/ReadVariableOp", "shape": [16], "dtype": "float32"}, {"name": "StatefulPartitionedCall/StatefulPartitionedCall/StatefulPartitionedCall/vggface_senet50/conv2_2_1x1_up/Conv2D/ReadVariableOp", "shape": [1, 1, 16, 256], "dtype": "float32"}, {"name": "StatefulPartitionedCall/StatefulPartitionedCall/StatefulPartitionedCall/vggface_senet50/conv2_2_1x1_up/BiasAdd/ReadVariableOp", "shape": [256], "dtype": "float32"}, {"name": "StatefulPartitionedCall/StatefulPartitionedCall/StatefulPartitionedCall/vggface_senet50/global_average_pooling2d_1/Mean/reduction_indices", "shape": [2], "dtype": "int32"}, {"name": "StatefulPartitionedCall/StatefulPartitionedCall/StatefulPartitionedCall/vggface_senet50/reshape_1/strided_slice/stack", "shape": [1], "dtype": "int32"}, {"name": "StatefulPartitionedCall/StatefulPartitionedCall/StatefulPartitionedCall/vggface_senet50/reshape_1/strided_slice/stack_1", "shape": [1], "dtype": "int32"}, {"name": "StatefulPartitionedCall/StatefulPartitionedCall/StatefulPartitionedCall/vggface_senet50/reshape_1/strided_slice/stack_2", "shape": [1], "dtype": "int32"}, {"name": "StatefulPartitionedCall/StatefulPartitionedCall/StatefulPartitionedCall/vggface_senet50/reshape_1/Reshape/shape/1", "shape": [], "dtype": "int32"}, {"name": "StatefulPartitionedCall/StatefulPartitionedCall/StatefulPartitionedCall/vggface_senet50/reshape_1/Reshape/shape/2", "shape": [], "dtype": "int32"}, {"name": "StatefulPartitionedCall/StatefulPartitionedCall/StatefulPartitionedCall/vggface_senet50/reshape_1/Reshape/shape/3", "shape": [], "dtype": "int32"}, {"name": "StatefulPartitionedCall/StatefulPartitionedCall/StatefulPartitionedCall/vggface_senet50/conv2_1_1x1_down/Conv2D/ReadVariableOp", "shape": [1, 1, 256, 16], "dtype": "float32"}, {"name": "StatefulPartitionedCall/StatefulPartitionedCall/StatefulPartitionedCall/vggface_senet50/conv2_1_1x1_down/BiasAdd/ReadVariableOp", "shape": [16], "dtype": "float32"}, {"name": "StatefulPartitionedCall/StatefulPartitionedCall/StatefulPartitionedCall/vggface_senet50/conv2_1_1x1_up/Conv2D/ReadVariableOp", "shape": [1, 1, 16, 256], "dtype": "float32"}, {"name": "StatefulPartitionedCall/StatefulPartitionedCall/StatefulPartitionedCall/vggface_senet50/conv2_1_1x1_up/BiasAdd/ReadVariableOp", "shape": [256], "dtype": "float32"}, {"name": "StatefulPartitionedCall/StatefulPartitionedCall/StatefulPartitionedCall/vggface_senet50/global_average_pooling2d_17/Mean/reduction_indices", "shape": [2], "dtype": "int32"}]}]}