{"format": "graph-model", "generatedBy": "2.7.0", "convertedBy": "TensorFlow.js Converter v2.8.0", "signature": {"inputs": {"image_tensor:0": {"name": "image_tensor:0", "dtype": "DT_FLOAT", "tensorShape": {"dim": [{"size": "224"}, {"size": "224"}, {"size": "3"}]}}}, "outputs": {"Identity:0": {"name": "Identity:0", "dtype": "DT_FLOAT", "tensorShape": {"dim": [{"size": "1"}, {"size": "1280"}]}}}}, "modelTopology": {"node": [{"name": "ConstantFolding/PartitionedCall/PartitionedCall/PartitionedCall/onnx_tf_prefix_Div_261_recip", "op": "Const", "attr": {"value": {"tensor": {"dtype": "DT_FLOAT", "tensorShape": {}}}, "dtype": {"type": "DT_FLOAT"}}}, {"name": "ConstantFolding/PartitionedCall/PartitionedCall/PartitionedCall/onnx_tf_prefix_Div_253_recip", "op": "Const", "attr": {"dtype": {"type": "DT_FLOAT"}, "value": {"tensor": {"dtype": "DT_FLOAT", "tensorShape": {}}}}}, {"name": "ConstantFolding/PartitionedCall/PartitionedCall/PartitionedCall/onnx_tf_prefix_Div_245_recip", "op": "Const", "attr": {"value": {"tensor": {"dtype": "DT_FLOAT", "tensorShape": {}}}, "dtype": {"type": "DT_FLOAT"}}}, {"name": "ConstantFolding/PartitionedCall/PartitionedCall/PartitionedCall/onnx_tf_prefix_Div_228_recip", "op": "Const", "attr": {"dtype": {"type": "DT_FLOAT"}, "value": {"tensor": {"dtype": "DT_FLOAT", "tensorShape": {}}}}}, {"name": "PartitionedCall/PartitionedCall/PartitionedCall/transpose_128/perm", "op": "Const", "attr": {"value": {"tensor": {"dtype": "DT_INT32", "tensorShape": {"dim": [{"size": "4"}]}}}, "dtype": {"type": "DT_INT32"}}}, {"name": "ConstantFolding/PartitionedCall/PartitionedCall/PartitionedCall/onnx_tf_prefix_Div_220_recip", "op": "Const", "attr": {"value": {"tensor": {"dtype": "DT_FLOAT", "tensorShape": {}}}, "dtype": {"type": "DT_FLOAT"}}}, {"name": "ConstantFolding/PartitionedCall/PartitionedCall/PartitionedCall/onnx_tf_prefix_Div_203_recip", "op": "Const", "attr": {"value": {"tensor": {"dtype": "DT_FLOAT", "tensorShape": {}}}, "dtype": {"type": "DT_FLOAT"}}}, {"name": "ConstantFolding/PartitionedCall/PartitionedCall/PartitionedCall/onnx_tf_prefix_Div_196_recip", "op": "Const", "attr": {"value": {"tensor": {"dtype": "DT_FLOAT", "tensorShape": {}}}, "dtype": {"type": "DT_FLOAT"}}}, {"name": "ConstantFolding/PartitionedCall/PartitionedCall/PartitionedCall/onnx_tf_prefix_Div_179_recip", "op": "Const", "attr": {"dtype": {"type": "DT_FLOAT"}, "value": {"tensor": {"dtype": "DT_FLOAT", "tensorShape": {}}}}}, {"name": "PartitionedCall/PartitionedCall/PartitionedCall/transpose_106/perm", "op": "Const", "attr": {"value": {"tensor": {"dtype": "DT_INT32", "tensorShape": {"dim": [{"size": "4"}]}}}, "dtype": {"type": "DT_INT32"}}}, {"name": "ConstantFolding/PartitionedCall/PartitionedCall/PartitionedCall/onnx_tf_prefix_Div_171_recip", "op": "Const", "attr": {"dtype": {"type": "DT_FLOAT"}, "value": {"tensor": {"dtype": "DT_FLOAT", "tensorShape": {}}}}}, {"name": "ConstantFolding/PartitionedCall/PartitionedCall/PartitionedCall/onnx_tf_prefix_Div_154_recip", "op": "Const", "attr": {"dtype": {"type": "DT_FLOAT"}, "value": {"tensor": {"dtype": "DT_FLOAT", "tensorShape": {}}}}}, {"name": "ConstantFolding/PartitionedCall/PartitionedCall/PartitionedCall/onnx_tf_prefix_Div_147_recip", "op": "Const", "attr": {"dtype": {"type": "DT_FLOAT"}, "value": {"tensor": {"dtype": "DT_FLOAT", "tensorShape": {}}}}}, {"name": "ConstantFolding/PartitionedCall/PartitionedCall/PartitionedCall/onnx_tf_prefix_Div_130_recip", "op": "Const", "attr": {"dtype": {"type": "DT_FLOAT"}, "value": {"tensor": {"dtype": "DT_FLOAT", "tensorShape": {}}}}}, {"name": "ConstantFolding/PartitionedCall/PartitionedCall/PartitionedCall/onnx_tf_prefix_Div_122_recip", "op": "Const", "attr": {"value": {"tensor": {"dtype": "DT_FLOAT", "tensorShape": {}}}, "dtype": {"type": "DT_FLOAT"}}}, {"name": "ConstantFolding/PartitionedCall/PartitionedCall/PartitionedCall/onnx_tf_prefix_Div_116_recip", "op": "Const", "attr": {"value": {"tensor": {"dtype": "DT_FLOAT", "tensorShape": {}}}, "dtype": {"type": "DT_FLOAT"}}}, {"name": "ConstantFolding/PartitionedCall/PartitionedCall/PartitionedCall/onnx_tf_prefix_Div_108_recip", "op": "Const", "attr": {"dtype": {"type": "DT_FLOAT"}, "value": {"tensor": {"dtype": "DT_FLOAT", "tensorShape": {}}}}}, {"name": "ConstantFolding/PartitionedCall/PartitionedCall/PartitionedCall/onnx_tf_prefix_Div_102_recip", "op": "Const", "attr": {"value": {"tensor": {"dtype": "DT_FLOAT", "tensorShape": {}}}, "dtype": {"type": "DT_FLOAT"}}}, {"name": "PartitionedCall/PartitionedCall/PartitionedCall/transpose_68/perm", "op": "Const", "attr": {"dtype": {"type": "DT_INT32"}, "value": {"tensor": {"dtype": "DT_INT32", "tensorShape": {"dim": [{"size": "4"}]}}}}}, {"name": "ConstantFolding/PartitionedCall/PartitionedCall/PartitionedCall/onnx_tf_prefix_Div_94_recip", "op": "Const", "attr": {"dtype": {"type": "DT_FLOAT"}, "value": {"tensor": {"dtype": "DT_FLOAT", "tensorShape": {}}}}}, {"name": "ConstantFolding/PartitionedCall/PartitionedCall/PartitionedCall/onnx_tf_prefix_Div_88_recip", "op": "Const", "attr": {"value": {"tensor": {"dtype": "DT_FLOAT", "tensorShape": {}}}, "dtype": {"type": "DT_FLOAT"}}}, {"name": "ConstantFolding/PartitionedCall/PartitionedCall/PartitionedCall/onnx_tf_prefix_Div_81_recip", "op": "Const", "attr": {"dtype": {"type": "DT_FLOAT"}, "value": {"tensor": {"dtype": "DT_FLOAT", "tensorShape": {}}}}}, {"name": "ConstantFolding/PartitionedCall/PartitionedCall/PartitionedCall/onnx_tf_prefix_Div_75_recip", "op": "Const", "attr": {"value": {"tensor": {"dtype": "DT_FLOAT", "tensorShape": {}}}, "dtype": {"type": "DT_FLOAT"}}}, {"name": "PartitionedCall/PartitionedCall/PartitionedCall/transpose_37/perm", "op": "Const", "attr": {"dtype": {"type": "DT_INT32"}, "value": {"tensor": {"dtype": "DT_INT32", "tensorShape": {"dim": [{"size": "4"}]}}}}}, {"name": "PartitionedCall/PartitionedCall/PartitionedCall/transpose_17/perm", "op": "Const", "attr": {"value": {"tensor": {"dtype": "DT_INT32", "tensorShape": {"dim": [{"size": "4"}]}}}, "dtype": {"type": "DT_INT32"}}}, {"name": "ConstantFolding/PartitionedCall/PartitionedCall/PartitionedCall/onnx_tf_prefix_Div_4_recip", "op": "Const", "attr": {"value": {"tensor": {"dtype": "DT_FLOAT", "tensorShape": {}}}, "dtype": {"type": "DT_FLOAT"}}}, {"name": "PartitionedCall/transpose/perm", "op": "Const", "attr": {"value": {"tensor": {"dtype": "DT_INT32", "tensorShape": {"dim": [{"size": "3"}]}}}, "dtype": {"type": "DT_INT32"}}}, {"name": "PartitionedCall/sub/y", "op": "Const", "attr": {"dtype": {"type": "DT_FLOAT"}, "value": {"tensor": {"dtype": "DT_FLOAT", "tensorShape": {"dim": [{"size": "3"}, {"size": "1"}, {"size": "1"}]}}}}}, {"name": "ConstantFolding/PartitionedCall/truediv_recip", "op": "Const", "attr": {"dtype": {"type": "DT_FLOAT"}, "value": {"tensor": {"dtype": "DT_FLOAT", "tensorShape": {"dim": [{"size": "3"}, {"size": "1"}, {"size": "1"}]}}}}}, {"name": "PartitionedCall/ExpandDims/dim", "op": "Const", "attr": {"dtype": {"type": "DT_INT32"}, "value": {"tensor": {"dtype": "DT_INT32", "tensorShape": {}}}}}, {"name": "PartitionedCall/PartitionedCall/PartitionedCall/Const", "op": "Const", "attr": {"dtype": {"type": "DT_INT32"}, "value": {"tensor": {"dtype": "DT_INT32", "tensorShape": {"dim": [{"size": "4"}, {"size": "2"}]}}}}}, {"name": "PartitionedCall/PartitionedCall/PartitionedCall/transpose_1/perm", "op": "Const", "attr": {"value": {"tensor": {"dtype": "DT_INT32", "tensorShape": {"dim": [{"size": "4"}]}}}, "dtype": {"type": "DT_INT32"}}}, {"name": "PartitionedCall/PartitionedCall/PartitionedCall/split", "op": "Const", "attr": {"value": {"tensor": {"dtype": "DT_FLOAT", "tensorShape": {"dim": [{"size": "3"}, {"size": "3"}, {"size": "3"}, {"size": "16"}]}}}, "dtype": {"type": "DT_FLOAT"}}}, {"name": "unknown_0", "op": "Const", "attr": {"dtype": {"type": "DT_FLOAT"}, "value": {"tensor": {"dtype": "DT_FLOAT", "tensorShape": {"dim": [{"size": "16"}]}}}}}, {"name": "PartitionedCall/PartitionedCall/PartitionedCall/transpose_2/perm", "op": "Const", "attr": {"value": {"tensor": {"dtype": "DT_INT32", "tensorShape": {"dim": [{"size": "4"}]}}}, "dtype": {"type": "DT_INT32"}}}, {"name": "PartitionedCall/PartitionedCall/PartitionedCall/onnx_tf_prefix_Constant_1", "op": "Const", "attr": {"value": {"tensor": {"dtype": "DT_FLOAT", "tensorShape": {}}}, "dtype": {"type": "DT_FLOAT"}}}, {"name": "PartitionedCall/PartitionedCall/PartitionedCall/clip_by_value/Minimum/y", "op": "Const", "attr": {"value": {"tensor": {"dtype": "DT_FLOAT", "tensorShape": {}}}, "dtype": {"type": "DT_FLOAT"}}}, {"name": "PartitionedCall/PartitionedCall/PartitionedCall/clip_by_value/y", "op": "Const", "attr": {"value": {"tensor": {"dtype": "DT_FLOAT", "tensorShape": {}}}, "dtype": {"type": "DT_FLOAT"}}}, {"name": "PartitionedCall/PartitionedCall/PartitionedCall/Const_3", "op": "Const", "attr": {"dtype": {"type": "DT_INT32"}, "value": {"tensor": {"dtype": "DT_INT32", "tensorShape": {"dim": [{"size": "4"}, {"size": "2"}]}}}}}, {"name": "PartitionedCall/PartitionedCall/PartitionedCall/transpose_4/perm", "op": "Const", "attr": {"value": {"tensor": {"dtype": "DT_INT32", "tensorShape": {"dim": [{"size": "4"}]}}}, "dtype": {"type": "DT_INT32"}}}, {"name": "PartitionedCall/PartitionedCall/PartitionedCall/Reshape", "op": "Const", "attr": {"value": {"tensor": {"dtype": "DT_FLOAT", "tensorShape": {"dim": [{"size": "3"}, {"size": "3"}, {"size": "16"}, {"size": "1"}]}}}, "dtype": {"type": "DT_FLOAT"}}}, {"name": "unknown_3", "op": "Const", "attr": {"value": {"tensor": {"dtype": "DT_FLOAT", "tensorShape": {"dim": [{"size": "16"}]}}}, "dtype": {"type": "DT_FLOAT"}}}, {"name": "PartitionedCall/PartitionedCall/PartitionedCall/transpose_5/perm", "op": "Const", "attr": {"value": {"tensor": {"dtype": "DT_INT32", "tensorShape": {"dim": [{"size": "4"}]}}}, "dtype": {"type": "DT_INT32"}}}, {"name": "PartitionedCall/PartitionedCall/PartitionedCall/transpose_7/perm", "op": "Const", "attr": {"dtype": {"type": "DT_INT32"}, "value": {"tensor": {"dtype": "DT_INT32", "tensorShape": {"dim": [{"size": "4"}]}}}}}, {"name": "PartitionedCall/PartitionedCall/PartitionedCall/split_1", "op": "Const", "attr": {"dtype": {"type": "DT_FLOAT"}, "value": {"tensor": {"dtype": "DT_FLOAT", "tensorShape": {"dim": [{"size": "1"}, {"size": "1"}, {"size": "16"}, {"size": "16"}]}}}}}, {"name": "unknown_5", "op": "Const", "attr": {"dtype": {"type": "DT_FLOAT"}, "value": {"tensor": {"dtype": "DT_FLOAT", "tensorShape": {"dim": [{"size": "16"}]}}}}}, {"name": "PartitionedCall/PartitionedCall/PartitionedCall/transpose_8/perm", "op": "Const", "attr": {"value": {"tensor": {"dtype": "DT_INT32", "tensorShape": {"dim": [{"size": "4"}]}}}, "dtype": {"type": "DT_INT32"}}}, {"name": "PartitionedCall/PartitionedCall/PartitionedCall/transpose_10/perm", "op": "Const", "attr": {"dtype": {"type": "DT_INT32"}, "value": {"tensor": {"dtype": "DT_INT32", "tensorShape": {"dim": [{"size": "4"}]}}}}}, {"name": "PartitionedCall/PartitionedCall/PartitionedCall/split_2", "op": "Const", "attr": {"value": {"tensor": {"dtype": "DT_FLOAT", "tensorShape": {"dim": [{"size": "1"}, {"size": "1"}, {"size": "16"}, {"size": "64"}]}}}, "dtype": {"type": "DT_FLOAT"}}}, {"name": "unknown_7", "op": "Const", "attr": {"dtype": {"type": "DT_FLOAT"}, "value": {"tensor": {"dtype": "DT_FLOAT", "tensorShape": {"dim": [{"size": "64"}]}}}}}, {"name": "PartitionedCall/PartitionedCall/PartitionedCall/transpose_11/perm", "op": "Const", "attr": {"value": {"tensor": {"dtype": "DT_INT32", "tensorShape": {"dim": [{"size": "4"}]}}}, "dtype": {"type": "DT_INT32"}}}, {"name": "PartitionedCall/PartitionedCall/PartitionedCall/Const_4", "op": "Const", "attr": {"dtype": {"type": "DT_INT32"}, "value": {"tensor": {"dtype": "DT_INT32", "tensorShape": {"dim": [{"size": "4"}, {"size": "2"}]}}}}}, {"name": "PartitionedCall/PartitionedCall/PartitionedCall/transpose_13/perm", "op": "Const", "attr": {"value": {"tensor": {"dtype": "DT_INT32", "tensorShape": {"dim": [{"size": "4"}]}}}, "dtype": {"type": "DT_INT32"}}}, {"name": "PartitionedCall/PartitionedCall/PartitionedCall/Reshape_1", "op": "Const", "attr": {"value": {"tensor": {"dtype": "DT_FLOAT", "tensorShape": {"dim": [{"size": "3"}, {"size": "3"}, {"size": "64"}, {"size": "1"}]}}}, "dtype": {"type": "DT_FLOAT"}}}, {"name": "unknown_9", "op": "Const", "attr": {"value": {"tensor": {"dtype": "DT_FLOAT", "tensorShape": {"dim": [{"size": "64"}]}}}, "dtype": {"type": "DT_FLOAT"}}}, {"name": "PartitionedCall/PartitionedCall/PartitionedCall/transpose_14/perm", "op": "Const", "attr": {"value": {"tensor": {"dtype": "DT_INT32", "tensorShape": {"dim": [{"size": "4"}]}}}, "dtype": {"type": "DT_INT32"}}}, {"name": "PartitionedCall/PartitionedCall/PartitionedCall/transpose_16/perm", "op": "Const", "attr": {"value": {"tensor": {"dtype": "DT_INT32", "tensorShape": {"dim": [{"size": "4"}]}}}, "dtype": {"type": "DT_INT32"}}}, {"name": "PartitionedCall/PartitionedCall/PartitionedCall/split_3", "op": "Const", "attr": {"value": {"tensor": {"dtype": "DT_FLOAT", "tensorShape": {"dim": [{"size": "1"}, {"size": "1"}, {"size": "64"}, {"size": "24"}]}}}, "dtype": {"type": "DT_FLOAT"}}}, {"name": "unknown_11", "op": "Const", "attr": {"value": {"tensor": {"dtype": "DT_FLOAT", "tensorShape": {"dim": [{"size": "24"}]}}}, "dtype": {"type": "DT_FLOAT"}}}, {"name": "PartitionedCall/PartitionedCall/PartitionedCall/split_4", "op": "Const", "attr": {"value": {"tensor": {"dtype": "DT_FLOAT", "tensorShape": {"dim": [{"size": "1"}, {"size": "1"}, {"size": "24"}, {"size": "72"}]}}}, "dtype": {"type": "DT_FLOAT"}}}, {"name": "unknown_13", "op": "Const", "attr": {"value": {"tensor": {"dtype": "DT_FLOAT", "tensorShape": {"dim": [{"size": "72"}]}}}, "dtype": {"type": "DT_FLOAT"}}}, {"name": "PartitionedCall/PartitionedCall/PartitionedCall/transpose_20/perm", "op": "Const", "attr": {"value": {"tensor": {"dtype": "DT_INT32", "tensorShape": {"dim": [{"size": "4"}]}}}, "dtype": {"type": "DT_INT32"}}}, {"name": "PartitionedCall/PartitionedCall/PartitionedCall/Const_5", "op": "Const", "attr": {"dtype": {"type": "DT_INT32"}, "value": {"tensor": {"dtype": "DT_INT32", "tensorShape": {"dim": [{"size": "4"}, {"size": "2"}]}}}}}, {"name": "PartitionedCall/PartitionedCall/PartitionedCall/transpose_22/perm", "op": "Const", "attr": {"value": {"tensor": {"dtype": "DT_INT32", "tensorShape": {"dim": [{"size": "4"}]}}}, "dtype": {"type": "DT_INT32"}}}, {"name": "PartitionedCall/PartitionedCall/PartitionedCall/Reshape_2", "op": "Const", "attr": {"dtype": {"type": "DT_FLOAT"}, "value": {"tensor": {"dtype": "DT_FLOAT", "tensorShape": {"dim": [{"size": "3"}, {"size": "3"}, {"size": "72"}, {"size": "1"}]}}}}}, {"name": "unknown_15", "op": "Const", "attr": {"dtype": {"type": "DT_FLOAT"}, "value": {"tensor": {"dtype": "DT_FLOAT", "tensorShape": {"dim": [{"size": "72"}]}}}}}, {"name": "PartitionedCall/PartitionedCall/PartitionedCall/transpose_23/perm", "op": "Const", "attr": {"dtype": {"type": "DT_INT32"}, "value": {"tensor": {"dtype": "DT_INT32", "tensorShape": {"dim": [{"size": "4"}]}}}}}, {"name": "PartitionedCall/PartitionedCall/PartitionedCall/transpose_25/perm", "op": "Const", "attr": {"value": {"tensor": {"dtype": "DT_INT32", "tensorShape": {"dim": [{"size": "4"}]}}}, "dtype": {"type": "DT_INT32"}}}, {"name": "PartitionedCall/PartitionedCall/PartitionedCall/split_5", "op": "Const", "attr": {"dtype": {"type": "DT_FLOAT"}, "value": {"tensor": {"dtype": "DT_FLOAT", "tensorShape": {"dim": [{"size": "1"}, {"size": "1"}, {"size": "72"}, {"size": "24"}]}}}}}, {"name": "unknown_17", "op": "Const", "attr": {"value": {"tensor": {"dtype": "DT_FLOAT", "tensorShape": {"dim": [{"size": "24"}]}}}, "dtype": {"type": "DT_FLOAT"}}}, {"name": "PartitionedCall/PartitionedCall/PartitionedCall/transpose_26/perm", "op": "Const", "attr": {"value": {"tensor": {"dtype": "DT_INT32", "tensorShape": {"dim": [{"size": "4"}]}}}, "dtype": {"type": "DT_INT32"}}}, {"name": "PartitionedCall/PartitionedCall/PartitionedCall/transpose_28/perm", "op": "Const", "attr": {"value": {"tensor": {"dtype": "DT_INT32", "tensorShape": {"dim": [{"size": "4"}]}}}, "dtype": {"type": "DT_INT32"}}}, {"name": "PartitionedCall/PartitionedCall/PartitionedCall/split_6", "op": "Const", "attr": {"dtype": {"type": "DT_FLOAT"}, "value": {"tensor": {"dtype": "DT_FLOAT", "tensorShape": {"dim": [{"size": "1"}, {"size": "1"}, {"size": "24"}, {"size": "72"}]}}}}}, {"name": "unknown_19", "op": "Const", "attr": {"value": {"tensor": {"dtype": "DT_FLOAT", "tensorShape": {"dim": [{"size": "72"}]}}}, "dtype": {"type": "DT_FLOAT"}}}, {"name": "PartitionedCall/PartitionedCall/PartitionedCall/transpose_29/perm", "op": "Const", "attr": {"value": {"tensor": {"dtype": "DT_INT32", "tensorShape": {"dim": [{"size": "4"}]}}}, "dtype": {"type": "DT_INT32"}}}, {"name": "PartitionedCall/PartitionedCall/PartitionedCall/Const_6", "op": "Const", "attr": {"value": {"tensor": {"dtype": "DT_INT32", "tensorShape": {"dim": [{"size": "4"}, {"size": "2"}]}}}, "dtype": {"type": "DT_INT32"}}}, {"name": "PartitionedCall/PartitionedCall/PartitionedCall/transpose_31/perm", "op": "Const", "attr": {"value": {"tensor": {"dtype": "DT_INT32", "tensorShape": {"dim": [{"size": "4"}]}}}, "dtype": {"type": "DT_INT32"}}}, {"name": "PartitionedCall/PartitionedCall/PartitionedCall/Reshape_3", "op": "Const", "attr": {"value": {"tensor": {"dtype": "DT_FLOAT", "tensorShape": {"dim": [{"size": "5"}, {"size": "5"}, {"size": "72"}, {"size": "1"}]}}}, "dtype": {"type": "DT_FLOAT"}}}, {"name": "unknown_21", "op": "Const", "attr": {"value": {"tensor": {"dtype": "DT_FLOAT", "tensorShape": {"dim": [{"size": "72"}]}}}, "dtype": {"type": "DT_FLOAT"}}}, {"name": "PartitionedCall/PartitionedCall/PartitionedCall/transpose_32/perm", "op": "Const", "attr": {"dtype": {"type": "DT_INT32"}, "value": {"tensor": {"dtype": "DT_INT32", "tensorShape": {"dim": [{"size": "4"}]}}}}}, {"name": "ConstantFolding/PartitionedCall/PartitionedCall/PartitionedCall/split_7-folded-1", "op": "Const", "attr": {"value": {"tensor": {"dtype": "DT_INT32", "tensorShape": {"dim": [{"size": "2"}]}}}, "dtype": {"type": "DT_INT32"}}}, {"name": "PartitionedCall/PartitionedCall/PartitionedCall/flatten/Const", "op": "Const", "attr": {"value": {"tensor": {"dtype": "DT_INT32", "tensorShape": {"dim": [{"size": "2"}]}}}, "dtype": {"type": "DT_INT32"}}}, {"name": "PartitionedCall/PartitionedCall/PartitionedCall/transpose_33", "op": "Const", "attr": {"value": {"tensor": {"dtype": "DT_FLOAT", "tensorShape": {"dim": [{"size": "72"}, {"size": "24"}]}}}, "dtype": {"type": "DT_FLOAT"}}}, {"name": "PartitionedCall/PartitionedCall/PartitionedCall/mul_1", "op": "Const", "attr": {"value": {"tensor": {"dtype": "DT_FLOAT", "tensorShape": {"dim": [{"size": "24"}]}}}, "dtype": {"type": "DT_FLOAT"}}}, {"name": "PartitionedCall/PartitionedCall/PartitionedCall/transpose_34", "op": "Const", "attr": {"dtype": {"type": "DT_FLOAT"}, "value": {"tensor": {"dtype": "DT_FLOAT", "tensorShape": {"dim": [{"size": "24"}, {"size": "72"}]}}}}}, {"name": "PartitionedCall/PartitionedCall/PartitionedCall/add_13", "op": "Const", "attr": {"value": {"tensor": {"dtype": "DT_FLOAT", "tensorShape": {"dim": [{"size": "72"}]}}}, "dtype": {"type": "DT_FLOAT"}}}, {"name": "PartitionedCall/PartitionedCall/PartitionedCall/clip_by_value_1/Minimum/y", "op": "Const", "attr": {"dtype": {"type": "DT_FLOAT"}, "value": {"tensor": {"dtype": "DT_FLOAT", "tensorShape": {}}}}}, {"name": "PartitionedCall/PartitionedCall/PartitionedCall/clip_by_value_1/y", "op": "Const", "attr": {"dtype": {"type": "DT_FLOAT"}, "value": {"tensor": {"dtype": "DT_FLOAT", "tensorShape": {}}}}}, {"name": "ConstantFolding/PartitionedCall/PartitionedCall/PartitionedCall/onnx_tf_prefix_Div_32_recip", "op": "Const", "attr": {"value": {"tensor": {"dtype": "DT_FLOAT", "tensorShape": {}}}, "dtype": {"type": "DT_FLOAT"}}}, {"name": "unknown_28", "op": "Const", "attr": {"value": {"tensor": {"dtype": "DT_INT64", "tensorShape": {"dim": [{"size": "4"}]}}}, "dtype": {"type": "DT_INT64"}}}, {"name": "PartitionedCall/PartitionedCall/PartitionedCall/Where_1", "op": "Const", "attr": {"value": {"tensor": {"dtype": "DT_INT64", "tensorShape": {"dim": [{}, {"size": "1"}]}}}, "dtype": {"type": "DT_INT64"}}}, {"name": "PartitionedCall/PartitionedCall/PartitionedCall/Cast_1", "op": "Const", "attr": {"value": {"tensor": {"dtype": "DT_INT64", "tensorShape": {"dim": [{"size": "1"}]}}}, "dtype": {"type": "DT_INT64"}}}, {"name": "PartitionedCall/PartitionedCall/PartitionedCall/GatherV2_1", "op": "Const", "attr": {"dtype": {"type": "DT_INT64"}, "value": {"tensor": {"dtype": "DT_INT64", "tensorShape": {"dim": [{}]}}}}}, {"name": "PartitionedCall/PartitionedCall/PartitionedCall/zeros_1", "op": "Const", "attr": {"dtype": {"type": "DT_INT64"}, "value": {"tensor": {"dtype": "DT_INT64", "tensorShape": {}}}}}, {"name": "PartitionedCall/PartitionedCall/PartitionedCall/transpose_36/perm", "op": "Const", "attr": {"dtype": {"type": "DT_INT32"}, "value": {"tensor": {"dtype": "DT_INT32", "tensorShape": {"dim": [{"size": "4"}]}}}}}, {"name": "PartitionedCall/PartitionedCall/PartitionedCall/split_8", "op": "Const", "attr": {"value": {"tensor": {"dtype": "DT_FLOAT", "tensorShape": {"dim": [{"size": "1"}, {"size": "1"}, {"size": "72"}, {"size": "40"}]}}}, "dtype": {"type": "DT_FLOAT"}}}, {"name": "unknown_30", "op": "Const", "attr": {"dtype": {"type": "DT_FLOAT"}, "value": {"tensor": {"dtype": "DT_FLOAT", "tensorShape": {"dim": [{"size": "40"}]}}}}}, {"name": "PartitionedCall/PartitionedCall/PartitionedCall/split_9", "op": "Const", "attr": {"dtype": {"type": "DT_FLOAT"}, "value": {"tensor": {"dtype": "DT_FLOAT", "tensorShape": {"dim": [{"size": "1"}, {"size": "1"}, {"size": "40"}, {"size": "120"}]}}}}}, {"name": "unknown_32", "op": "Const", "attr": {"dtype": {"type": "DT_FLOAT"}, "value": {"tensor": {"dtype": "DT_FLOAT", "tensorShape": {"dim": [{"size": "120"}]}}}}}, {"name": "PartitionedCall/PartitionedCall/PartitionedCall/transpose_40/perm", "op": "Const", "attr": {"value": {"tensor": {"dtype": "DT_INT32", "tensorShape": {"dim": [{"size": "4"}]}}}, "dtype": {"type": "DT_INT32"}}}, {"name": "PartitionedCall/PartitionedCall/PartitionedCall/Const_11", "op": "Const", "attr": {"dtype": {"type": "DT_INT32"}, "value": {"tensor": {"dtype": "DT_INT32", "tensorShape": {"dim": [{"size": "4"}, {"size": "2"}]}}}}}, {"name": "PartitionedCall/PartitionedCall/PartitionedCall/transpose_42/perm", "op": "Const", "attr": {"dtype": {"type": "DT_INT32"}, "value": {"tensor": {"dtype": "DT_INT32", "tensorShape": {"dim": [{"size": "4"}]}}}}}, {"name": "PartitionedCall/PartitionedCall/PartitionedCall/Reshape_4", "op": "Const", "attr": {"value": {"tensor": {"dtype": "DT_FLOAT", "tensorShape": {"dim": [{"size": "5"}, {"size": "5"}, {"size": "120"}, {"size": "1"}]}}}, "dtype": {"type": "DT_FLOAT"}}}, {"name": "unknown_34", "op": "Const", "attr": {"value": {"tensor": {"dtype": "DT_FLOAT", "tensorShape": {"dim": [{"size": "120"}]}}}, "dtype": {"type": "DT_FLOAT"}}}, {"name": "PartitionedCall/PartitionedCall/PartitionedCall/transpose_43/perm", "op": "Const", "attr": {"dtype": {"type": "DT_INT32"}, "value": {"tensor": {"dtype": "DT_INT32", "tensorShape": {"dim": [{"size": "4"}]}}}}}, {"name": "ConstantFolding/PartitionedCall/PartitionedCall/PartitionedCall/split_10-folded-1", "op": "Const", "attr": {"dtype": {"type": "DT_INT32"}, "value": {"tensor": {"dtype": "DT_INT32", "tensorShape": {"dim": [{"size": "2"}]}}}}}, {"name": "PartitionedCall/PartitionedCall/PartitionedCall/flatten_2/Const", "op": "Const", "attr": {"value": {"tensor": {"dtype": "DT_INT32", "tensorShape": {"dim": [{"size": "2"}]}}}, "dtype": {"type": "DT_INT32"}}}, {"name": "PartitionedCall/PartitionedCall/PartitionedCall/transpose_44", "op": "Const", "attr": {"value": {"tensor": {"dtype": "DT_FLOAT", "tensorShape": {"dim": [{"size": "120"}, {"size": "32"}]}}}, "dtype": {"type": "DT_FLOAT"}}}, {"name": "PartitionedCall/PartitionedCall/PartitionedCall/mul_5", "op": "Const", "attr": {"dtype": {"type": "DT_FLOAT"}, "value": {"tensor": {"dtype": "DT_FLOAT", "tensorShape": {"dim": [{"size": "32"}]}}}}}, {"name": "PartitionedCall/PartitionedCall/PartitionedCall/transpose_45", "op": "Const", "attr": {"value": {"tensor": {"dtype": "DT_FLOAT", "tensorShape": {"dim": [{"size": "32"}, {"size": "120"}]}}}, "dtype": {"type": "DT_FLOAT"}}}, {"name": "PartitionedCall/PartitionedCall/PartitionedCall/add_20", "op": "Const", "attr": {"dtype": {"type": "DT_FLOAT"}, "value": {"tensor": {"dtype": "DT_FLOAT", "tensorShape": {"dim": [{"size": "120"}]}}}}}, {"name": "PartitionedCall/PartitionedCall/PartitionedCall/clip_by_value_2/Minimum/y", "op": "Const", "attr": {"dtype": {"type": "DT_FLOAT"}, "value": {"tensor": {"dtype": "DT_FLOAT", "tensorShape": {}}}}}, {"name": "PartitionedCall/PartitionedCall/PartitionedCall/clip_by_value_2/y", "op": "Const", "attr": {"value": {"tensor": {"dtype": "DT_FLOAT", "tensorShape": {}}}, "dtype": {"type": "DT_FLOAT"}}}, {"name": "ConstantFolding/PartitionedCall/PartitionedCall/PartitionedCall/onnx_tf_prefix_Div_48_recip", "op": "Const", "attr": {"value": {"tensor": {"dtype": "DT_FLOAT", "tensorShape": {}}}, "dtype": {"type": "DT_FLOAT"}}}, {"name": "unknown_41", "op": "Const", "attr": {"value": {"tensor": {"dtype": "DT_INT64", "tensorShape": {"dim": [{"size": "4"}]}}}, "dtype": {"type": "DT_INT64"}}}, {"name": "PartitionedCall/PartitionedCall/PartitionedCall/Where_3", "op": "Const", "attr": {"dtype": {"type": "DT_INT64"}, "value": {"tensor": {"dtype": "DT_INT64", "tensorShape": {"dim": [{}, {"size": "1"}]}}}}}, {"name": "PartitionedCall/PartitionedCall/PartitionedCall/Cast_3", "op": "Const", "attr": {"value": {"tensor": {"dtype": "DT_INT64", "tensorShape": {"dim": [{"size": "1"}]}}}, "dtype": {"type": "DT_INT64"}}}, {"name": "PartitionedCall/PartitionedCall/PartitionedCall/GatherV2_3", "op": "Const", "attr": {"value": {"tensor": {"dtype": "DT_INT64", "tensorShape": {"dim": [{}]}}}, "dtype": {"type": "DT_INT64"}}}, {"name": "PartitionedCall/PartitionedCall/PartitionedCall/zeros_3", "op": "Const", "attr": {"dtype": {"type": "DT_INT64"}, "value": {"tensor": {"dtype": "DT_INT64", "tensorShape": {}}}}}, {"name": "PartitionedCall/PartitionedCall/PartitionedCall/transpose_47/perm", "op": "Const", "attr": {"value": {"tensor": {"dtype": "DT_INT32", "tensorShape": {"dim": [{"size": "4"}]}}}, "dtype": {"type": "DT_INT32"}}}, {"name": "PartitionedCall/PartitionedCall/PartitionedCall/split_11", "op": "Const", "attr": {"dtype": {"type": "DT_FLOAT"}, "value": {"tensor": {"dtype": "DT_FLOAT", "tensorShape": {"dim": [{"size": "1"}, {"size": "1"}, {"size": "120"}, {"size": "40"}]}}}}}, {"name": "unknown_43", "op": "Const", "attr": {"value": {"tensor": {"dtype": "DT_FLOAT", "tensorShape": {"dim": [{"size": "40"}]}}}, "dtype": {"type": "DT_FLOAT"}}}, {"name": "PartitionedCall/PartitionedCall/PartitionedCall/transpose_48/perm", "op": "Const", "attr": {"dtype": {"type": "DT_INT32"}, "value": {"tensor": {"dtype": "DT_INT32", "tensorShape": {"dim": [{"size": "4"}]}}}}}, {"name": "PartitionedCall/PartitionedCall/PartitionedCall/transpose_50/perm", "op": "Const", "attr": {"dtype": {"type": "DT_INT32"}, "value": {"tensor": {"dtype": "DT_INT32", "tensorShape": {"dim": [{"size": "4"}]}}}}}, {"name": "PartitionedCall/PartitionedCall/PartitionedCall/split_12", "op": "Const", "attr": {"value": {"tensor": {"dtype": "DT_FLOAT", "tensorShape": {"dim": [{"size": "1"}, {"size": "1"}, {"size": "40"}, {"size": "120"}]}}}, "dtype": {"type": "DT_FLOAT"}}}, {"name": "unknown_45", "op": "Const", "attr": {"value": {"tensor": {"dtype": "DT_FLOAT", "tensorShape": {"dim": [{"size": "120"}]}}}, "dtype": {"type": "DT_FLOAT"}}}, {"name": "PartitionedCall/PartitionedCall/PartitionedCall/transpose_51/perm", "op": "Const", "attr": {"dtype": {"type": "DT_INT32"}, "value": {"tensor": {"dtype": "DT_INT32", "tensorShape": {"dim": [{"size": "4"}]}}}}}, {"name": "PartitionedCall/PartitionedCall/PartitionedCall/Const_16", "op": "Const", "attr": {"dtype": {"type": "DT_INT32"}, "value": {"tensor": {"dtype": "DT_INT32", "tensorShape": {"dim": [{"size": "4"}, {"size": "2"}]}}}}}, {"name": "PartitionedCall/PartitionedCall/PartitionedCall/transpose_53/perm", "op": "Const", "attr": {"value": {"tensor": {"dtype": "DT_INT32", "tensorShape": {"dim": [{"size": "4"}]}}}, "dtype": {"type": "DT_INT32"}}}, {"name": "PartitionedCall/PartitionedCall/PartitionedCall/Reshape_5", "op": "Const", "attr": {"dtype": {"type": "DT_FLOAT"}, "value": {"tensor": {"dtype": "DT_FLOAT", "tensorShape": {"dim": [{"size": "5"}, {"size": "5"}, {"size": "120"}, {"size": "1"}]}}}}}, {"name": "unknown_47", "op": "Const", "attr": {"value": {"tensor": {"dtype": "DT_FLOAT", "tensorShape": {"dim": [{"size": "120"}]}}}, "dtype": {"type": "DT_FLOAT"}}}, {"name": "PartitionedCall/PartitionedCall/PartitionedCall/transpose_54/perm", "op": "Const", "attr": {"value": {"tensor": {"dtype": "DT_INT32", "tensorShape": {"dim": [{"size": "4"}]}}}, "dtype": {"type": "DT_INT32"}}}, {"name": "ConstantFolding/PartitionedCall/PartitionedCall/PartitionedCall/split_13-folded-1", "op": "Const", "attr": {"value": {"tensor": {"dtype": "DT_INT32", "tensorShape": {"dim": [{"size": "2"}]}}}, "dtype": {"type": "DT_INT32"}}}, {"name": "PartitionedCall/PartitionedCall/PartitionedCall/flatten_4/Const", "op": "Const", "attr": {"value": {"tensor": {"dtype": "DT_INT32", "tensorShape": {"dim": [{"size": "2"}]}}}, "dtype": {"type": "DT_INT32"}}}, {"name": "PartitionedCall/PartitionedCall/PartitionedCall/transpose_55", "op": "Const", "attr": {"value": {"tensor": {"dtype": "DT_FLOAT", "tensorShape": {"dim": [{"size": "120"}, {"size": "32"}]}}}, "dtype": {"type": "DT_FLOAT"}}}, {"name": "PartitionedCall/PartitionedCall/PartitionedCall/mul_9", "op": "Const", "attr": {"dtype": {"type": "DT_FLOAT"}, "value": {"tensor": {"dtype": "DT_FLOAT", "tensorShape": {"dim": [{"size": "32"}]}}}}}, {"name": "PartitionedCall/PartitionedCall/PartitionedCall/transpose_56", "op": "Const", "attr": {"dtype": {"type": "DT_FLOAT"}, "value": {"tensor": {"dtype": "DT_FLOAT", "tensorShape": {"dim": [{"size": "32"}, {"size": "120"}]}}}}}, {"name": "PartitionedCall/PartitionedCall/PartitionedCall/add_27", "op": "Const", "attr": {"dtype": {"type": "DT_FLOAT"}, "value": {"tensor": {"dtype": "DT_FLOAT", "tensorShape": {"dim": [{"size": "120"}]}}}}}, {"name": "PartitionedCall/PartitionedCall/PartitionedCall/clip_by_value_3/Minimum/y", "op": "Const", "attr": {"value": {"tensor": {"dtype": "DT_FLOAT", "tensorShape": {}}}, "dtype": {"type": "DT_FLOAT"}}}, {"name": "PartitionedCall/PartitionedCall/PartitionedCall/clip_by_value_3/y", "op": "Const", "attr": {"dtype": {"type": "DT_FLOAT"}, "value": {"tensor": {"dtype": "DT_FLOAT", "tensorShape": {}}}}}, {"name": "ConstantFolding/PartitionedCall/PartitionedCall/PartitionedCall/onnx_tf_prefix_Div_65_recip", "op": "Const", "attr": {"value": {"tensor": {"dtype": "DT_FLOAT", "tensorShape": {}}}, "dtype": {"type": "DT_FLOAT"}}}, {"name": "unknown_54", "op": "Const", "attr": {"value": {"tensor": {"dtype": "DT_INT64", "tensorShape": {"dim": [{"size": "4"}]}}}, "dtype": {"type": "DT_INT64"}}}, {"name": "PartitionedCall/PartitionedCall/PartitionedCall/Where_5", "op": "Const", "attr": {"value": {"tensor": {"dtype": "DT_INT64", "tensorShape": {"dim": [{}, {"size": "1"}]}}}, "dtype": {"type": "DT_INT64"}}}, {"name": "PartitionedCall/PartitionedCall/PartitionedCall/Cast_5", "op": "Const", "attr": {"dtype": {"type": "DT_INT64"}, "value": {"tensor": {"dtype": "DT_INT64", "tensorShape": {"dim": [{"size": "1"}]}}}}}, {"name": "PartitionedCall/PartitionedCall/PartitionedCall/GatherV2_5", "op": "Const", "attr": {"dtype": {"type": "DT_INT64"}, "value": {"tensor": {"dtype": "DT_INT64", "tensorShape": {"dim": [{}]}}}}}, {"name": "PartitionedCall/PartitionedCall/PartitionedCall/zeros_5", "op": "Const", "attr": {"value": {"tensor": {"dtype": "DT_INT64", "tensorShape": {}}}, "dtype": {"type": "DT_INT64"}}}, {"name": "PartitionedCall/PartitionedCall/PartitionedCall/transpose_58/perm", "op": "Const", "attr": {"dtype": {"type": "DT_INT32"}, "value": {"tensor": {"dtype": "DT_INT32", "tensorShape": {"dim": [{"size": "4"}]}}}}}, {"name": "PartitionedCall/PartitionedCall/PartitionedCall/split_14", "op": "Const", "attr": {"dtype": {"type": "DT_FLOAT"}, "value": {"tensor": {"dtype": "DT_FLOAT", "tensorShape": {"dim": [{"size": "1"}, {"size": "1"}, {"size": "120"}, {"size": "40"}]}}}}}, {"name": "unknown_56", "op": "Const", "attr": {"dtype": {"type": "DT_FLOAT"}, "value": {"tensor": {"dtype": "DT_FLOAT", "tensorShape": {"dim": [{"size": "40"}]}}}}}, {"name": "PartitionedCall/PartitionedCall/PartitionedCall/transpose_59/perm", "op": "Const", "attr": {"dtype": {"type": "DT_INT32"}, "value": {"tensor": {"dtype": "DT_INT32", "tensorShape": {"dim": [{"size": "4"}]}}}}}, {"name": "PartitionedCall/PartitionedCall/PartitionedCall/transpose_61/perm", "op": "Const", "attr": {"value": {"tensor": {"dtype": "DT_INT32", "tensorShape": {"dim": [{"size": "4"}]}}}, "dtype": {"type": "DT_INT32"}}}, {"name": "PartitionedCall/PartitionedCall/PartitionedCall/split_15", "op": "Const", "attr": {"dtype": {"type": "DT_FLOAT"}, "value": {"tensor": {"dtype": "DT_FLOAT", "tensorShape": {"dim": [{"size": "1"}, {"size": "1"}, {"size": "40"}, {"size": "240"}]}}}}}, {"name": "unknown_58", "op": "Const", "attr": {"dtype": {"type": "DT_FLOAT"}, "value": {"tensor": {"dtype": "DT_FLOAT", "tensorShape": {"dim": [{"size": "240"}]}}}}}, {"name": "PartitionedCall/PartitionedCall/PartitionedCall/transpose_62/perm", "op": "Const", "attr": {"dtype": {"type": "DT_INT32"}, "value": {"tensor": {"dtype": "DT_INT32", "tensorShape": {"dim": [{"size": "4"}]}}}}}, {"name": "PartitionedCall/PartitionedCall/PartitionedCall/onnx_tf_prefix_Constant_72", "op": "Const", "attr": {"value": {"tensor": {"dtype": "DT_FLOAT", "tensorShape": {}}}, "dtype": {"type": "DT_FLOAT"}}}, {"name": "PartitionedCall/PartitionedCall/PartitionedCall/clip_by_value_4/Minimum/y", "op": "Const", "attr": {"dtype": {"type": "DT_FLOAT"}, "value": {"tensor": {"dtype": "DT_FLOAT", "tensorShape": {}}}}}, {"name": "PartitionedCall/PartitionedCall/PartitionedCall/clip_by_value_4/y", "op": "Const", "attr": {"dtype": {"type": "DT_FLOAT"}, "value": {"tensor": {"dtype": "DT_FLOAT", "tensorShape": {}}}}}, {"name": "PartitionedCall/PartitionedCall/PartitionedCall/Const_23", "op": "Const", "attr": {"dtype": {"type": "DT_INT32"}, "value": {"tensor": {"dtype": "DT_INT32", "tensorShape": {"dim": [{"size": "4"}, {"size": "2"}]}}}}}, {"name": "PartitionedCall/PartitionedCall/PartitionedCall/transpose_64/perm", "op": "Const", "attr": {"value": {"tensor": {"dtype": "DT_INT32", "tensorShape": {"dim": [{"size": "4"}]}}}, "dtype": {"type": "DT_INT32"}}}, {"name": "PartitionedCall/PartitionedCall/PartitionedCall/Reshape_6", "op": "Const", "attr": {"value": {"tensor": {"dtype": "DT_FLOAT", "tensorShape": {"dim": [{"size": "3"}, {"size": "3"}, {"size": "240"}, {"size": "1"}]}}}, "dtype": {"type": "DT_FLOAT"}}}, {"name": "unknown_61", "op": "Const", "attr": {"value": {"tensor": {"dtype": "DT_FLOAT", "tensorShape": {"dim": [{"size": "240"}]}}}, "dtype": {"type": "DT_FLOAT"}}}, {"name": "PartitionedCall/PartitionedCall/PartitionedCall/transpose_65/perm", "op": "Const", "attr": {"value": {"tensor": {"dtype": "DT_INT32", "tensorShape": {"dim": [{"size": "4"}]}}}, "dtype": {"type": "DT_INT32"}}}, {"name": "PartitionedCall/PartitionedCall/PartitionedCall/onnx_tf_prefix_Constant_78", "op": "Const", "attr": {"dtype": {"type": "DT_FLOAT"}, "value": {"tensor": {"dtype": "DT_FLOAT", "tensorShape": {}}}}}, {"name": "PartitionedCall/PartitionedCall/PartitionedCall/clip_by_value_5/Minimum/y", "op": "Const", "attr": {"dtype": {"type": "DT_FLOAT"}, "value": {"tensor": {"dtype": "DT_FLOAT", "tensorShape": {}}}}}, {"name": "PartitionedCall/PartitionedCall/PartitionedCall/clip_by_value_5/y", "op": "Const", "attr": {"value": {"tensor": {"dtype": "DT_FLOAT", "tensorShape": {}}}, "dtype": {"type": "DT_FLOAT"}}}, {"name": "PartitionedCall/PartitionedCall/PartitionedCall/transpose_67/perm", "op": "Const", "attr": {"dtype": {"type": "DT_INT32"}, "value": {"tensor": {"dtype": "DT_INT32", "tensorShape": {"dim": [{"size": "4"}]}}}}}, {"name": "PartitionedCall/PartitionedCall/PartitionedCall/split_16", "op": "Const", "attr": {"value": {"tensor": {"dtype": "DT_FLOAT", "tensorShape": {"dim": [{"size": "1"}, {"size": "1"}, {"size": "240"}, {"size": "80"}]}}}, "dtype": {"type": "DT_FLOAT"}}}, {"name": "unknown_64", "op": "Const", "attr": {"dtype": {"type": "DT_FLOAT"}, "value": {"tensor": {"dtype": "DT_FLOAT", "tensorShape": {"dim": [{"size": "80"}]}}}}}, {"name": "PartitionedCall/PartitionedCall/PartitionedCall/split_17", "op": "Const", "attr": {"dtype": {"type": "DT_FLOAT"}, "value": {"tensor": {"dtype": "DT_FLOAT", "tensorShape": {"dim": [{"size": "1"}, {"size": "1"}, {"size": "80"}, {"size": "200"}]}}}}}, {"name": "unknown_66", "op": "Const", "attr": {"value": {"tensor": {"dtype": "DT_FLOAT", "tensorShape": {"dim": [{"size": "200"}]}}}, "dtype": {"type": "DT_FLOAT"}}}, {"name": "PartitionedCall/PartitionedCall/PartitionedCall/transpose_71/perm", "op": "Const", "attr": {"dtype": {"type": "DT_INT32"}, "value": {"tensor": {"dtype": "DT_INT32", "tensorShape": {"dim": [{"size": "4"}]}}}}}, {"name": "PartitionedCall/PartitionedCall/PartitionedCall/onnx_tf_prefix_Constant_85", "op": "Const", "attr": {"value": {"tensor": {"dtype": "DT_FLOAT", "tensorShape": {}}}, "dtype": {"type": "DT_FLOAT"}}}, {"name": "PartitionedCall/PartitionedCall/PartitionedCall/clip_by_value_6/Minimum/y", "op": "Const", "attr": {"dtype": {"type": "DT_FLOAT"}, "value": {"tensor": {"dtype": "DT_FLOAT", "tensorShape": {}}}}}, {"name": "PartitionedCall/PartitionedCall/PartitionedCall/clip_by_value_6/y", "op": "Const", "attr": {"value": {"tensor": {"dtype": "DT_FLOAT", "tensorShape": {}}}, "dtype": {"type": "DT_FLOAT"}}}, {"name": "PartitionedCall/PartitionedCall/PartitionedCall/Const_28", "op": "Const", "attr": {"dtype": {"type": "DT_INT32"}, "value": {"tensor": {"dtype": "DT_INT32", "tensorShape": {"dim": [{"size": "4"}, {"size": "2"}]}}}}}, {"name": "PartitionedCall/PartitionedCall/PartitionedCall/transpose_73/perm", "op": "Const", "attr": {"dtype": {"type": "DT_INT32"}, "value": {"tensor": {"dtype": "DT_INT32", "tensorShape": {"dim": [{"size": "4"}]}}}}}, {"name": "PartitionedCall/PartitionedCall/PartitionedCall/Reshape_7", "op": "Const", "attr": {"value": {"tensor": {"dtype": "DT_FLOAT", "tensorShape": {"dim": [{"size": "3"}, {"size": "3"}, {"size": "200"}, {"size": "1"}]}}}, "dtype": {"type": "DT_FLOAT"}}}, {"name": "unknown_69", "op": "Const", "attr": {"value": {"tensor": {"dtype": "DT_FLOAT", "tensorShape": {"dim": [{"size": "200"}]}}}, "dtype": {"type": "DT_FLOAT"}}}, {"name": "PartitionedCall/PartitionedCall/PartitionedCall/transpose_74/perm", "op": "Const", "attr": {"dtype": {"type": "DT_INT32"}, "value": {"tensor": {"dtype": "DT_INT32", "tensorShape": {"dim": [{"size": "4"}]}}}}}, {"name": "PartitionedCall/PartitionedCall/PartitionedCall/onnx_tf_prefix_Constant_91", "op": "Const", "attr": {"value": {"tensor": {"dtype": "DT_FLOAT", "tensorShape": {}}}, "dtype": {"type": "DT_FLOAT"}}}, {"name": "PartitionedCall/PartitionedCall/PartitionedCall/clip_by_value_7/Minimum/y", "op": "Const", "attr": {"value": {"tensor": {"dtype": "DT_FLOAT", "tensorShape": {}}}, "dtype": {"type": "DT_FLOAT"}}}, {"name": "PartitionedCall/PartitionedCall/PartitionedCall/clip_by_value_7/y", "op": "Const", "attr": {"dtype": {"type": "DT_FLOAT"}, "value": {"tensor": {"dtype": "DT_FLOAT", "tensorShape": {}}}}}, {"name": "PartitionedCall/PartitionedCall/PartitionedCall/transpose_76/perm", "op": "Const", "attr": {"dtype": {"type": "DT_INT32"}, "value": {"tensor": {"dtype": "DT_INT32", "tensorShape": {"dim": [{"size": "4"}]}}}}}, {"name": "PartitionedCall/PartitionedCall/PartitionedCall/split_18", "op": "Const", "attr": {"value": {"tensor": {"dtype": "DT_FLOAT", "tensorShape": {"dim": [{"size": "1"}, {"size": "1"}, {"size": "200"}, {"size": "80"}]}}}, "dtype": {"type": "DT_FLOAT"}}}, {"name": "unknown_72", "op": "Const", "attr": {"value": {"tensor": {"dtype": "DT_FLOAT", "tensorShape": {"dim": [{"size": "80"}]}}}, "dtype": {"type": "DT_FLOAT"}}}, {"name": "PartitionedCall/PartitionedCall/PartitionedCall/transpose_77/perm", "op": "Const", "attr": {"value": {"tensor": {"dtype": "DT_INT32", "tensorShape": {"dim": [{"size": "4"}]}}}, "dtype": {"type": "DT_INT32"}}}, {"name": "PartitionedCall/PartitionedCall/PartitionedCall/transpose_79/perm", "op": "Const", "attr": {"value": {"tensor": {"dtype": "DT_INT32", "tensorShape": {"dim": [{"size": "4"}]}}}, "dtype": {"type": "DT_INT32"}}}, {"name": "PartitionedCall/PartitionedCall/PartitionedCall/split_19", "op": "Const", "attr": {"value": {"tensor": {"dtype": "DT_FLOAT", "tensorShape": {"dim": [{"size": "1"}, {"size": "1"}, {"size": "80"}, {"size": "184"}]}}}, "dtype": {"type": "DT_FLOAT"}}}, {"name": "unknown_74", "op": "Const", "attr": {"value": {"tensor": {"dtype": "DT_FLOAT", "tensorShape": {"dim": [{"size": "184"}]}}}, "dtype": {"type": "DT_FLOAT"}}}, {"name": "PartitionedCall/PartitionedCall/PartitionedCall/transpose_80/perm", "op": "Const", "attr": {"value": {"tensor": {"dtype": "DT_INT32", "tensorShape": {"dim": [{"size": "4"}]}}}, "dtype": {"type": "DT_INT32"}}}, {"name": "PartitionedCall/PartitionedCall/PartitionedCall/onnx_tf_prefix_Constant_99", "op": "Const", "attr": {"dtype": {"type": "DT_FLOAT"}, "value": {"tensor": {"dtype": "DT_FLOAT", "tensorShape": {}}}}}, {"name": "PartitionedCall/PartitionedCall/PartitionedCall/clip_by_value_8/Minimum/y", "op": "Const", "attr": {"dtype": {"type": "DT_FLOAT"}, "value": {"tensor": {"dtype": "DT_FLOAT", "tensorShape": {}}}}}, {"name": "PartitionedCall/PartitionedCall/PartitionedCall/clip_by_value_8/y", "op": "Const", "attr": {"value": {"tensor": {"dtype": "DT_FLOAT", "tensorShape": {}}}, "dtype": {"type": "DT_FLOAT"}}}, {"name": "PartitionedCall/PartitionedCall/PartitionedCall/Const_33", "op": "Const", "attr": {"value": {"tensor": {"dtype": "DT_INT32", "tensorShape": {"dim": [{"size": "4"}, {"size": "2"}]}}}, "dtype": {"type": "DT_INT32"}}}, {"name": "PartitionedCall/PartitionedCall/PartitionedCall/transpose_82/perm", "op": "Const", "attr": {"value": {"tensor": {"dtype": "DT_INT32", "tensorShape": {"dim": [{"size": "4"}]}}}, "dtype": {"type": "DT_INT32"}}}, {"name": "PartitionedCall/PartitionedCall/PartitionedCall/Reshape_8", "op": "Const", "attr": {"dtype": {"type": "DT_FLOAT"}, "value": {"tensor": {"dtype": "DT_FLOAT", "tensorShape": {"dim": [{"size": "3"}, {"size": "3"}, {"size": "184"}, {"size": "1"}]}}}}}, {"name": "unknown_77", "op": "Const", "attr": {"dtype": {"type": "DT_FLOAT"}, "value": {"tensor": {"dtype": "DT_FLOAT", "tensorShape": {"dim": [{"size": "184"}]}}}}}, {"name": "PartitionedCall/PartitionedCall/PartitionedCall/transpose_83/perm", "op": "Const", "attr": {"dtype": {"type": "DT_INT32"}, "value": {"tensor": {"dtype": "DT_INT32", "tensorShape": {"dim": [{"size": "4"}]}}}}}, {"name": "PartitionedCall/PartitionedCall/PartitionedCall/onnx_tf_prefix_Constant_105", "op": "Const", "attr": {"value": {"tensor": {"dtype": "DT_FLOAT", "tensorShape": {}}}, "dtype": {"type": "DT_FLOAT"}}}, {"name": "PartitionedCall/PartitionedCall/PartitionedCall/clip_by_value_9/Minimum/y", "op": "Const", "attr": {"value": {"tensor": {"dtype": "DT_FLOAT", "tensorShape": {}}}, "dtype": {"type": "DT_FLOAT"}}}, {"name": "PartitionedCall/PartitionedCall/PartitionedCall/clip_by_value_9/y", "op": "Const", "attr": {"value": {"tensor": {"dtype": "DT_FLOAT", "tensorShape": {}}}, "dtype": {"type": "DT_FLOAT"}}}, {"name": "PartitionedCall/PartitionedCall/PartitionedCall/transpose_85/perm", "op": "Const", "attr": {"value": {"tensor": {"dtype": "DT_INT32", "tensorShape": {"dim": [{"size": "4"}]}}}, "dtype": {"type": "DT_INT32"}}}, {"name": "PartitionedCall/PartitionedCall/PartitionedCall/split_20", "op": "Const", "attr": {"dtype": {"type": "DT_FLOAT"}, "value": {"tensor": {"dtype": "DT_FLOAT", "tensorShape": {"dim": [{"size": "1"}, {"size": "1"}, {"size": "184"}, {"size": "80"}]}}}}}, {"name": "unknown_80", "op": "Const", "attr": {"dtype": {"type": "DT_FLOAT"}, "value": {"tensor": {"dtype": "DT_FLOAT", "tensorShape": {"dim": [{"size": "80"}]}}}}}, {"name": "PartitionedCall/PartitionedCall/PartitionedCall/transpose_86/perm", "op": "Const", "attr": {"value": {"tensor": {"dtype": "DT_INT32", "tensorShape": {"dim": [{"size": "4"}]}}}, "dtype": {"type": "DT_INT32"}}}, {"name": "PartitionedCall/PartitionedCall/PartitionedCall/transpose_88/perm", "op": "Const", "attr": {"dtype": {"type": "DT_INT32"}, "value": {"tensor": {"dtype": "DT_INT32", "tensorShape": {"dim": [{"size": "4"}]}}}}}, {"name": "PartitionedCall/PartitionedCall/PartitionedCall/split_21", "op": "Const", "attr": {"value": {"tensor": {"dtype": "DT_FLOAT", "tensorShape": {"dim": [{"size": "1"}, {"size": "1"}, {"size": "80"}, {"size": "184"}]}}}, "dtype": {"type": "DT_FLOAT"}}}, {"name": "unknown_82", "op": "Const", "attr": {"dtype": {"type": "DT_FLOAT"}, "value": {"tensor": {"dtype": "DT_FLOAT", "tensorShape": {"dim": [{"size": "184"}]}}}}}, {"name": "PartitionedCall/PartitionedCall/PartitionedCall/transpose_89/perm", "op": "Const", "attr": {"value": {"tensor": {"dtype": "DT_INT32", "tensorShape": {"dim": [{"size": "4"}]}}}, "dtype": {"type": "DT_INT32"}}}, {"name": "PartitionedCall/PartitionedCall/PartitionedCall/onnx_tf_prefix_Constant_113", "op": "Const", "attr": {"dtype": {"type": "DT_FLOAT"}, "value": {"tensor": {"dtype": "DT_FLOAT", "tensorShape": {}}}}}, {"name": "PartitionedCall/PartitionedCall/PartitionedCall/clip_by_value_10/Minimum/y", "op": "Const", "attr": {"dtype": {"type": "DT_FLOAT"}, "value": {"tensor": {"dtype": "DT_FLOAT", "tensorShape": {}}}}}, {"name": "PartitionedCall/PartitionedCall/PartitionedCall/clip_by_value_10/y", "op": "Const", "attr": {"dtype": {"type": "DT_FLOAT"}, "value": {"tensor": {"dtype": "DT_FLOAT", "tensorShape": {}}}}}, {"name": "PartitionedCall/PartitionedCall/PartitionedCall/Const_38", "op": "Const", "attr": {"dtype": {"type": "DT_INT32"}, "value": {"tensor": {"dtype": "DT_INT32", "tensorShape": {"dim": [{"size": "4"}, {"size": "2"}]}}}}}, {"name": "PartitionedCall/PartitionedCall/PartitionedCall/transpose_91/perm", "op": "Const", "attr": {"dtype": {"type": "DT_INT32"}, "value": {"tensor": {"dtype": "DT_INT32", "tensorShape": {"dim": [{"size": "4"}]}}}}}, {"name": "PartitionedCall/PartitionedCall/PartitionedCall/Reshape_9", "op": "Const", "attr": {"value": {"tensor": {"dtype": "DT_FLOAT", "tensorShape": {"dim": [{"size": "3"}, {"size": "3"}, {"size": "184"}, {"size": "1"}]}}}, "dtype": {"type": "DT_FLOAT"}}}, {"name": "unknown_85", "op": "Const", "attr": {"value": {"tensor": {"dtype": "DT_FLOAT", "tensorShape": {"dim": [{"size": "184"}]}}}, "dtype": {"type": "DT_FLOAT"}}}, {"name": "PartitionedCall/PartitionedCall/PartitionedCall/transpose_92/perm", "op": "Const", "attr": {"dtype": {"type": "DT_INT32"}, "value": {"tensor": {"dtype": "DT_INT32", "tensorShape": {"dim": [{"size": "4"}]}}}}}, {"name": "PartitionedCall/PartitionedCall/PartitionedCall/onnx_tf_prefix_Constant_119", "op": "Const", "attr": {"value": {"tensor": {"dtype": "DT_FLOAT", "tensorShape": {}}}, "dtype": {"type": "DT_FLOAT"}}}, {"name": "PartitionedCall/PartitionedCall/PartitionedCall/clip_by_value_11/Minimum/y", "op": "Const", "attr": {"value": {"tensor": {"dtype": "DT_FLOAT", "tensorShape": {}}}, "dtype": {"type": "DT_FLOAT"}}}, {"name": "PartitionedCall/PartitionedCall/PartitionedCall/clip_by_value_11/y", "op": "Const", "attr": {"dtype": {"type": "DT_FLOAT"}, "value": {"tensor": {"dtype": "DT_FLOAT", "tensorShape": {}}}}}, {"name": "PartitionedCall/PartitionedCall/PartitionedCall/transpose_94/perm", "op": "Const", "attr": {"value": {"tensor": {"dtype": "DT_INT32", "tensorShape": {"dim": [{"size": "4"}]}}}, "dtype": {"type": "DT_INT32"}}}, {"name": "PartitionedCall/PartitionedCall/PartitionedCall/split_22", "op": "Const", "attr": {"value": {"tensor": {"dtype": "DT_FLOAT", "tensorShape": {"dim": [{"size": "1"}, {"size": "1"}, {"size": "184"}, {"size": "80"}]}}}, "dtype": {"type": "DT_FLOAT"}}}, {"name": "unknown_88", "op": "Const", "attr": {"value": {"tensor": {"dtype": "DT_FLOAT", "tensorShape": {"dim": [{"size": "80"}]}}}, "dtype": {"type": "DT_FLOAT"}}}, {"name": "PartitionedCall/PartitionedCall/PartitionedCall/transpose_95/perm", "op": "Const", "attr": {"dtype": {"type": "DT_INT32"}, "value": {"tensor": {"dtype": "DT_INT32", "tensorShape": {"dim": [{"size": "4"}]}}}}}, {"name": "PartitionedCall/PartitionedCall/PartitionedCall/transpose_97/perm", "op": "Const", "attr": {"dtype": {"type": "DT_INT32"}, "value": {"tensor": {"dtype": "DT_INT32", "tensorShape": {"dim": [{"size": "4"}]}}}}}, {"name": "PartitionedCall/PartitionedCall/PartitionedCall/split_23", "op": "Const", "attr": {"dtype": {"type": "DT_FLOAT"}, "value": {"tensor": {"dtype": "DT_FLOAT", "tensorShape": {"dim": [{"size": "1"}, {"size": "1"}, {"size": "80"}, {"size": "480"}]}}}}}, {"name": "unknown_90", "op": "Const", "attr": {"value": {"tensor": {"dtype": "DT_FLOAT", "tensorShape": {"dim": [{"size": "480"}]}}}, "dtype": {"type": "DT_FLOAT"}}}, {"name": "PartitionedCall/PartitionedCall/PartitionedCall/transpose_98/perm", "op": "Const", "attr": {"value": {"tensor": {"dtype": "DT_INT32", "tensorShape": {"dim": [{"size": "4"}]}}}, "dtype": {"type": "DT_INT32"}}}, {"name": "PartitionedCall/PartitionedCall/PartitionedCall/onnx_tf_prefix_Constant_127", "op": "Const", "attr": {"value": {"tensor": {"dtype": "DT_FLOAT", "tensorShape": {}}}, "dtype": {"type": "DT_FLOAT"}}}, {"name": "PartitionedCall/PartitionedCall/PartitionedCall/clip_by_value_12/Minimum/y", "op": "Const", "attr": {"value": {"tensor": {"dtype": "DT_FLOAT", "tensorShape": {}}}, "dtype": {"type": "DT_FLOAT"}}}, {"name": "PartitionedCall/PartitionedCall/PartitionedCall/clip_by_value_12/y", "op": "Const", "attr": {"value": {"tensor": {"dtype": "DT_FLOAT", "tensorShape": {}}}, "dtype": {"type": "DT_FLOAT"}}}, {"name": "PartitionedCall/PartitionedCall/PartitionedCall/Const_43", "op": "Const", "attr": {"dtype": {"type": "DT_INT32"}, "value": {"tensor": {"dtype": "DT_INT32", "tensorShape": {"dim": [{"size": "4"}, {"size": "2"}]}}}}}, {"name": "PartitionedCall/PartitionedCall/PartitionedCall/transpose_100/perm", "op": "Const", "attr": {"value": {"tensor": {"dtype": "DT_INT32", "tensorShape": {"dim": [{"size": "4"}]}}}, "dtype": {"type": "DT_INT32"}}}, {"name": "PartitionedCall/PartitionedCall/PartitionedCall/Reshape_10", "op": "Const", "attr": {"dtype": {"type": "DT_FLOAT"}, "value": {"tensor": {"dtype": "DT_FLOAT", "tensorShape": {"dim": [{"size": "3"}, {"size": "3"}, {"size": "480"}, {"size": "1"}]}}}}}, {"name": "unknown_93", "op": "Const", "attr": {"dtype": {"type": "DT_FLOAT"}, "value": {"tensor": {"dtype": "DT_FLOAT", "tensorShape": {"dim": [{"size": "480"}]}}}}}, {"name": "PartitionedCall/PartitionedCall/PartitionedCall/transpose_101/perm", "op": "Const", "attr": {"value": {"tensor": {"dtype": "DT_INT32", "tensorShape": {"dim": [{"size": "4"}]}}}, "dtype": {"type": "DT_INT32"}}}, {"name": "ConstantFolding/PartitionedCall/PartitionedCall/PartitionedCall/split_24-folded-1", "op": "Const", "attr": {"value": {"tensor": {"dtype": "DT_INT32", "tensorShape": {"dim": [{"size": "2"}]}}}, "dtype": {"type": "DT_INT32"}}}, {"name": "PartitionedCall/PartitionedCall/PartitionedCall/flatten_6/Const", "op": "Const", "attr": {"value": {"tensor": {"dtype": "DT_INT32", "tensorShape": {"dim": [{"size": "2"}]}}}, "dtype": {"type": "DT_INT32"}}}, {"name": "PartitionedCall/PartitionedCall/PartitionedCall/transpose_102", "op": "Const", "attr": {"value": {"tensor": {"dtype": "DT_FLOAT", "tensorShape": {"dim": [{"size": "480"}, {"size": "120"}]}}}, "dtype": {"type": "DT_FLOAT"}}}, {"name": "PartitionedCall/PartitionedCall/PartitionedCall/mul_13", "op": "Const", "attr": {"value": {"tensor": {"dtype": "DT_FLOAT", "tensorShape": {"dim": [{"size": "120"}]}}}, "dtype": {"type": "DT_FLOAT"}}}, {"name": "PartitionedCall/PartitionedCall/PartitionedCall/transpose_103", "op": "Const", "attr": {"dtype": {"type": "DT_FLOAT"}, "value": {"tensor": {"dtype": "DT_FLOAT", "tensorShape": {"dim": [{"size": "120"}, {"size": "480"}]}}}}}, {"name": "PartitionedCall/PartitionedCall/PartitionedCall/add_46", "op": "Const", "attr": {"dtype": {"type": "DT_FLOAT"}, "value": {"tensor": {"dtype": "DT_FLOAT", "tensorShape": {"dim": [{"size": "480"}]}}}}}, {"name": "PartitionedCall/PartitionedCall/PartitionedCall/clip_by_value_13/Minimum/y", "op": "Const", "attr": {"dtype": {"type": "DT_FLOAT"}, "value": {"tensor": {"dtype": "DT_FLOAT", "tensorShape": {}}}}}, {"name": "PartitionedCall/PartitionedCall/PartitionedCall/clip_by_value_13/y", "op": "Const", "attr": {"value": {"tensor": {"dtype": "DT_FLOAT", "tensorShape": {}}}, "dtype": {"type": "DT_FLOAT"}}}, {"name": "ConstantFolding/PartitionedCall/PartitionedCall/PartitionedCall/onnx_tf_prefix_Div_141_recip", "op": "Const", "attr": {"value": {"tensor": {"dtype": "DT_FLOAT", "tensorShape": {}}}, "dtype": {"type": "DT_FLOAT"}}}, {"name": "unknown_100", "op": "Const", "attr": {"dtype": {"type": "DT_INT64"}, "value": {"tensor": {"dtype": "DT_INT64", "tensorShape": {"dim": [{"size": "4"}]}}}}}, {"name": "PartitionedCall/PartitionedCall/PartitionedCall/Where_7", "op": "Const", "attr": {"value": {"tensor": {"dtype": "DT_INT64", "tensorShape": {"dim": [{}, {"size": "1"}]}}}, "dtype": {"type": "DT_INT64"}}}, {"name": "PartitionedCall/PartitionedCall/PartitionedCall/Cast_7", "op": "Const", "attr": {"value": {"tensor": {"dtype": "DT_INT64", "tensorShape": {"dim": [{"size": "1"}]}}}, "dtype": {"type": "DT_INT64"}}}, {"name": "PartitionedCall/PartitionedCall/PartitionedCall/GatherV2_7", "op": "Const", "attr": {"dtype": {"type": "DT_INT64"}, "value": {"tensor": {"dtype": "DT_INT64", "tensorShape": {"dim": [{}]}}}}}, {"name": "PartitionedCall/PartitionedCall/PartitionedCall/zeros_7", "op": "Const", "attr": {"dtype": {"type": "DT_INT64"}, "value": {"tensor": {"dtype": "DT_INT64", "tensorShape": {}}}}}, {"name": "PartitionedCall/PartitionedCall/PartitionedCall/onnx_tf_prefix_Constant_144", "op": "Const", "attr": {"value": {"tensor": {"dtype": "DT_FLOAT", "tensorShape": {}}}, "dtype": {"type": "DT_FLOAT"}}}, {"name": "PartitionedCall/PartitionedCall/PartitionedCall/clip_by_value_14/Minimum/y", "op": "Const", "attr": {"value": {"tensor": {"dtype": "DT_FLOAT", "tensorShape": {}}}, "dtype": {"type": "DT_FLOAT"}}}, {"name": "PartitionedCall/PartitionedCall/PartitionedCall/clip_by_value_14/y", "op": "Const", "attr": {"dtype": {"type": "DT_FLOAT"}, "value": {"tensor": {"dtype": "DT_FLOAT", "tensorShape": {}}}}}, {"name": "PartitionedCall/PartitionedCall/PartitionedCall/transpose_105/perm", "op": "Const", "attr": {"dtype": {"type": "DT_INT32"}, "value": {"tensor": {"dtype": "DT_INT32", "tensorShape": {"dim": [{"size": "4"}]}}}}}, {"name": "PartitionedCall/PartitionedCall/PartitionedCall/split_25", "op": "Const", "attr": {"dtype": {"type": "DT_FLOAT"}, "value": {"tensor": {"dtype": "DT_FLOAT", "tensorShape": {"dim": [{"size": "1"}, {"size": "1"}, {"size": "480"}, {"size": "112"}]}}}}}, {"name": "unknown_103", "op": "Const", "attr": {"value": {"tensor": {"dtype": "DT_FLOAT", "tensorShape": {"dim": [{"size": "112"}]}}}, "dtype": {"type": "DT_FLOAT"}}}, {"name": "PartitionedCall/PartitionedCall/PartitionedCall/split_26", "op": "Const", "attr": {"value": {"tensor": {"dtype": "DT_FLOAT", "tensorShape": {"dim": [{"size": "1"}, {"size": "1"}, {"size": "112"}, {"size": "672"}]}}}, "dtype": {"type": "DT_FLOAT"}}}, {"name": "unknown_105", "op": "Const", "attr": {"dtype": {"type": "DT_FLOAT"}, "value": {"tensor": {"dtype": "DT_FLOAT", "tensorShape": {"dim": [{"size": "672"}]}}}}}, {"name": "PartitionedCall/PartitionedCall/PartitionedCall/transpose_109/perm", "op": "Const", "attr": {"dtype": {"type": "DT_INT32"}, "value": {"tensor": {"dtype": "DT_INT32", "tensorShape": {"dim": [{"size": "4"}]}}}}}, {"name": "PartitionedCall/PartitionedCall/PartitionedCall/onnx_tf_prefix_Constant_151", "op": "Const", "attr": {"dtype": {"type": "DT_FLOAT"}, "value": {"tensor": {"dtype": "DT_FLOAT", "tensorShape": {}}}}}, {"name": "PartitionedCall/PartitionedCall/PartitionedCall/clip_by_value_15/Minimum/y", "op": "Const", "attr": {"value": {"tensor": {"dtype": "DT_FLOAT", "tensorShape": {}}}, "dtype": {"type": "DT_FLOAT"}}}, {"name": "PartitionedCall/PartitionedCall/PartitionedCall/clip_by_value_15/y", "op": "Const", "attr": {"dtype": {"type": "DT_FLOAT"}, "value": {"tensor": {"dtype": "DT_FLOAT", "tensorShape": {}}}}}, {"name": "PartitionedCall/PartitionedCall/PartitionedCall/Const_52", "op": "Const", "attr": {"dtype": {"type": "DT_INT32"}, "value": {"tensor": {"dtype": "DT_INT32", "tensorShape": {"dim": [{"size": "4"}, {"size": "2"}]}}}}}, {"name": "PartitionedCall/PartitionedCall/PartitionedCall/transpose_111/perm", "op": "Const", "attr": {"value": {"tensor": {"dtype": "DT_INT32", "tensorShape": {"dim": [{"size": "4"}]}}}, "dtype": {"type": "DT_INT32"}}}, {"name": "PartitionedCall/PartitionedCall/PartitionedCall/Reshape_11", "op": "Const", "attr": {"value": {"tensor": {"dtype": "DT_FLOAT", "tensorShape": {"dim": [{"size": "3"}, {"size": "3"}, {"size": "672"}, {"size": "1"}]}}}, "dtype": {"type": "DT_FLOAT"}}}, {"name": "unknown_108", "op": "Const", "attr": {"value": {"tensor": {"dtype": "DT_FLOAT", "tensorShape": {"dim": [{"size": "672"}]}}}, "dtype": {"type": "DT_FLOAT"}}}, {"name": "PartitionedCall/PartitionedCall/PartitionedCall/transpose_112/perm", "op": "Const", "attr": {"value": {"tensor": {"dtype": "DT_INT32", "tensorShape": {"dim": [{"size": "4"}]}}}, "dtype": {"type": "DT_INT32"}}}, {"name": "ConstantFolding/PartitionedCall/PartitionedCall/PartitionedCall/split_27-folded-1", "op": "Const", "attr": {"dtype": {"type": "DT_INT32"}, "value": {"tensor": {"dtype": "DT_INT32", "tensorShape": {"dim": [{"size": "2"}]}}}}}, {"name": "PartitionedCall/PartitionedCall/PartitionedCall/flatten_8/Const", "op": "Const", "attr": {"value": {"tensor": {"dtype": "DT_INT32", "tensorShape": {"dim": [{"size": "2"}]}}}, "dtype": {"type": "DT_INT32"}}}, {"name": "PartitionedCall/PartitionedCall/PartitionedCall/transpose_113", "op": "Const", "attr": {"value": {"tensor": {"dtype": "DT_FLOAT", "tensorShape": {"dim": [{"size": "672"}, {"size": "168"}]}}}, "dtype": {"type": "DT_FLOAT"}}}, {"name": "PartitionedCall/PartitionedCall/PartitionedCall/mul_17", "op": "Const", "attr": {"value": {"tensor": {"dtype": "DT_FLOAT", "tensorShape": {"dim": [{"size": "168"}]}}}, "dtype": {"type": "DT_FLOAT"}}}, {"name": "PartitionedCall/PartitionedCall/PartitionedCall/transpose_114", "op": "Const", "attr": {"value": {"tensor": {"dtype": "DT_FLOAT", "tensorShape": {"dim": [{"size": "168"}, {"size": "672"}]}}}, "dtype": {"type": "DT_FLOAT"}}}, {"name": "PartitionedCall/PartitionedCall/PartitionedCall/add_53", "op": "Const", "attr": {"dtype": {"type": "DT_FLOAT"}, "value": {"tensor": {"dtype": "DT_FLOAT", "tensorShape": {"dim": [{"size": "672"}]}}}}}, {"name": "PartitionedCall/PartitionedCall/PartitionedCall/clip_by_value_16/Minimum/y", "op": "Const", "attr": {"dtype": {"type": "DT_FLOAT"}, "value": {"tensor": {"dtype": "DT_FLOAT", "tensorShape": {}}}}}, {"name": "PartitionedCall/PartitionedCall/PartitionedCall/clip_by_value_16/y", "op": "Const", "attr": {"value": {"tensor": {"dtype": "DT_FLOAT", "tensorShape": {}}}, "dtype": {"type": "DT_FLOAT"}}}, {"name": "ConstantFolding/PartitionedCall/PartitionedCall/PartitionedCall/onnx_tf_prefix_Div_165_recip", "op": "Const", "attr": {"dtype": {"type": "DT_FLOAT"}, "value": {"tensor": {"dtype": "DT_FLOAT", "tensorShape": {}}}}}, {"name": "unknown_115", "op": "Const", "attr": {"value": {"tensor": {"dtype": "DT_INT64", "tensorShape": {"dim": [{"size": "4"}]}}}, "dtype": {"type": "DT_INT64"}}}, {"name": "PartitionedCall/PartitionedCall/PartitionedCall/Where_9", "op": "Const", "attr": {"dtype": {"type": "DT_INT64"}, "value": {"tensor": {"dtype": "DT_INT64", "tensorShape": {"dim": [{}, {"size": "1"}]}}}}}, {"name": "PartitionedCall/PartitionedCall/PartitionedCall/Cast_9", "op": "Const", "attr": {"dtype": {"type": "DT_INT64"}, "value": {"tensor": {"dtype": "DT_INT64", "tensorShape": {"dim": [{"size": "1"}]}}}}}, {"name": "PartitionedCall/PartitionedCall/PartitionedCall/GatherV2_9", "op": "Const", "attr": {"dtype": {"type": "DT_INT64"}, "value": {"tensor": {"dtype": "DT_INT64", "tensorShape": {"dim": [{}]}}}}}, {"name": "PartitionedCall/PartitionedCall/PartitionedCall/zeros_9", "op": "Const", "attr": {"value": {"tensor": {"dtype": "DT_INT64", "tensorShape": {}}}, "dtype": {"type": "DT_INT64"}}}, {"name": "PartitionedCall/PartitionedCall/PartitionedCall/onnx_tf_prefix_Constant_168", "op": "Const", "attr": {"value": {"tensor": {"dtype": "DT_FLOAT", "tensorShape": {}}}, "dtype": {"type": "DT_FLOAT"}}}, {"name": "PartitionedCall/PartitionedCall/PartitionedCall/clip_by_value_17/Minimum/y", "op": "Const", "attr": {"value": {"tensor": {"dtype": "DT_FLOAT", "tensorShape": {}}}, "dtype": {"type": "DT_FLOAT"}}}, {"name": "PartitionedCall/PartitionedCall/PartitionedCall/clip_by_value_17/y", "op": "Const", "attr": {"value": {"tensor": {"dtype": "DT_FLOAT", "tensorShape": {}}}, "dtype": {"type": "DT_FLOAT"}}}, {"name": "PartitionedCall/PartitionedCall/PartitionedCall/transpose_116/perm", "op": "Const", "attr": {"value": {"tensor": {"dtype": "DT_INT32", "tensorShape": {"dim": [{"size": "4"}]}}}, "dtype": {"type": "DT_INT32"}}}, {"name": "PartitionedCall/PartitionedCall/PartitionedCall/split_28", "op": "Const", "attr": {"dtype": {"type": "DT_FLOAT"}, "value": {"tensor": {"dtype": "DT_FLOAT", "tensorShape": {"dim": [{"size": "1"}, {"size": "1"}, {"size": "672"}, {"size": "112"}]}}}}}, {"name": "unknown_118", "op": "Const", "attr": {"value": {"tensor": {"dtype": "DT_FLOAT", "tensorShape": {"dim": [{"size": "112"}]}}}, "dtype": {"type": "DT_FLOAT"}}}, {"name": "PartitionedCall/PartitionedCall/PartitionedCall/transpose_117/perm", "op": "Const", "attr": {"dtype": {"type": "DT_INT32"}, "value": {"tensor": {"dtype": "DT_INT32", "tensorShape": {"dim": [{"size": "4"}]}}}}}, {"name": "PartitionedCall/PartitionedCall/PartitionedCall/transpose_119/perm", "op": "Const", "attr": {"value": {"tensor": {"dtype": "DT_INT32", "tensorShape": {"dim": [{"size": "4"}]}}}, "dtype": {"type": "DT_INT32"}}}, {"name": "PartitionedCall/PartitionedCall/PartitionedCall/split_29", "op": "Const", "attr": {"value": {"tensor": {"dtype": "DT_FLOAT", "tensorShape": {"dim": [{"size": "1"}, {"size": "1"}, {"size": "112"}, {"size": "672"}]}}}, "dtype": {"type": "DT_FLOAT"}}}, {"name": "unknown_120", "op": "Const", "attr": {"dtype": {"type": "DT_FLOAT"}, "value": {"tensor": {"dtype": "DT_FLOAT", "tensorShape": {"dim": [{"size": "672"}]}}}}}, {"name": "PartitionedCall/PartitionedCall/PartitionedCall/transpose_120/perm", "op": "Const", "attr": {"value": {"tensor": {"dtype": "DT_INT32", "tensorShape": {"dim": [{"size": "4"}]}}}, "dtype": {"type": "DT_INT32"}}}, {"name": "PartitionedCall/PartitionedCall/PartitionedCall/onnx_tf_prefix_Constant_176", "op": "Const", "attr": {"dtype": {"type": "DT_FLOAT"}, "value": {"tensor": {"dtype": "DT_FLOAT", "tensorShape": {}}}}}, {"name": "PartitionedCall/PartitionedCall/PartitionedCall/clip_by_value_18/Minimum/y", "op": "Const", "attr": {"dtype": {"type": "DT_FLOAT"}, "value": {"tensor": {"dtype": "DT_FLOAT", "tensorShape": {}}}}}, {"name": "PartitionedCall/PartitionedCall/PartitionedCall/clip_by_value_18/y", "op": "Const", "attr": {"value": {"tensor": {"dtype": "DT_FLOAT", "tensorShape": {}}}, "dtype": {"type": "DT_FLOAT"}}}, {"name": "PartitionedCall/PartitionedCall/PartitionedCall/Const_61", "op": "Const", "attr": {"value": {"tensor": {"dtype": "DT_INT32", "tensorShape": {"dim": [{"size": "4"}, {"size": "2"}]}}}, "dtype": {"type": "DT_INT32"}}}, {"name": "PartitionedCall/PartitionedCall/PartitionedCall/transpose_122/perm", "op": "Const", "attr": {"value": {"tensor": {"dtype": "DT_INT32", "tensorShape": {"dim": [{"size": "4"}]}}}, "dtype": {"type": "DT_INT32"}}}, {"name": "PartitionedCall/PartitionedCall/PartitionedCall/Reshape_12", "op": "Const", "attr": {"value": {"tensor": {"dtype": "DT_FLOAT", "tensorShape": {"dim": [{"size": "5"}, {"size": "5"}, {"size": "672"}, {"size": "1"}]}}}, "dtype": {"type": "DT_FLOAT"}}}, {"name": "unknown_123", "op": "Const", "attr": {"value": {"tensor": {"dtype": "DT_FLOAT", "tensorShape": {"dim": [{"size": "672"}]}}}, "dtype": {"type": "DT_FLOAT"}}}, {"name": "PartitionedCall/PartitionedCall/PartitionedCall/transpose_123/perm", "op": "Const", "attr": {"dtype": {"type": "DT_INT32"}, "value": {"tensor": {"dtype": "DT_INT32", "tensorShape": {"dim": [{"size": "4"}]}}}}}, {"name": "ConstantFolding/PartitionedCall/PartitionedCall/PartitionedCall/split_30-folded-1", "op": "Const", "attr": {"dtype": {"type": "DT_INT32"}, "value": {"tensor": {"dtype": "DT_INT32", "tensorShape": {"dim": [{"size": "2"}]}}}}}, {"name": "PartitionedCall/PartitionedCall/PartitionedCall/flatten_10/Const", "op": "Const", "attr": {"value": {"tensor": {"dtype": "DT_INT32", "tensorShape": {"dim": [{"size": "2"}]}}}, "dtype": {"type": "DT_INT32"}}}, {"name": "PartitionedCall/PartitionedCall/PartitionedCall/transpose_124", "op": "Const", "attr": {"value": {"tensor": {"dtype": "DT_FLOAT", "tensorShape": {"dim": [{"size": "672"}, {"size": "168"}]}}}, "dtype": {"type": "DT_FLOAT"}}}, {"name": "PartitionedCall/PartitionedCall/PartitionedCall/mul_21", "op": "Const", "attr": {"dtype": {"type": "DT_FLOAT"}, "value": {"tensor": {"dtype": "DT_FLOAT", "tensorShape": {"dim": [{"size": "168"}]}}}}}, {"name": "PartitionedCall/PartitionedCall/PartitionedCall/transpose_125", "op": "Const", "attr": {"value": {"tensor": {"dtype": "DT_FLOAT", "tensorShape": {"dim": [{"size": "168"}, {"size": "672"}]}}}, "dtype": {"type": "DT_FLOAT"}}}, {"name": "PartitionedCall/PartitionedCall/PartitionedCall/add_60", "op": "Const", "attr": {"value": {"tensor": {"dtype": "DT_FLOAT", "tensorShape": {"dim": [{"size": "672"}]}}}, "dtype": {"type": "DT_FLOAT"}}}, {"name": "PartitionedCall/PartitionedCall/PartitionedCall/clip_by_value_19/Minimum/y", "op": "Const", "attr": {"dtype": {"type": "DT_FLOAT"}, "value": {"tensor": {"dtype": "DT_FLOAT", "tensorShape": {}}}}}, {"name": "PartitionedCall/PartitionedCall/PartitionedCall/clip_by_value_19/y", "op": "Const", "attr": {"dtype": {"type": "DT_FLOAT"}, "value": {"tensor": {"dtype": "DT_FLOAT", "tensorShape": {}}}}}, {"name": "ConstantFolding/PartitionedCall/PartitionedCall/PartitionedCall/onnx_tf_prefix_Div_190_recip", "op": "Const", "attr": {"value": {"tensor": {"dtype": "DT_FLOAT", "tensorShape": {}}}, "dtype": {"type": "DT_FLOAT"}}}, {"name": "unknown_130", "op": "Const", "attr": {"value": {"tensor": {"dtype": "DT_INT64", "tensorShape": {"dim": [{"size": "4"}]}}}, "dtype": {"type": "DT_INT64"}}}, {"name": "PartitionedCall/PartitionedCall/PartitionedCall/Where_11", "op": "Const", "attr": {"dtype": {"type": "DT_INT64"}, "value": {"tensor": {"dtype": "DT_INT64", "tensorShape": {"dim": [{}, {"size": "1"}]}}}}}, {"name": "PartitionedCall/PartitionedCall/PartitionedCall/Cast_11", "op": "Const", "attr": {"dtype": {"type": "DT_INT64"}, "value": {"tensor": {"dtype": "DT_INT64", "tensorShape": {"dim": [{"size": "1"}]}}}}}, {"name": "PartitionedCall/PartitionedCall/PartitionedCall/GatherV2_11", "op": "Const", "attr": {"dtype": {"type": "DT_INT64"}, "value": {"tensor": {"dtype": "DT_INT64", "tensorShape": {"dim": [{}]}}}}}, {"name": "PartitionedCall/PartitionedCall/PartitionedCall/zeros_11", "op": "Const", "attr": {"dtype": {"type": "DT_INT64"}, "value": {"tensor": {"dtype": "DT_INT64", "tensorShape": {}}}}}, {"name": "PartitionedCall/PartitionedCall/PartitionedCall/onnx_tf_prefix_Constant_193", "op": "Const", "attr": {"value": {"tensor": {"dtype": "DT_FLOAT", "tensorShape": {}}}, "dtype": {"type": "DT_FLOAT"}}}, {"name": "PartitionedCall/PartitionedCall/PartitionedCall/clip_by_value_20/Minimum/y", "op": "Const", "attr": {"value": {"tensor": {"dtype": "DT_FLOAT", "tensorShape": {}}}, "dtype": {"type": "DT_FLOAT"}}}, {"name": "PartitionedCall/PartitionedCall/PartitionedCall/clip_by_value_20/y", "op": "Const", "attr": {"value": {"tensor": {"dtype": "DT_FLOAT", "tensorShape": {}}}, "dtype": {"type": "DT_FLOAT"}}}, {"name": "PartitionedCall/PartitionedCall/PartitionedCall/transpose_127/perm", "op": "Const", "attr": {"dtype": {"type": "DT_INT32"}, "value": {"tensor": {"dtype": "DT_INT32", "tensorShape": {"dim": [{"size": "4"}]}}}}}, {"name": "PartitionedCall/PartitionedCall/PartitionedCall/split_31", "op": "Const", "attr": {"dtype": {"type": "DT_FLOAT"}, "value": {"tensor": {"dtype": "DT_FLOAT", "tensorShape": {"dim": [{"size": "1"}, {"size": "1"}, {"size": "672"}, {"size": "160"}]}}}}}, {"name": "unknown_133", "op": "Const", "attr": {"dtype": {"type": "DT_FLOAT"}, "value": {"tensor": {"dtype": "DT_FLOAT", "tensorShape": {"dim": [{"size": "160"}]}}}}}, {"name": "PartitionedCall/PartitionedCall/PartitionedCall/split_32", "op": "Const", "attr": {"dtype": {"type": "DT_FLOAT"}, "value": {"tensor": {"dtype": "DT_FLOAT", "tensorShape": {"dim": [{"size": "1"}, {"size": "1"}, {"size": "160"}, {"size": "960"}]}}}}}, {"name": "unknown_135", "op": "Const", "attr": {"value": {"tensor": {"dtype": "DT_FLOAT", "tensorShape": {"dim": [{"size": "960"}]}}}, "dtype": {"type": "DT_FLOAT"}}}, {"name": "PartitionedCall/PartitionedCall/PartitionedCall/transpose_131/perm", "op": "Const", "attr": {"value": {"tensor": {"dtype": "DT_INT32", "tensorShape": {"dim": [{"size": "4"}]}}}, "dtype": {"type": "DT_INT32"}}}, {"name": "PartitionedCall/PartitionedCall/PartitionedCall/onnx_tf_prefix_Constant_200", "op": "Const", "attr": {"dtype": {"type": "DT_FLOAT"}, "value": {"tensor": {"dtype": "DT_FLOAT", "tensorShape": {}}}}}, {"name": "PartitionedCall/PartitionedCall/PartitionedCall/clip_by_value_21/Minimum/y", "op": "Const", "attr": {"value": {"tensor": {"dtype": "DT_FLOAT", "tensorShape": {}}}, "dtype": {"type": "DT_FLOAT"}}}, {"name": "PartitionedCall/PartitionedCall/PartitionedCall/clip_by_value_21/y", "op": "Const", "attr": {"dtype": {"type": "DT_FLOAT"}, "value": {"tensor": {"dtype": "DT_FLOAT", "tensorShape": {}}}}}, {"name": "PartitionedCall/PartitionedCall/PartitionedCall/Const_70", "op": "Const", "attr": {"value": {"tensor": {"dtype": "DT_INT32", "tensorShape": {"dim": [{"size": "4"}, {"size": "2"}]}}}, "dtype": {"type": "DT_INT32"}}}, {"name": "PartitionedCall/PartitionedCall/PartitionedCall/transpose_133/perm", "op": "Const", "attr": {"value": {"tensor": {"dtype": "DT_INT32", "tensorShape": {"dim": [{"size": "4"}]}}}, "dtype": {"type": "DT_INT32"}}}, {"name": "PartitionedCall/PartitionedCall/PartitionedCall/Reshape_13", "op": "Const", "attr": {"dtype": {"type": "DT_FLOAT"}, "value": {"tensor": {"dtype": "DT_FLOAT", "tensorShape": {"dim": [{"size": "5"}, {"size": "5"}, {"size": "960"}, {"size": "1"}]}}}}}, {"name": "unknown_138", "op": "Const", "attr": {"dtype": {"type": "DT_FLOAT"}, "value": {"tensor": {"dtype": "DT_FLOAT", "tensorShape": {"dim": [{"size": "960"}]}}}}}, {"name": "PartitionedCall/PartitionedCall/PartitionedCall/transpose_134/perm", "op": "Const", "attr": {"value": {"tensor": {"dtype": "DT_INT32", "tensorShape": {"dim": [{"size": "4"}]}}}, "dtype": {"type": "DT_INT32"}}}, {"name": "ConstantFolding/PartitionedCall/PartitionedCall/PartitionedCall/split_33-folded-1", "op": "Const", "attr": {"value": {"tensor": {"dtype": "DT_INT32", "tensorShape": {"dim": [{"size": "2"}]}}}, "dtype": {"type": "DT_INT32"}}}, {"name": "PartitionedCall/PartitionedCall/PartitionedCall/flatten_12/Const", "op": "Const", "attr": {"dtype": {"type": "DT_INT32"}, "value": {"tensor": {"dtype": "DT_INT32", "tensorShape": {"dim": [{"size": "2"}]}}}}}, {"name": "PartitionedCall/PartitionedCall/PartitionedCall/transpose_135", "op": "Const", "attr": {"dtype": {"type": "DT_FLOAT"}, "value": {"tensor": {"dtype": "DT_FLOAT", "tensorShape": {"dim": [{"size": "960"}, {"size": "240"}]}}}}}, {"name": "PartitionedCall/PartitionedCall/PartitionedCall/mul_25", "op": "Const", "attr": {"value": {"tensor": {"dtype": "DT_FLOAT", "tensorShape": {"dim": [{"size": "240"}]}}}, "dtype": {"type": "DT_FLOAT"}}}, {"name": "PartitionedCall/PartitionedCall/PartitionedCall/transpose_136", "op": "Const", "attr": {"dtype": {"type": "DT_FLOAT"}, "value": {"tensor": {"dtype": "DT_FLOAT", "tensorShape": {"dim": [{"size": "240"}, {"size": "960"}]}}}}}, {"name": "PartitionedCall/PartitionedCall/PartitionedCall/add_67", "op": "Const", "attr": {"dtype": {"type": "DT_FLOAT"}, "value": {"tensor": {"dtype": "DT_FLOAT", "tensorShape": {"dim": [{"size": "960"}]}}}}}, {"name": "PartitionedCall/PartitionedCall/PartitionedCall/clip_by_value_22/Minimum/y", "op": "Const", "attr": {"dtype": {"type": "DT_FLOAT"}, "value": {"tensor": {"dtype": "DT_FLOAT", "tensorShape": {}}}}}, {"name": "PartitionedCall/PartitionedCall/PartitionedCall/clip_by_value_22/y", "op": "Const", "attr": {"dtype": {"type": "DT_FLOAT"}, "value": {"tensor": {"dtype": "DT_FLOAT", "tensorShape": {}}}}}, {"name": "ConstantFolding/PartitionedCall/PartitionedCall/PartitionedCall/onnx_tf_prefix_Div_214_recip", "op": "Const", "attr": {"dtype": {"type": "DT_FLOAT"}, "value": {"tensor": {"dtype": "DT_FLOAT", "tensorShape": {}}}}}, {"name": "unknown_145", "op": "Const", "attr": {"dtype": {"type": "DT_INT64"}, "value": {"tensor": {"dtype": "DT_INT64", "tensorShape": {"dim": [{"size": "4"}]}}}}}, {"name": "PartitionedCall/PartitionedCall/PartitionedCall/Where_13", "op": "Const", "attr": {"dtype": {"type": "DT_INT64"}, "value": {"tensor": {"dtype": "DT_INT64", "tensorShape": {"dim": [{}, {"size": "1"}]}}}}}, {"name": "PartitionedCall/PartitionedCall/PartitionedCall/Cast_13", "op": "Const", "attr": {"value": {"tensor": {"dtype": "DT_INT64", "tensorShape": {"dim": [{"size": "1"}]}}}, "dtype": {"type": "DT_INT64"}}}, {"name": "PartitionedCall/PartitionedCall/PartitionedCall/GatherV2_13", "op": "Const", "attr": {"dtype": {"type": "DT_INT64"}, "value": {"tensor": {"dtype": "DT_INT64", "tensorShape": {"dim": [{}]}}}}}, {"name": "PartitionedCall/PartitionedCall/PartitionedCall/zeros_13", "op": "Const", "attr": {"value": {"tensor": {"dtype": "DT_INT64", "tensorShape": {}}}, "dtype": {"type": "DT_INT64"}}}, {"name": "PartitionedCall/PartitionedCall/PartitionedCall/onnx_tf_prefix_Constant_217", "op": "Const", "attr": {"dtype": {"type": "DT_FLOAT"}, "value": {"tensor": {"dtype": "DT_FLOAT", "tensorShape": {}}}}}, {"name": "PartitionedCall/PartitionedCall/PartitionedCall/clip_by_value_23/Minimum/y", "op": "Const", "attr": {"dtype": {"type": "DT_FLOAT"}, "value": {"tensor": {"dtype": "DT_FLOAT", "tensorShape": {}}}}}, {"name": "PartitionedCall/PartitionedCall/PartitionedCall/clip_by_value_23/y", "op": "Const", "attr": {"value": {"tensor": {"dtype": "DT_FLOAT", "tensorShape": {}}}, "dtype": {"type": "DT_FLOAT"}}}, {"name": "PartitionedCall/PartitionedCall/PartitionedCall/transpose_138/perm", "op": "Const", "attr": {"dtype": {"type": "DT_INT32"}, "value": {"tensor": {"dtype": "DT_INT32", "tensorShape": {"dim": [{"size": "4"}]}}}}}, {"name": "PartitionedCall/PartitionedCall/PartitionedCall/split_34", "op": "Const", "attr": {"value": {"tensor": {"dtype": "DT_FLOAT", "tensorShape": {"dim": [{"size": "1"}, {"size": "1"}, {"size": "960"}, {"size": "160"}]}}}, "dtype": {"type": "DT_FLOAT"}}}, {"name": "unknown_148", "op": "Const", "attr": {"value": {"tensor": {"dtype": "DT_FLOAT", "tensorShape": {"dim": [{"size": "160"}]}}}, "dtype": {"type": "DT_FLOAT"}}}, {"name": "PartitionedCall/PartitionedCall/PartitionedCall/transpose_139/perm", "op": "Const", "attr": {"value": {"tensor": {"dtype": "DT_INT32", "tensorShape": {"dim": [{"size": "4"}]}}}, "dtype": {"type": "DT_INT32"}}}, {"name": "PartitionedCall/PartitionedCall/PartitionedCall/transpose_141/perm", "op": "Const", "attr": {"dtype": {"type": "DT_INT32"}, "value": {"tensor": {"dtype": "DT_INT32", "tensorShape": {"dim": [{"size": "4"}]}}}}}, {"name": "PartitionedCall/PartitionedCall/PartitionedCall/split_35", "op": "Const", "attr": {"value": {"tensor": {"dtype": "DT_FLOAT", "tensorShape": {"dim": [{"size": "1"}, {"size": "1"}, {"size": "160"}, {"size": "960"}]}}}, "dtype": {"type": "DT_FLOAT"}}}, {"name": "unknown_150", "op": "Const", "attr": {"dtype": {"type": "DT_FLOAT"}, "value": {"tensor": {"dtype": "DT_FLOAT", "tensorShape": {"dim": [{"size": "960"}]}}}}}, {"name": "PartitionedCall/PartitionedCall/PartitionedCall/transpose_142/perm", "op": "Const", "attr": {"dtype": {"type": "DT_INT32"}, "value": {"tensor": {"dtype": "DT_INT32", "tensorShape": {"dim": [{"size": "4"}]}}}}}, {"name": "PartitionedCall/PartitionedCall/PartitionedCall/onnx_tf_prefix_Constant_225", "op": "Const", "attr": {"value": {"tensor": {"dtype": "DT_FLOAT", "tensorShape": {}}}, "dtype": {"type": "DT_FLOAT"}}}, {"name": "PartitionedCall/PartitionedCall/PartitionedCall/clip_by_value_24/Minimum/y", "op": "Const", "attr": {"dtype": {"type": "DT_FLOAT"}, "value": {"tensor": {"dtype": "DT_FLOAT", "tensorShape": {}}}}}, {"name": "PartitionedCall/PartitionedCall/PartitionedCall/clip_by_value_24/y", "op": "Const", "attr": {"dtype": {"type": "DT_FLOAT"}, "value": {"tensor": {"dtype": "DT_FLOAT", "tensorShape": {}}}}}, {"name": "PartitionedCall/PartitionedCall/PartitionedCall/Const_79", "op": "Const", "attr": {"dtype": {"type": "DT_INT32"}, "value": {"tensor": {"dtype": "DT_INT32", "tensorShape": {"dim": [{"size": "4"}, {"size": "2"}]}}}}}, {"name": "PartitionedCall/PartitionedCall/PartitionedCall/transpose_144/perm", "op": "Const", "attr": {"dtype": {"type": "DT_INT32"}, "value": {"tensor": {"dtype": "DT_INT32", "tensorShape": {"dim": [{"size": "4"}]}}}}}, {"name": "PartitionedCall/PartitionedCall/PartitionedCall/Reshape_14", "op": "Const", "attr": {"value": {"tensor": {"dtype": "DT_FLOAT", "tensorShape": {"dim": [{"size": "5"}, {"size": "5"}, {"size": "960"}, {"size": "1"}]}}}, "dtype": {"type": "DT_FLOAT"}}}, {"name": "unknown_153", "op": "Const", "attr": {"dtype": {"type": "DT_FLOAT"}, "value": {"tensor": {"dtype": "DT_FLOAT", "tensorShape": {"dim": [{"size": "960"}]}}}}}, {"name": "PartitionedCall/PartitionedCall/PartitionedCall/transpose_145/perm", "op": "Const", "attr": {"dtype": {"type": "DT_INT32"}, "value": {"tensor": {"dtype": "DT_INT32", "tensorShape": {"dim": [{"size": "4"}]}}}}}, {"name": "ConstantFolding/PartitionedCall/PartitionedCall/PartitionedCall/split_36-folded-1", "op": "Const", "attr": {"value": {"tensor": {"dtype": "DT_INT32", "tensorShape": {"dim": [{"size": "2"}]}}}, "dtype": {"type": "DT_INT32"}}}, {"name": "PartitionedCall/PartitionedCall/PartitionedCall/flatten_14/Const", "op": "Const", "attr": {"value": {"tensor": {"dtype": "DT_INT32", "tensorShape": {"dim": [{"size": "2"}]}}}, "dtype": {"type": "DT_INT32"}}}, {"name": "PartitionedCall/PartitionedCall/PartitionedCall/transpose_146", "op": "Const", "attr": {"value": {"tensor": {"dtype": "DT_FLOAT", "tensorShape": {"dim": [{"size": "960"}, {"size": "240"}]}}}, "dtype": {"type": "DT_FLOAT"}}}, {"name": "PartitionedCall/PartitionedCall/PartitionedCall/mul_29", "op": "Const", "attr": {"dtype": {"type": "DT_FLOAT"}, "value": {"tensor": {"dtype": "DT_FLOAT", "tensorShape": {"dim": [{"size": "240"}]}}}}}, {"name": "PartitionedCall/PartitionedCall/PartitionedCall/transpose_147", "op": "Const", "attr": {"value": {"tensor": {"dtype": "DT_FLOAT", "tensorShape": {"dim": [{"size": "240"}, {"size": "960"}]}}}, "dtype": {"type": "DT_FLOAT"}}}, {"name": "PartitionedCall/PartitionedCall/PartitionedCall/add_74", "op": "Const", "attr": {"dtype": {"type": "DT_FLOAT"}, "value": {"tensor": {"dtype": "DT_FLOAT", "tensorShape": {"dim": [{"size": "960"}]}}}}}, {"name": "PartitionedCall/PartitionedCall/PartitionedCall/clip_by_value_25/Minimum/y", "op": "Const", "attr": {"value": {"tensor": {"dtype": "DT_FLOAT", "tensorShape": {}}}, "dtype": {"type": "DT_FLOAT"}}}, {"name": "PartitionedCall/PartitionedCall/PartitionedCall/clip_by_value_25/y", "op": "Const", "attr": {"value": {"tensor": {"dtype": "DT_FLOAT", "tensorShape": {}}}, "dtype": {"type": "DT_FLOAT"}}}, {"name": "ConstantFolding/PartitionedCall/PartitionedCall/PartitionedCall/onnx_tf_prefix_Div_239_recip", "op": "Const", "attr": {"dtype": {"type": "DT_FLOAT"}, "value": {"tensor": {"dtype": "DT_FLOAT", "tensorShape": {}}}}}, {"name": "unknown_160", "op": "Const", "attr": {"dtype": {"type": "DT_INT64"}, "value": {"tensor": {"dtype": "DT_INT64", "tensorShape": {"dim": [{"size": "4"}]}}}}}, {"name": "PartitionedCall/PartitionedCall/PartitionedCall/Where_15", "op": "Const", "attr": {"value": {"tensor": {"dtype": "DT_INT64", "tensorShape": {"dim": [{}, {"size": "1"}]}}}, "dtype": {"type": "DT_INT64"}}}, {"name": "PartitionedCall/PartitionedCall/PartitionedCall/Cast_15", "op": "Const", "attr": {"value": {"tensor": {"dtype": "DT_INT64", "tensorShape": {"dim": [{"size": "1"}]}}}, "dtype": {"type": "DT_INT64"}}}, {"name": "PartitionedCall/PartitionedCall/PartitionedCall/GatherV2_15", "op": "Const", "attr": {"value": {"tensor": {"dtype": "DT_INT64", "tensorShape": {"dim": [{}]}}}, "dtype": {"type": "DT_INT64"}}}, {"name": "PartitionedCall/PartitionedCall/PartitionedCall/zeros_15", "op": "Const", "attr": {"value": {"tensor": {"dtype": "DT_INT64", "tensorShape": {}}}, "dtype": {"type": "DT_INT64"}}}, {"name": "PartitionedCall/PartitionedCall/PartitionedCall/onnx_tf_prefix_Constant_242", "op": "Const", "attr": {"value": {"tensor": {"dtype": "DT_FLOAT", "tensorShape": {}}}, "dtype": {"type": "DT_FLOAT"}}}, {"name": "PartitionedCall/PartitionedCall/PartitionedCall/clip_by_value_26/Minimum/y", "op": "Const", "attr": {"dtype": {"type": "DT_FLOAT"}, "value": {"tensor": {"dtype": "DT_FLOAT", "tensorShape": {}}}}}, {"name": "PartitionedCall/PartitionedCall/PartitionedCall/clip_by_value_26/y", "op": "Const", "attr": {"dtype": {"type": "DT_FLOAT"}, "value": {"tensor": {"dtype": "DT_FLOAT", "tensorShape": {}}}}}, {"name": "PartitionedCall/PartitionedCall/PartitionedCall/transpose_149/perm", "op": "Const", "attr": {"dtype": {"type": "DT_INT32"}, "value": {"tensor": {"dtype": "DT_INT32", "tensorShape": {"dim": [{"size": "4"}]}}}}}, {"name": "PartitionedCall/PartitionedCall/PartitionedCall/split_37", "op": "Const", "attr": {"value": {"tensor": {"dtype": "DT_FLOAT", "tensorShape": {"dim": [{"size": "1"}, {"size": "1"}, {"size": "960"}, {"size": "160"}]}}}, "dtype": {"type": "DT_FLOAT"}}}, {"name": "unknown_163", "op": "Const", "attr": {"dtype": {"type": "DT_FLOAT"}, "value": {"tensor": {"dtype": "DT_FLOAT", "tensorShape": {"dim": [{"size": "160"}]}}}}}, {"name": "PartitionedCall/PartitionedCall/PartitionedCall/transpose_150/perm", "op": "Const", "attr": {"value": {"tensor": {"dtype": "DT_INT32", "tensorShape": {"dim": [{"size": "4"}]}}}, "dtype": {"type": "DT_INT32"}}}, {"name": "PartitionedCall/PartitionedCall/PartitionedCall/transpose_152/perm", "op": "Const", "attr": {"value": {"tensor": {"dtype": "DT_INT32", "tensorShape": {"dim": [{"size": "4"}]}}}, "dtype": {"type": "DT_INT32"}}}, {"name": "PartitionedCall/PartitionedCall/PartitionedCall/split_38", "op": "Const", "attr": {"dtype": {"type": "DT_FLOAT"}, "value": {"tensor": {"dtype": "DT_FLOAT", "tensorShape": {"dim": [{"size": "1"}, {"size": "1"}, {"size": "160"}, {"size": "960"}]}}}}}, {"name": "unknown_165", "op": "Const", "attr": {"value": {"tensor": {"dtype": "DT_FLOAT", "tensorShape": {"dim": [{"size": "960"}]}}}, "dtype": {"type": "DT_FLOAT"}}}, {"name": "PartitionedCall/PartitionedCall/PartitionedCall/transpose_153/perm", "op": "Const", "attr": {"value": {"tensor": {"dtype": "DT_INT32", "tensorShape": {"dim": [{"size": "4"}]}}}, "dtype": {"type": "DT_INT32"}}}, {"name": "PartitionedCall/PartitionedCall/PartitionedCall/onnx_tf_prefix_Constant_250", "op": "Const", "attr": {"dtype": {"type": "DT_FLOAT"}, "value": {"tensor": {"dtype": "DT_FLOAT", "tensorShape": {}}}}}, {"name": "PartitionedCall/PartitionedCall/PartitionedCall/clip_by_value_27/Minimum/y", "op": "Const", "attr": {"value": {"tensor": {"dtype": "DT_FLOAT", "tensorShape": {}}}, "dtype": {"type": "DT_FLOAT"}}}, {"name": "PartitionedCall/PartitionedCall/PartitionedCall/clip_by_value_27/y", "op": "Const", "attr": {"dtype": {"type": "DT_FLOAT"}, "value": {"tensor": {"dtype": "DT_FLOAT", "tensorShape": {}}}}}, {"name": "ConstantFolding/PartitionedCall/PartitionedCall/PartitionedCall/split_39-folded-1", "op": "Const", "attr": {"dtype": {"type": "DT_INT32"}, "value": {"tensor": {"dtype": "DT_INT32", "tensorShape": {"dim": [{"size": "2"}]}}}}}, {"name": "PartitionedCall/PartitionedCall/PartitionedCall/flatten_16/Const", "op": "Const", "attr": {"dtype": {"type": "DT_INT32"}, "value": {"tensor": {"dtype": "DT_INT32", "tensorShape": {"dim": [{"size": "2"}]}}}}}, {"name": "PartitionedCall/PartitionedCall/PartitionedCall/transpose_154", "op": "Const", "attr": {"value": {"tensor": {"dtype": "DT_FLOAT", "tensorShape": {"dim": [{"size": "960"}, {"size": "1280"}]}}}, "dtype": {"type": "DT_FLOAT"}}}, {"name": "PartitionedCall/PartitionedCall/PartitionedCall/mul_33", "op": "Const", "attr": {"value": {"tensor": {"dtype": "DT_FLOAT", "tensorShape": {"dim": [{"size": "1280"}]}}}, "dtype": {"type": "DT_FLOAT"}}}, {"name": "PartitionedCall/PartitionedCall/PartitionedCall/onnx_tf_prefix_Constant_258", "op": "Const", "attr": {"dtype": {"type": "DT_FLOAT"}, "value": {"tensor": {"dtype": "DT_FLOAT", "tensorShape": {}}}}}, {"name": "PartitionedCall/PartitionedCall/PartitionedCall/clip_by_value_28/Minimum/y", "op": "Const", "attr": {"dtype": {"type": "DT_FLOAT"}, "value": {"tensor": {"dtype": "DT_FLOAT", "tensorShape": {}}}}}, {"name": "PartitionedCall/PartitionedCall/PartitionedCall/clip_by_value_28/y", "op": "Const", "attr": {"value": {"tensor": {"dtype": "DT_FLOAT", "tensorShape": {}}}, "dtype": {"type": "DT_FLOAT"}}}, {"name": "PartitionedCall/PartitionedCall/PartitionedCall/transpose_155", "op": "Const", "attr": {"dtype": {"type": "DT_FLOAT"}, "value": {"tensor": {"dtype": "DT_FLOAT", "tensorShape": {"dim": [{"size": "1280"}, {"size": "1280"}]}}}}}, {"name": "PartitionedCall/PartitionedCall/PartitionedCall/mul_35", "op": "Const", "attr": {"dtype": {"type": "DT_FLOAT"}, "value": {"tensor": {"dtype": "DT_FLOAT", "tensorShape": {"dim": [{"size": "1280"}]}}}}}, {"name": "PartitionedCall/PartitionedCall/PartitionedCall/onnx_tf_prefix_ReduceL2_264/Sum/reduction_indices", "op": "Const", "attr": {"value": {"tensor": {"dtype": "DT_INT32", "tensorShape": {"dim": [{"size": "1"}]}}}, "dtype": {"type": "DT_INT32"}}}, {"name": "PartitionedCall/PartitionedCall/PartitionedCall/Const_92", "op": "Const", "attr": {"dtype": {"type": "DT_INT32"}, "value": {"tensor": {"dtype": "DT_INT32", "tensorShape": {"dim": [{"size": "2"}]}}}}}, {"name": "PartitionedCall/PartitionedCall/PartitionedCall/clip_by_value_29/y", "op": "Const", "attr": {"dtype": {"type": "DT_FLOAT"}, "value": {"tensor": {"dtype": "DT_FLOAT", "tensorShape": {}}}}}, {"name": "PartitionedCall/PartitionedCall/PartitionedCall/ArithmeticOptimizer/ReplaceMulWithBroadcastByTile_Const_mul_36", "op": "Const", "attr": {"dtype": {"type": "DT_INT32"}, "value": {"tensor": {"dtype": "DT_INT32", "tensorShape": {"dim": [{"size": "2"}]}}}}}, {"name": "image_tensor", "op": "Placeholder", "attr": {"shape": {"shape": {"dim": [{"size": "224"}, {"size": "224"}, {"size": "3"}]}}, "dtype": {"type": "DT_FLOAT"}}}, {"name": "PartitionedCall/PartitionedCall/PartitionedCall/SparseToDense_1", "op": "SparseToDense", "input": ["PartitionedCall/PartitionedCall/PartitionedCall/Where_1", "PartitionedCall/PartitionedCall/PartitionedCall/Cast_1", "PartitionedCall/PartitionedCall/PartitionedCall/GatherV2_1", "PartitionedCall/PartitionedCall/PartitionedCall/zeros_1"], "attr": {"validate_indices": {"b": true}, "Tindices": {"type": "DT_INT64"}, "T": {"type": "DT_INT64"}}}, {"name": "PartitionedCall/PartitionedCall/PartitionedCall/SparseToDense_3", "op": "SparseToDense", "input": ["PartitionedCall/PartitionedCall/PartitionedCall/Where_3", "PartitionedCall/PartitionedCall/PartitionedCall/Cast_3", "PartitionedCall/PartitionedCall/PartitionedCall/GatherV2_3", "PartitionedCall/PartitionedCall/PartitionedCall/zeros_3"], "attr": {"Tindices": {"type": "DT_INT64"}, "validate_indices": {"b": true}, "T": {"type": "DT_INT64"}}}, {"name": "PartitionedCall/PartitionedCall/PartitionedCall/SparseToDense_5", "op": "SparseToDense", "input": ["PartitionedCall/PartitionedCall/PartitionedCall/Where_5", "PartitionedCall/PartitionedCall/PartitionedCall/Cast_5", "PartitionedCall/PartitionedCall/PartitionedCall/GatherV2_5", "PartitionedCall/PartitionedCall/PartitionedCall/zeros_5"], "attr": {"T": {"type": "DT_INT64"}, "Tindices": {"type": "DT_INT64"}, "validate_indices": {"b": true}}}, {"name": "PartitionedCall/PartitionedCall/PartitionedCall/SparseToDense_7", "op": "SparseToDense", "input": ["PartitionedCall/PartitionedCall/PartitionedCall/Where_7", "PartitionedCall/PartitionedCall/PartitionedCall/Cast_7", "PartitionedCall/PartitionedCall/PartitionedCall/GatherV2_7", "PartitionedCall/PartitionedCall/PartitionedCall/zeros_7"], "attr": {"validate_indices": {"b": true}, "T": {"type": "DT_INT64"}, "Tindices": {"type": "DT_INT64"}}}, {"name": "PartitionedCall/PartitionedCall/PartitionedCall/SparseToDense_9", "op": "SparseToDense", "input": ["PartitionedCall/PartitionedCall/PartitionedCall/Where_9", "PartitionedCall/PartitionedCall/PartitionedCall/Cast_9", "PartitionedCall/PartitionedCall/PartitionedCall/GatherV2_9", "PartitionedCall/PartitionedCall/PartitionedCall/zeros_9"], "attr": {"T": {"type": "DT_INT64"}, "Tindices": {"type": "DT_INT64"}, "validate_indices": {"b": true}}}, {"name": "PartitionedCall/PartitionedCall/PartitionedCall/SparseToDense_11", "op": "SparseToDense", "input": ["PartitionedCall/PartitionedCall/PartitionedCall/Where_11", "PartitionedCall/PartitionedCall/PartitionedCall/Cast_11", "PartitionedCall/PartitionedCall/PartitionedCall/GatherV2_11", "PartitionedCall/PartitionedCall/PartitionedCall/zeros_11"], "attr": {"validate_indices": {"b": true}, "Tindices": {"type": "DT_INT64"}, "T": {"type": "DT_INT64"}}}, {"name": "PartitionedCall/PartitionedCall/PartitionedCall/SparseToDense_13", "op": "SparseToDense", "input": ["PartitionedCall/PartitionedCall/PartitionedCall/Where_13", "PartitionedCall/PartitionedCall/PartitionedCall/Cast_13", "PartitionedCall/PartitionedCall/PartitionedCall/GatherV2_13", "PartitionedCall/PartitionedCall/PartitionedCall/zeros_13"], "attr": {"validate_indices": {"b": true}, "T": {"type": "DT_INT64"}, "Tindices": {"type": "DT_INT64"}}}, {"name": "PartitionedCall/PartitionedCall/PartitionedCall/SparseToDense_15", "op": "SparseToDense", "input": ["PartitionedCall/PartitionedCall/PartitionedCall/Where_15", "PartitionedCall/PartitionedCall/PartitionedCall/Cast_15", "PartitionedCall/PartitionedCall/PartitionedCall/GatherV2_15", "PartitionedCall/PartitionedCall/PartitionedCall/zeros_15"], "attr": {"validate_indices": {"b": true}, "Tindices": {"type": "DT_INT64"}, "T": {"type": "DT_INT64"}}}, {"name": "PartitionedCall/transpose", "op": "Transpose", "input": ["image_tensor", "PartitionedCall/transpose/perm"], "attr": {"Tperm": {"type": "DT_INT32"}, "T": {"type": "DT_FLOAT"}}}, {"name": "PartitionedCall/PartitionedCall/PartitionedCall/add_14", "op": "AddV2", "input": ["unknown_28", "PartitionedCall/PartitionedCall/PartitionedCall/SparseToDense_1"], "attr": {"T": {"type": "DT_INT64"}}}, {"name": "PartitionedCall/PartitionedCall/PartitionedCall/add_21", "op": "AddV2", "input": ["unknown_41", "PartitionedCall/PartitionedCall/PartitionedCall/SparseToDense_3"], "attr": {"T": {"type": "DT_INT64"}}}, {"name": "PartitionedCall/PartitionedCall/PartitionedCall/add_28", "op": "AddV2", "input": ["unknown_54", "PartitionedCall/PartitionedCall/PartitionedCall/SparseToDense_5"], "attr": {"T": {"type": "DT_INT64"}}}, {"name": "PartitionedCall/PartitionedCall/PartitionedCall/add_47", "op": "AddV2", "input": ["unknown_100", "PartitionedCall/PartitionedCall/PartitionedCall/SparseToDense_7"], "attr": {"T": {"type": "DT_INT64"}}}, {"name": "PartitionedCall/PartitionedCall/PartitionedCall/add_54", "op": "AddV2", "input": ["unknown_115", "PartitionedCall/PartitionedCall/PartitionedCall/SparseToDense_9"], "attr": {"T": {"type": "DT_INT64"}}}, {"name": "PartitionedCall/PartitionedCall/PartitionedCall/add_61", "op": "AddV2", "input": ["unknown_130", "PartitionedCall/PartitionedCall/PartitionedCall/SparseToDense_11"], "attr": {"T": {"type": "DT_INT64"}}}, {"name": "PartitionedCall/PartitionedCall/PartitionedCall/add_68", "op": "AddV2", "input": ["unknown_145", "PartitionedCall/PartitionedCall/PartitionedCall/SparseToDense_13"], "attr": {"T": {"type": "DT_INT64"}}}, {"name": "PartitionedCall/PartitionedCall/PartitionedCall/add_75", "op": "AddV2", "input": ["unknown_160", "PartitionedCall/PartitionedCall/PartitionedCall/SparseToDense_15"], "attr": {"T": {"type": "DT_INT64"}}}, {"name": "PartitionedCall/sub", "op": "Sub", "input": ["PartitionedCall/transpose", "PartitionedCall/sub/y"], "attr": {"T": {"type": "DT_FLOAT"}}}, {"name": "PartitionedCall/truediv", "op": "Mul", "input": ["PartitionedCall/sub", "ConstantFolding/PartitionedCall/truediv_recip"], "attr": {"T": {"type": "DT_FLOAT"}}}, {"name": "PartitionedCall/ExpandDims", "op": "ExpandDims", "input": ["PartitionedCall/truediv", "PartitionedCall/ExpandDims/dim"], "attr": {"T": {"type": "DT_FLOAT"}, "Tdim": {"type": "DT_INT32"}}}, {"name": "PartitionedCall/PartitionedCall/PartitionedCall/Pad", "op": "Pad", "input": ["PartitionedCall/ExpandDims", "PartitionedCall/PartitionedCall/PartitionedCall/Const"], "attr": {"T": {"type": "DT_FLOAT"}, "Tpaddings": {"type": "DT_INT32"}}}, {"name": "PartitionedCall/PartitionedCall/PartitionedCall/transpose_1", "op": "Transpose", "input": ["PartitionedCall/PartitionedCall/PartitionedCall/Pad", "PartitionedCall/PartitionedCall/PartitionedCall/transpose_1/perm"], "attr": {"Tperm": {"type": "DT_INT32"}, "T": {"type": "DT_FLOAT"}}}, {"name": "PartitionedCall/PartitionedCall/PartitionedCall/convolution", "op": "Conv2D", "input": ["PartitionedCall/PartitionedCall/PartitionedCall/transpose_1", "PartitionedCall/PartitionedCall/PartitionedCall/split"], "device": "/device:CPU:0", "attr": {"data_format": {"s": "TkhXQw=="}, "use_cudnn_on_gpu": {"b": true}, "strides": {"list": {"i": ["1", "2", "2", "1"]}}, "dilations": {"list": {"i": ["1", "1", "1", "1"]}}, "padding": {"s": "VkFMSUQ="}, "explicit_paddings": {"list": {}}, "T": {"type": "DT_FLOAT"}}}, {"name": "PartitionedCall/PartitionedCall/PartitionedCall/Add", "op": "AddV2", "input": ["PartitionedCall/PartitionedCall/PartitionedCall/convolution", "unknown_0"], "attr": {"T": {"type": "DT_FLOAT"}}}, {"name": "PartitionedCall/PartitionedCall/PartitionedCall/transpose_2", "op": "Transpose", "input": ["PartitionedCall/PartitionedCall/PartitionedCall/Add", "PartitionedCall/PartitionedCall/PartitionedCall/transpose_2/perm"], "attr": {"T": {"type": "DT_FLOAT"}, "Tperm": {"type": "DT_INT32"}}}, {"name": "PartitionedCall/PartitionedCall/PartitionedCall/onnx_tf_prefix_Div_4", "op": "Mul", "input": ["ConstantFolding/PartitionedCall/PartitionedCall/PartitionedCall/onnx_tf_prefix_Div_4_recip", "PartitionedCall/PartitionedCall/PartitionedCall/transpose_2"], "attr": {"T": {"type": "DT_FLOAT"}, "_grappler_ArithmeticOptimizer_MinimizeBroadcasts": {"b": true}}}, {"name": "PartitionedCall/PartitionedCall/PartitionedCall/onnx_tf_prefix_Add_2", "op": "AddV2", "input": ["PartitionedCall/PartitionedCall/PartitionedCall/transpose_2", "PartitionedCall/PartitionedCall/PartitionedCall/onnx_tf_prefix_Constant_1"], "attr": {"T": {"type": "DT_FLOAT"}}}, {"name": "PartitionedCall/PartitionedCall/PartitionedCall/clip_by_value/Minimum", "op": "Minimum", "input": ["PartitionedCall/PartitionedCall/PartitionedCall/onnx_tf_prefix_Add_2", "PartitionedCall/PartitionedCall/PartitionedCall/clip_by_value/Minimum/y"], "attr": {"T": {"type": "DT_FLOAT"}}}, {"name": "PartitionedCall/PartitionedCall/PartitionedCall/clip_by_value", "op": "Maximum", "input": ["PartitionedCall/PartitionedCall/PartitionedCall/clip_by_value/Minimum", "PartitionedCall/PartitionedCall/PartitionedCall/clip_by_value/y"], "attr": {"T": {"type": "DT_FLOAT"}}}, {"name": "PartitionedCall/PartitionedCall/PartitionedCall/onnx_tf_prefix_Mul_5", "op": "Mul", "input": ["PartitionedCall/PartitionedCall/PartitionedCall/onnx_tf_prefix_Div_4", "PartitionedCall/PartitionedCall/PartitionedCall/clip_by_value"], "attr": {"T": {"type": "DT_FLOAT"}, "_grappler_ArithmeticOptimizer_MinimizeBroadcasts": {"b": true}}}, {"name": "PartitionedCall/PartitionedCall/PartitionedCall/Pad_1", "op": "Pad", "input": ["PartitionedCall/PartitionedCall/PartitionedCall/onnx_tf_prefix_Mul_5", "PartitionedCall/PartitionedCall/PartitionedCall/Const_3"], "attr": {"T": {"type": "DT_FLOAT"}, "Tpaddings": {"type": "DT_INT32"}}}, {"name": "PartitionedCall/PartitionedCall/PartitionedCall/transpose_4", "op": "Transpose", "input": ["PartitionedCall/PartitionedCall/PartitionedCall/Pad_1", "PartitionedCall/PartitionedCall/PartitionedCall/transpose_4/perm"], "attr": {"Tperm": {"type": "DT_INT32"}, "T": {"type": "DT_FLOAT"}}}, {"name": "PartitionedCall/PartitionedCall/PartitionedCall/depthwise", "op": "DepthwiseConv2dNative", "input": ["PartitionedCall/PartitionedCall/PartitionedCall/transpose_4", "PartitionedCall/PartitionedCall/PartitionedCall/Reshape"], "attr": {"data_format": {"s": "TkhXQw=="}, "T": {"type": "DT_FLOAT"}, "padding": {"s": "VkFMSUQ="}, "strides": {"list": {"i": ["1", "1", "1", "1"]}}, "explicit_paddings": {"list": {}}, "dilations": {"list": {"i": ["1", "1", "1", "1"]}}}}, {"name": "PartitionedCall/PartitionedCall/PartitionedCall/Add_1", "op": "AddV2", "input": ["PartitionedCall/PartitionedCall/PartitionedCall/depthwise", "unknown_3"], "attr": {"T": {"type": "DT_FLOAT"}}}, {"name": "PartitionedCall/PartitionedCall/PartitionedCall/transpose_5", "op": "Transpose", "input": ["PartitionedCall/PartitionedCall/PartitionedCall/Add_1", "PartitionedCall/PartitionedCall/PartitionedCall/transpose_5/perm"], "attr": {"T": {"type": "DT_FLOAT"}, "Tperm": {"type": "DT_INT32"}}}, {"name": "PartitionedCall/PartitionedCall/PartitionedCall/onnx_tf_prefix_Relu_7", "op": "Relu", "input": ["PartitionedCall/PartitionedCall/PartitionedCall/transpose_5"], "attr": {"T": {"type": "DT_FLOAT"}}}, {"name": "PartitionedCall/PartitionedCall/PartitionedCall/transpose_7", "op": "Transpose", "input": ["PartitionedCall/PartitionedCall/PartitionedCall/onnx_tf_prefix_Relu_7", "PartitionedCall/PartitionedCall/PartitionedCall/transpose_7/perm"], "attr": {"T": {"type": "DT_FLOAT"}, "Tperm": {"type": "DT_INT32"}}}, {"name": "PartitionedCall/PartitionedCall/PartitionedCall/convolution_1", "op": "Conv2D", "input": ["PartitionedCall/PartitionedCall/PartitionedCall/transpose_7", "PartitionedCall/PartitionedCall/PartitionedCall/split_1"], "device": "/device:CPU:0", "attr": {"T": {"type": "DT_FLOAT"}, "use_cudnn_on_gpu": {"b": true}, "data_format": {"s": "TkhXQw=="}, "dilations": {"list": {"i": ["1", "1", "1", "1"]}}, "explicit_paddings": {"list": {}}, "padding": {"s": "VkFMSUQ="}, "strides": {"list": {"i": ["1", "1", "1", "1"]}}}}, {"name": "PartitionedCall/PartitionedCall/PartitionedCall/Add_2", "op": "AddV2", "input": ["PartitionedCall/PartitionedCall/PartitionedCall/convolution_1", "unknown_5"], "attr": {"T": {"type": "DT_FLOAT"}}}, {"name": "PartitionedCall/PartitionedCall/PartitionedCall/transpose_8", "op": "Transpose", "input": ["PartitionedCall/PartitionedCall/PartitionedCall/Add_2", "PartitionedCall/PartitionedCall/PartitionedCall/transpose_8/perm"], "attr": {"Tperm": {"type": "DT_INT32"}, "T": {"type": "DT_FLOAT"}}}, {"name": "PartitionedCall/PartitionedCall/PartitionedCall/onnx_tf_prefix_Add_9", "op": "AddV2", "input": ["PartitionedCall/PartitionedCall/PartitionedCall/onnx_tf_prefix_Mul_5", "PartitionedCall/PartitionedCall/PartitionedCall/transpose_8"], "attr": {"T": {"type": "DT_FLOAT"}}}, {"name": "PartitionedCall/PartitionedCall/PartitionedCall/transpose_10", "op": "Transpose", "input": ["PartitionedCall/PartitionedCall/PartitionedCall/onnx_tf_prefix_Add_9", "PartitionedCall/PartitionedCall/PartitionedCall/transpose_10/perm"], "attr": {"Tperm": {"type": "DT_INT32"}, "T": {"type": "DT_FLOAT"}}}, {"name": "PartitionedCall/PartitionedCall/PartitionedCall/convolution_2", "op": "Conv2D", "input": ["PartitionedCall/PartitionedCall/PartitionedCall/transpose_10", "PartitionedCall/PartitionedCall/PartitionedCall/split_2"], "device": "/device:CPU:0", "attr": {"strides": {"list": {"i": ["1", "1", "1", "1"]}}, "dilations": {"list": {"i": ["1", "1", "1", "1"]}}, "padding": {"s": "VkFMSUQ="}, "data_format": {"s": "TkhXQw=="}, "explicit_paddings": {"list": {}}, "T": {"type": "DT_FLOAT"}, "use_cudnn_on_gpu": {"b": true}}}, {"name": "PartitionedCall/PartitionedCall/PartitionedCall/Add_3", "op": "AddV2", "input": ["PartitionedCall/PartitionedCall/PartitionedCall/convolution_2", "unknown_7"], "attr": {"T": {"type": "DT_FLOAT"}}}, {"name": "PartitionedCall/PartitionedCall/PartitionedCall/transpose_11", "op": "Transpose", "input": ["PartitionedCall/PartitionedCall/PartitionedCall/Add_3", "PartitionedCall/PartitionedCall/PartitionedCall/transpose_11/perm"], "attr": {"Tperm": {"type": "DT_INT32"}, "T": {"type": "DT_FLOAT"}}}, {"name": "PartitionedCall/PartitionedCall/PartitionedCall/onnx_tf_prefix_Relu_11", "op": "Relu", "input": ["PartitionedCall/PartitionedCall/PartitionedCall/transpose_11"], "attr": {"T": {"type": "DT_FLOAT"}}}, {"name": "PartitionedCall/PartitionedCall/PartitionedCall/Pad_2", "op": "Pad", "input": ["PartitionedCall/PartitionedCall/PartitionedCall/onnx_tf_prefix_Relu_11", "PartitionedCall/PartitionedCall/PartitionedCall/Const_4"], "attr": {"Tpaddings": {"type": "DT_INT32"}, "T": {"type": "DT_FLOAT"}}}, {"name": "PartitionedCall/PartitionedCall/PartitionedCall/transpose_13", "op": "Transpose", "input": ["PartitionedCall/PartitionedCall/PartitionedCall/Pad_2", "PartitionedCall/PartitionedCall/PartitionedCall/transpose_13/perm"], "attr": {"Tperm": {"type": "DT_INT32"}, "T": {"type": "DT_FLOAT"}}}, {"name": "PartitionedCall/PartitionedCall/PartitionedCall/depthwise_1", "op": "DepthwiseConv2dNative", "input": ["PartitionedCall/PartitionedCall/PartitionedCall/transpose_13", "PartitionedCall/PartitionedCall/PartitionedCall/Reshape_1"], "attr": {"strides": {"list": {"i": ["1", "2", "2", "1"]}}, "padding": {"s": "VkFMSUQ="}, "dilations": {"list": {"i": ["1", "1", "1", "1"]}}, "explicit_paddings": {"list": {}}, "data_format": {"s": "TkhXQw=="}, "T": {"type": "DT_FLOAT"}}}, {"name": "PartitionedCall/PartitionedCall/PartitionedCall/Add_4", "op": "AddV2", "input": ["PartitionedCall/PartitionedCall/PartitionedCall/depthwise_1", "unknown_9"], "attr": {"T": {"type": "DT_FLOAT"}}}, {"name": "PartitionedCall/PartitionedCall/PartitionedCall/transpose_14", "op": "Transpose", "input": ["PartitionedCall/PartitionedCall/PartitionedCall/Add_4", "PartitionedCall/PartitionedCall/PartitionedCall/transpose_14/perm"], "attr": {"Tperm": {"type": "DT_INT32"}, "T": {"type": "DT_FLOAT"}}}, {"name": "PartitionedCall/PartitionedCall/PartitionedCall/onnx_tf_prefix_Relu_13", "op": "Relu", "input": ["PartitionedCall/PartitionedCall/PartitionedCall/transpose_14"], "attr": {"T": {"type": "DT_FLOAT"}}}, {"name": "PartitionedCall/PartitionedCall/PartitionedCall/transpose_16", "op": "Transpose", "input": ["PartitionedCall/PartitionedCall/PartitionedCall/onnx_tf_prefix_Relu_13", "PartitionedCall/PartitionedCall/PartitionedCall/transpose_16/perm"], "attr": {"Tperm": {"type": "DT_INT32"}, "T": {"type": "DT_FLOAT"}}}, {"name": "PartitionedCall/PartitionedCall/PartitionedCall/convolution_3", "op": "Conv2D", "input": ["PartitionedCall/PartitionedCall/PartitionedCall/transpose_16", "PartitionedCall/PartitionedCall/PartitionedCall/split_3"], "device": "/device:CPU:0", "attr": {"explicit_paddings": {"list": {}}, "padding": {"s": "VkFMSUQ="}, "strides": {"list": {"i": ["1", "1", "1", "1"]}}, "T": {"type": "DT_FLOAT"}, "data_format": {"s": "TkhXQw=="}, "use_cudnn_on_gpu": {"b": true}, "dilations": {"list": {"i": ["1", "1", "1", "1"]}}}}, {"name": "PartitionedCall/PartitionedCall/PartitionedCall/Add_5", "op": "AddV2", "input": ["PartitionedCall/PartitionedCall/PartitionedCall/convolution_3", "unknown_11"], "attr": {"T": {"type": "DT_FLOAT"}}}, {"name": "PartitionedCall/PartitionedCall/PartitionedCall/transpose_17", "op": "Transpose", "input": ["PartitionedCall/PartitionedCall/PartitionedCall/Add_5", "PartitionedCall/PartitionedCall/PartitionedCall/transpose_17/perm"], "attr": {"Tperm": {"type": "DT_INT32"}, "T": {"type": "DT_FLOAT"}}}, {"name": "PartitionedCall/PartitionedCall/PartitionedCall/convolution_4", "op": "Conv2D", "input": ["PartitionedCall/PartitionedCall/PartitionedCall/Add_5", "PartitionedCall/PartitionedCall/PartitionedCall/split_4"], "device": "/device:CPU:0", "attr": {"use_cudnn_on_gpu": {"b": true}, "strides": {"list": {"i": ["1", "1", "1", "1"]}}, "padding": {"s": "VkFMSUQ="}, "explicit_paddings": {"list": {}}, "T": {"type": "DT_FLOAT"}, "dilations": {"list": {"i": ["1", "1", "1", "1"]}}, "data_format": {"s": "TkhXQw=="}}}, {"name": "PartitionedCall/PartitionedCall/PartitionedCall/Add_6", "op": "AddV2", "input": ["PartitionedCall/PartitionedCall/PartitionedCall/convolution_4", "unknown_13"], "attr": {"T": {"type": "DT_FLOAT"}}}, {"name": "PartitionedCall/PartitionedCall/PartitionedCall/transpose_20", "op": "Transpose", "input": ["PartitionedCall/PartitionedCall/PartitionedCall/Add_6", "PartitionedCall/PartitionedCall/PartitionedCall/transpose_20/perm"], "attr": {"Tperm": {"type": "DT_INT32"}, "T": {"type": "DT_FLOAT"}}}, {"name": "PartitionedCall/PartitionedCall/PartitionedCall/onnx_tf_prefix_Relu_16", "op": "Relu", "input": ["PartitionedCall/PartitionedCall/PartitionedCall/transpose_20"], "attr": {"T": {"type": "DT_FLOAT"}}}, {"name": "PartitionedCall/PartitionedCall/PartitionedCall/Pad_3", "op": "Pad", "input": ["PartitionedCall/PartitionedCall/PartitionedCall/onnx_tf_prefix_Relu_16", "PartitionedCall/PartitionedCall/PartitionedCall/Const_5"], "attr": {"T": {"type": "DT_FLOAT"}, "Tpaddings": {"type": "DT_INT32"}}}, {"name": "PartitionedCall/PartitionedCall/PartitionedCall/transpose_22", "op": "Transpose", "input": ["PartitionedCall/PartitionedCall/PartitionedCall/Pad_3", "PartitionedCall/PartitionedCall/PartitionedCall/transpose_22/perm"], "attr": {"T": {"type": "DT_FLOAT"}, "Tperm": {"type": "DT_INT32"}}}, {"name": "PartitionedCall/PartitionedCall/PartitionedCall/depthwise_2", "op": "DepthwiseConv2dNative", "input": ["PartitionedCall/PartitionedCall/PartitionedCall/transpose_22", "PartitionedCall/PartitionedCall/PartitionedCall/Reshape_2"], "attr": {"dilations": {"list": {"i": ["1", "1", "1", "1"]}}, "explicit_paddings": {"list": {}}, "strides": {"list": {"i": ["1", "1", "1", "1"]}}, "padding": {"s": "VkFMSUQ="}, "T": {"type": "DT_FLOAT"}, "data_format": {"s": "TkhXQw=="}}}, {"name": "PartitionedCall/PartitionedCall/PartitionedCall/Add_7", "op": "AddV2", "input": ["PartitionedCall/PartitionedCall/PartitionedCall/depthwise_2", "unknown_15"], "attr": {"T": {"type": "DT_FLOAT"}}}, {"name": "PartitionedCall/PartitionedCall/PartitionedCall/transpose_23", "op": "Transpose", "input": ["PartitionedCall/PartitionedCall/PartitionedCall/Add_7", "PartitionedCall/PartitionedCall/PartitionedCall/transpose_23/perm"], "attr": {"Tperm": {"type": "DT_INT32"}, "T": {"type": "DT_FLOAT"}}}, {"name": "PartitionedCall/PartitionedCall/PartitionedCall/onnx_tf_prefix_Relu_18", "op": "Relu", "input": ["PartitionedCall/PartitionedCall/PartitionedCall/transpose_23"], "attr": {"T": {"type": "DT_FLOAT"}}}, {"name": "PartitionedCall/PartitionedCall/PartitionedCall/transpose_25", "op": "Transpose", "input": ["PartitionedCall/PartitionedCall/PartitionedCall/onnx_tf_prefix_Relu_18", "PartitionedCall/PartitionedCall/PartitionedCall/transpose_25/perm"], "attr": {"T": {"type": "DT_FLOAT"}, "Tperm": {"type": "DT_INT32"}}}, {"name": "PartitionedCall/PartitionedCall/PartitionedCall/convolution_5", "op": "Conv2D", "input": ["PartitionedCall/PartitionedCall/PartitionedCall/transpose_25", "PartitionedCall/PartitionedCall/PartitionedCall/split_5"], "device": "/device:CPU:0", "attr": {"explicit_paddings": {"list": {}}, "data_format": {"s": "TkhXQw=="}, "strides": {"list": {"i": ["1", "1", "1", "1"]}}, "use_cudnn_on_gpu": {"b": true}, "T": {"type": "DT_FLOAT"}, "padding": {"s": "VkFMSUQ="}, "dilations": {"list": {"i": ["1", "1", "1", "1"]}}}}, {"name": "PartitionedCall/PartitionedCall/PartitionedCall/Add_8", "op": "AddV2", "input": ["PartitionedCall/PartitionedCall/PartitionedCall/convolution_5", "unknown_17"], "attr": {"T": {"type": "DT_FLOAT"}}}, {"name": "PartitionedCall/PartitionedCall/PartitionedCall/transpose_26", "op": "Transpose", "input": ["PartitionedCall/PartitionedCall/PartitionedCall/Add_8", "PartitionedCall/PartitionedCall/PartitionedCall/transpose_26/perm"], "attr": {"T": {"type": "DT_FLOAT"}, "Tperm": {"type": "DT_INT32"}}}, {"name": "PartitionedCall/PartitionedCall/PartitionedCall/onnx_tf_prefix_Add_20", "op": "AddV2", "input": ["PartitionedCall/PartitionedCall/PartitionedCall/transpose_17", "PartitionedCall/PartitionedCall/PartitionedCall/transpose_26"], "attr": {"T": {"type": "DT_FLOAT"}}}, {"name": "PartitionedCall/PartitionedCall/PartitionedCall/transpose_28", "op": "Transpose", "input": ["PartitionedCall/PartitionedCall/PartitionedCall/onnx_tf_prefix_Add_20", "PartitionedCall/PartitionedCall/PartitionedCall/transpose_28/perm"], "attr": {"Tperm": {"type": "DT_INT32"}, "T": {"type": "DT_FLOAT"}}}, {"name": "PartitionedCall/PartitionedCall/PartitionedCall/convolution_6", "op": "Conv2D", "input": ["PartitionedCall/PartitionedCall/PartitionedCall/transpose_28", "PartitionedCall/PartitionedCall/PartitionedCall/split_6"], "device": "/device:CPU:0", "attr": {"padding": {"s": "VkFMSUQ="}, "use_cudnn_on_gpu": {"b": true}, "T": {"type": "DT_FLOAT"}, "data_format": {"s": "TkhXQw=="}, "strides": {"list": {"i": ["1", "1", "1", "1"]}}, "explicit_paddings": {"list": {}}, "dilations": {"list": {"i": ["1", "1", "1", "1"]}}}}, {"name": "PartitionedCall/PartitionedCall/PartitionedCall/Add_9", "op": "AddV2", "input": ["PartitionedCall/PartitionedCall/PartitionedCall/convolution_6", "unknown_19"], "attr": {"T": {"type": "DT_FLOAT"}}}, {"name": "PartitionedCall/PartitionedCall/PartitionedCall/transpose_29", "op": "Transpose", "input": ["PartitionedCall/PartitionedCall/PartitionedCall/Add_9", "PartitionedCall/PartitionedCall/PartitionedCall/transpose_29/perm"], "attr": {"T": {"type": "DT_FLOAT"}, "Tperm": {"type": "DT_INT32"}}}, {"name": "PartitionedCall/PartitionedCall/PartitionedCall/onnx_tf_prefix_Relu_22", "op": "Relu", "input": ["PartitionedCall/PartitionedCall/PartitionedCall/transpose_29"], "attr": {"T": {"type": "DT_FLOAT"}}}, {"name": "PartitionedCall/PartitionedCall/PartitionedCall/Pad_4", "op": "Pad", "input": ["PartitionedCall/PartitionedCall/PartitionedCall/onnx_tf_prefix_Relu_22", "PartitionedCall/PartitionedCall/PartitionedCall/Const_6"], "attr": {"T": {"type": "DT_FLOAT"}, "Tpaddings": {"type": "DT_INT32"}}}, {"name": "PartitionedCall/PartitionedCall/PartitionedCall/transpose_31", "op": "Transpose", "input": ["PartitionedCall/PartitionedCall/PartitionedCall/Pad_4", "PartitionedCall/PartitionedCall/PartitionedCall/transpose_31/perm"], "attr": {"Tperm": {"type": "DT_INT32"}, "T": {"type": "DT_FLOAT"}}}, {"name": "PartitionedCall/PartitionedCall/PartitionedCall/depthwise_3", "op": "DepthwiseConv2dNative", "input": ["PartitionedCall/PartitionedCall/PartitionedCall/transpose_31", "PartitionedCall/PartitionedCall/PartitionedCall/Reshape_3"], "attr": {"T": {"type": "DT_FLOAT"}, "padding": {"s": "VkFMSUQ="}, "strides": {"list": {"i": ["1", "2", "2", "1"]}}, "dilations": {"list": {"i": ["1", "1", "1", "1"]}}, "data_format": {"s": "TkhXQw=="}, "explicit_paddings": {"list": {}}}}, {"name": "PartitionedCall/PartitionedCall/PartitionedCall/Add_10", "op": "AddV2", "input": ["PartitionedCall/PartitionedCall/PartitionedCall/depthwise_3", "unknown_21"], "attr": {"T": {"type": "DT_FLOAT"}}}, {"name": "PartitionedCall/PartitionedCall/PartitionedCall/transpose_32", "op": "Transpose", "input": ["PartitionedCall/PartitionedCall/PartitionedCall/Add_10", "PartitionedCall/PartitionedCall/PartitionedCall/transpose_32/perm"], "attr": {"Tperm": {"type": "DT_INT32"}, "T": {"type": "DT_FLOAT"}}}, {"name": "PartitionedCall/PartitionedCall/PartitionedCall/Mean", "op": "Mean", "input": ["PartitionedCall/PartitionedCall/PartitionedCall/transpose_32", "ConstantFolding/PartitionedCall/PartitionedCall/PartitionedCall/split_7-folded-1"], "attr": {"T": {"type": "DT_FLOAT"}, "keep_dims": {"b": true}, "Tidx": {"type": "DT_INT32"}}}, {"name": "PartitionedCall/PartitionedCall/PartitionedCall/flatten/Reshape", "op": "Reshape", "input": ["PartitionedCall/PartitionedCall/PartitionedCall/Mean", "PartitionedCall/PartitionedCall/PartitionedCall/flatten/Const"], "attr": {"T": {"type": "DT_FLOAT"}, "Tshape": {"type": "DT_INT32"}}}, {"name": "PartitionedCall/PartitionedCall/PartitionedCall/MatMul", "op": "MatMul", "input": ["PartitionedCall/PartitionedCall/PartitionedCall/flatten/Reshape", "PartitionedCall/PartitionedCall/PartitionedCall/transpose_33"], "device": "/device:CPU:0", "attr": {"T": {"type": "DT_FLOAT"}, "transpose_a": {"b": false}, "transpose_b": {"b": false}}}, {"name": "PartitionedCall/PartitionedCall/PartitionedCall/add_12", "op": "AddV2", "input": ["PartitionedCall/PartitionedCall/PartitionedCall/MatMul", "PartitionedCall/PartitionedCall/PartitionedCall/mul_1"], "attr": {"T": {"type": "DT_FLOAT"}}}, {"name": "PartitionedCall/PartitionedCall/PartitionedCall/onnx_tf_prefix_Relu_27", "op": "Relu", "input": ["PartitionedCall/PartitionedCall/PartitionedCall/add_12"], "attr": {"T": {"type": "DT_FLOAT"}}}, {"name": "PartitionedCall/PartitionedCall/PartitionedCall/MatMul_1", "op": "MatMul", "input": ["PartitionedCall/PartitionedCall/PartitionedCall/onnx_tf_prefix_Relu_27", "PartitionedCall/PartitionedCall/PartitionedCall/transpose_34"], "device": "/device:CPU:0", "attr": {"transpose_b": {"b": false}, "transpose_a": {"b": false}, "T": {"type": "DT_FLOAT"}}}, {"name": "PartitionedCall/PartitionedCall/PartitionedCall/onnx_tf_prefix_Add_30", "op": "AddV2", "input": ["PartitionedCall/PartitionedCall/PartitionedCall/MatMul_1", "PartitionedCall/PartitionedCall/PartitionedCall/add_13"], "attr": {"T": {"type": "DT_FLOAT"}}}, {"name": "PartitionedCall/PartitionedCall/PartitionedCall/clip_by_value_1/Minimum", "op": "Minimum", "input": ["PartitionedCall/PartitionedCall/PartitionedCall/onnx_tf_prefix_Add_30", "PartitionedCall/PartitionedCall/PartitionedCall/clip_by_value_1/Minimum/y"], "attr": {"T": {"type": "DT_FLOAT"}}}, {"name": "PartitionedCall/PartitionedCall/PartitionedCall/clip_by_value_1", "op": "Maximum", "input": ["PartitionedCall/PartitionedCall/PartitionedCall/clip_by_value_1/Minimum", "PartitionedCall/PartitionedCall/PartitionedCall/clip_by_value_1/y"], "attr": {"T": {"type": "DT_FLOAT"}}}, {"name": "PartitionedCall/PartitionedCall/PartitionedCall/onnx_tf_prefix_Div_32", "op": "Mul", "input": ["PartitionedCall/PartitionedCall/PartitionedCall/clip_by_value_1", "ConstantFolding/PartitionedCall/PartitionedCall/PartitionedCall/onnx_tf_prefix_Div_32_recip"], "attr": {"T": {"type": "DT_FLOAT"}}}, {"name": "PartitionedCall/PartitionedCall/PartitionedCall/onnx_tf_prefix_Reshape_33", "op": "Reshape", "input": ["PartitionedCall/PartitionedCall/PartitionedCall/onnx_tf_prefix_Div_32", "PartitionedCall/PartitionedCall/PartitionedCall/add_14"], "attr": {"Tshape": {"type": "DT_INT64"}, "T": {"type": "DT_FLOAT"}}}, {"name": "PartitionedCall/PartitionedCall/PartitionedCall/onnx_tf_prefix_Mul_34", "op": "Mul", "input": ["PartitionedCall/PartitionedCall/PartitionedCall/transpose_32", "PartitionedCall/PartitionedCall/PartitionedCall/onnx_tf_prefix_Reshape_33"], "attr": {"T": {"type": "DT_FLOAT"}}}, {"name": "PartitionedCall/PartitionedCall/PartitionedCall/onnx_tf_prefix_Relu_35", "op": "Relu", "input": ["PartitionedCall/PartitionedCall/PartitionedCall/onnx_tf_prefix_Mul_34"], "attr": {"T": {"type": "DT_FLOAT"}}}, {"name": "PartitionedCall/PartitionedCall/PartitionedCall/transpose_36", "op": "Transpose", "input": ["PartitionedCall/PartitionedCall/PartitionedCall/onnx_tf_prefix_Relu_35", "PartitionedCall/PartitionedCall/PartitionedCall/transpose_36/perm"], "attr": {"Tperm": {"type": "DT_INT32"}, "T": {"type": "DT_FLOAT"}}}, {"name": "PartitionedCall/PartitionedCall/PartitionedCall/convolution_7", "op": "Conv2D", "input": ["PartitionedCall/PartitionedCall/PartitionedCall/transpose_36", "PartitionedCall/PartitionedCall/PartitionedCall/split_8"], "device": "/device:CPU:0", "attr": {"explicit_paddings": {"list": {}}, "data_format": {"s": "TkhXQw=="}, "use_cudnn_on_gpu": {"b": true}, "dilations": {"list": {"i": ["1", "1", "1", "1"]}}, "T": {"type": "DT_FLOAT"}, "padding": {"s": "VkFMSUQ="}, "strides": {"list": {"i": ["1", "1", "1", "1"]}}}}, {"name": "PartitionedCall/PartitionedCall/PartitionedCall/Add_15", "op": "AddV2", "input": ["PartitionedCall/PartitionedCall/PartitionedCall/convolution_7", "unknown_30"], "attr": {"T": {"type": "DT_FLOAT"}}}, {"name": "PartitionedCall/PartitionedCall/PartitionedCall/transpose_37", "op": "Transpose", "input": ["PartitionedCall/PartitionedCall/PartitionedCall/Add_15", "PartitionedCall/PartitionedCall/PartitionedCall/transpose_37/perm"], "attr": {"T": {"type": "DT_FLOAT"}, "Tperm": {"type": "DT_INT32"}}}, {"name": "PartitionedCall/PartitionedCall/PartitionedCall/convolution_8", "op": "Conv2D", "input": ["PartitionedCall/PartitionedCall/PartitionedCall/Add_15", "PartitionedCall/PartitionedCall/PartitionedCall/split_9"], "device": "/device:CPU:0", "attr": {"explicit_paddings": {"list": {}}, "use_cudnn_on_gpu": {"b": true}, "padding": {"s": "VkFMSUQ="}, "T": {"type": "DT_FLOAT"}, "strides": {"list": {"i": ["1", "1", "1", "1"]}}, "data_format": {"s": "TkhXQw=="}, "dilations": {"list": {"i": ["1", "1", "1", "1"]}}}}, {"name": "PartitionedCall/PartitionedCall/PartitionedCall/Add_16", "op": "AddV2", "input": ["PartitionedCall/PartitionedCall/PartitionedCall/convolution_8", "unknown_32"], "attr": {"T": {"type": "DT_FLOAT"}}}, {"name": "PartitionedCall/PartitionedCall/PartitionedCall/transpose_40", "op": "Transpose", "input": ["PartitionedCall/PartitionedCall/PartitionedCall/Add_16", "PartitionedCall/PartitionedCall/PartitionedCall/transpose_40/perm"], "attr": {"Tperm": {"type": "DT_INT32"}, "T": {"type": "DT_FLOAT"}}}, {"name": "PartitionedCall/PartitionedCall/PartitionedCall/onnx_tf_prefix_Relu_38", "op": "Relu", "input": ["PartitionedCall/PartitionedCall/PartitionedCall/transpose_40"], "attr": {"T": {"type": "DT_FLOAT"}}}, {"name": "PartitionedCall/PartitionedCall/PartitionedCall/Pad_5", "op": "Pad", "input": ["PartitionedCall/PartitionedCall/PartitionedCall/onnx_tf_prefix_Relu_38", "PartitionedCall/PartitionedCall/PartitionedCall/Const_11"], "attr": {"T": {"type": "DT_FLOAT"}, "Tpaddings": {"type": "DT_INT32"}}}, {"name": "PartitionedCall/PartitionedCall/PartitionedCall/transpose_42", "op": "Transpose", "input": ["PartitionedCall/PartitionedCall/PartitionedCall/Pad_5", "PartitionedCall/PartitionedCall/PartitionedCall/transpose_42/perm"], "attr": {"T": {"type": "DT_FLOAT"}, "Tperm": {"type": "DT_INT32"}}}, {"name": "PartitionedCall/PartitionedCall/PartitionedCall/depthwise_4", "op": "DepthwiseConv2dNative", "input": ["PartitionedCall/PartitionedCall/PartitionedCall/transpose_42", "PartitionedCall/PartitionedCall/PartitionedCall/Reshape_4"], "attr": {"strides": {"list": {"i": ["1", "1", "1", "1"]}}, "dilations": {"list": {"i": ["1", "1", "1", "1"]}}, "data_format": {"s": "TkhXQw=="}, "padding": {"s": "VkFMSUQ="}, "explicit_paddings": {"list": {}}, "T": {"type": "DT_FLOAT"}}}, {"name": "PartitionedCall/PartitionedCall/PartitionedCall/Add_17", "op": "AddV2", "input": ["PartitionedCall/PartitionedCall/PartitionedCall/depthwise_4", "unknown_34"], "attr": {"T": {"type": "DT_FLOAT"}}}, {"name": "PartitionedCall/PartitionedCall/PartitionedCall/transpose_43", "op": "Transpose", "input": ["PartitionedCall/PartitionedCall/PartitionedCall/Add_17", "PartitionedCall/PartitionedCall/PartitionedCall/transpose_43/perm"], "attr": {"T": {"type": "DT_FLOAT"}, "Tperm": {"type": "DT_INT32"}}}, {"name": "PartitionedCall/PartitionedCall/PartitionedCall/Mean_1", "op": "Mean", "input": ["PartitionedCall/PartitionedCall/PartitionedCall/transpose_43", "ConstantFolding/PartitionedCall/PartitionedCall/PartitionedCall/split_10-folded-1"], "attr": {"T": {"type": "DT_FLOAT"}, "keep_dims": {"b": true}, "Tidx": {"type": "DT_INT32"}}}, {"name": "PartitionedCall/PartitionedCall/PartitionedCall/flatten_2/Reshape", "op": "Reshape", "input": ["PartitionedCall/PartitionedCall/PartitionedCall/Mean_1", "PartitionedCall/PartitionedCall/PartitionedCall/flatten_2/Const"], "attr": {"Tshape": {"type": "DT_INT32"}, "T": {"type": "DT_FLOAT"}}}, {"name": "PartitionedCall/PartitionedCall/PartitionedCall/MatMul_2", "op": "MatMul", "input": ["PartitionedCall/PartitionedCall/PartitionedCall/flatten_2/Reshape", "PartitionedCall/PartitionedCall/PartitionedCall/transpose_44"], "device": "/device:CPU:0", "attr": {"transpose_a": {"b": false}, "T": {"type": "DT_FLOAT"}, "transpose_b": {"b": false}}}, {"name": "PartitionedCall/PartitionedCall/PartitionedCall/add_19", "op": "AddV2", "input": ["PartitionedCall/PartitionedCall/PartitionedCall/MatMul_2", "PartitionedCall/PartitionedCall/PartitionedCall/mul_5"], "attr": {"T": {"type": "DT_FLOAT"}}}, {"name": "PartitionedCall/PartitionedCall/PartitionedCall/onnx_tf_prefix_Relu_43", "op": "Relu", "input": ["PartitionedCall/PartitionedCall/PartitionedCall/add_19"], "attr": {"T": {"type": "DT_FLOAT"}}}, {"name": "PartitionedCall/PartitionedCall/PartitionedCall/MatMul_3", "op": "MatMul", "input": ["PartitionedCall/PartitionedCall/PartitionedCall/onnx_tf_prefix_Relu_43", "PartitionedCall/PartitionedCall/PartitionedCall/transpose_45"], "device": "/device:CPU:0", "attr": {"transpose_a": {"b": false}, "transpose_b": {"b": false}, "T": {"type": "DT_FLOAT"}}}, {"name": "PartitionedCall/PartitionedCall/PartitionedCall/onnx_tf_prefix_Add_46", "op": "AddV2", "input": ["PartitionedCall/PartitionedCall/PartitionedCall/MatMul_3", "PartitionedCall/PartitionedCall/PartitionedCall/add_20"], "attr": {"T": {"type": "DT_FLOAT"}}}, {"name": "PartitionedCall/PartitionedCall/PartitionedCall/clip_by_value_2/Minimum", "op": "Minimum", "input": ["PartitionedCall/PartitionedCall/PartitionedCall/onnx_tf_prefix_Add_46", "PartitionedCall/PartitionedCall/PartitionedCall/clip_by_value_2/Minimum/y"], "attr": {"T": {"type": "DT_FLOAT"}}}, {"name": "PartitionedCall/PartitionedCall/PartitionedCall/clip_by_value_2", "op": "Maximum", "input": ["PartitionedCall/PartitionedCall/PartitionedCall/clip_by_value_2/Minimum", "PartitionedCall/PartitionedCall/PartitionedCall/clip_by_value_2/y"], "attr": {"T": {"type": "DT_FLOAT"}}}, {"name": "PartitionedCall/PartitionedCall/PartitionedCall/onnx_tf_prefix_Div_48", "op": "Mul", "input": ["PartitionedCall/PartitionedCall/PartitionedCall/clip_by_value_2", "ConstantFolding/PartitionedCall/PartitionedCall/PartitionedCall/onnx_tf_prefix_Div_48_recip"], "attr": {"T": {"type": "DT_FLOAT"}}}, {"name": "PartitionedCall/PartitionedCall/PartitionedCall/onnx_tf_prefix_Reshape_49", "op": "Reshape", "input": ["PartitionedCall/PartitionedCall/PartitionedCall/onnx_tf_prefix_Div_48", "PartitionedCall/PartitionedCall/PartitionedCall/add_21"], "attr": {"Tshape": {"type": "DT_INT64"}, "T": {"type": "DT_FLOAT"}}}, {"name": "PartitionedCall/PartitionedCall/PartitionedCall/onnx_tf_prefix_Mul_50", "op": "Mul", "input": ["PartitionedCall/PartitionedCall/PartitionedCall/transpose_43", "PartitionedCall/PartitionedCall/PartitionedCall/onnx_tf_prefix_Reshape_49"], "attr": {"T": {"type": "DT_FLOAT"}}}, {"name": "PartitionedCall/PartitionedCall/PartitionedCall/onnx_tf_prefix_Relu_51", "op": "Relu", "input": ["PartitionedCall/PartitionedCall/PartitionedCall/onnx_tf_prefix_Mul_50"], "attr": {"T": {"type": "DT_FLOAT"}}}, {"name": "PartitionedCall/PartitionedCall/PartitionedCall/transpose_47", "op": "Transpose", "input": ["PartitionedCall/PartitionedCall/PartitionedCall/onnx_tf_prefix_Relu_51", "PartitionedCall/PartitionedCall/PartitionedCall/transpose_47/perm"], "attr": {"T": {"type": "DT_FLOAT"}, "Tperm": {"type": "DT_INT32"}}}, {"name": "PartitionedCall/PartitionedCall/PartitionedCall/convolution_9", "op": "Conv2D", "input": ["PartitionedCall/PartitionedCall/PartitionedCall/transpose_47", "PartitionedCall/PartitionedCall/PartitionedCall/split_11"], "device": "/device:CPU:0", "attr": {"T": {"type": "DT_FLOAT"}, "use_cudnn_on_gpu": {"b": true}, "explicit_paddings": {"list": {}}, "dilations": {"list": {"i": ["1", "1", "1", "1"]}}, "strides": {"list": {"i": ["1", "1", "1", "1"]}}, "data_format": {"s": "TkhXQw=="}, "padding": {"s": "VkFMSUQ="}}}, {"name": "PartitionedCall/PartitionedCall/PartitionedCall/Add_22", "op": "AddV2", "input": ["PartitionedCall/PartitionedCall/PartitionedCall/convolution_9", "unknown_43"], "attr": {"T": {"type": "DT_FLOAT"}}}, {"name": "PartitionedCall/PartitionedCall/PartitionedCall/transpose_48", "op": "Transpose", "input": ["PartitionedCall/PartitionedCall/PartitionedCall/Add_22", "PartitionedCall/PartitionedCall/PartitionedCall/transpose_48/perm"], "attr": {"Tperm": {"type": "DT_INT32"}, "T": {"type": "DT_FLOAT"}}}, {"name": "PartitionedCall/PartitionedCall/PartitionedCall/onnx_tf_prefix_Add_53", "op": "AddV2", "input": ["PartitionedCall/PartitionedCall/PartitionedCall/transpose_37", "PartitionedCall/PartitionedCall/PartitionedCall/transpose_48"], "attr": {"T": {"type": "DT_FLOAT"}}}, {"name": "PartitionedCall/PartitionedCall/PartitionedCall/transpose_50", "op": "Transpose", "input": ["PartitionedCall/PartitionedCall/PartitionedCall/onnx_tf_prefix_Add_53", "PartitionedCall/PartitionedCall/PartitionedCall/transpose_50/perm"], "attr": {"T": {"type": "DT_FLOAT"}, "Tperm": {"type": "DT_INT32"}}}, {"name": "PartitionedCall/PartitionedCall/PartitionedCall/convolution_10", "op": "Conv2D", "input": ["PartitionedCall/PartitionedCall/PartitionedCall/transpose_50", "PartitionedCall/PartitionedCall/PartitionedCall/split_12"], "device": "/device:CPU:0", "attr": {"use_cudnn_on_gpu": {"b": true}, "dilations": {"list": {"i": ["1", "1", "1", "1"]}}, "explicit_paddings": {"list": {}}, "T": {"type": "DT_FLOAT"}, "padding": {"s": "VkFMSUQ="}, "data_format": {"s": "TkhXQw=="}, "strides": {"list": {"i": ["1", "1", "1", "1"]}}}}, {"name": "PartitionedCall/PartitionedCall/PartitionedCall/Add_23", "op": "AddV2", "input": ["PartitionedCall/PartitionedCall/PartitionedCall/convolution_10", "unknown_45"], "attr": {"T": {"type": "DT_FLOAT"}}}, {"name": "PartitionedCall/PartitionedCall/PartitionedCall/transpose_51", "op": "Transpose", "input": ["PartitionedCall/PartitionedCall/PartitionedCall/Add_23", "PartitionedCall/PartitionedCall/PartitionedCall/transpose_51/perm"], "attr": {"T": {"type": "DT_FLOAT"}, "Tperm": {"type": "DT_INT32"}}}, {"name": "PartitionedCall/PartitionedCall/PartitionedCall/onnx_tf_prefix_Relu_55", "op": "Relu", "input": ["PartitionedCall/PartitionedCall/PartitionedCall/transpose_51"], "attr": {"T": {"type": "DT_FLOAT"}}}, {"name": "PartitionedCall/PartitionedCall/PartitionedCall/Pad_6", "op": "Pad", "input": ["PartitionedCall/PartitionedCall/PartitionedCall/onnx_tf_prefix_Relu_55", "PartitionedCall/PartitionedCall/PartitionedCall/Const_16"], "attr": {"Tpaddings": {"type": "DT_INT32"}, "T": {"type": "DT_FLOAT"}}}, {"name": "PartitionedCall/PartitionedCall/PartitionedCall/transpose_53", "op": "Transpose", "input": ["PartitionedCall/PartitionedCall/PartitionedCall/Pad_6", "PartitionedCall/PartitionedCall/PartitionedCall/transpose_53/perm"], "attr": {"Tperm": {"type": "DT_INT32"}, "T": {"type": "DT_FLOAT"}}}, {"name": "PartitionedCall/PartitionedCall/PartitionedCall/depthwise_5", "op": "DepthwiseConv2dNative", "input": ["PartitionedCall/PartitionedCall/PartitionedCall/transpose_53", "PartitionedCall/PartitionedCall/PartitionedCall/Reshape_5"], "attr": {"data_format": {"s": "TkhXQw=="}, "dilations": {"list": {"i": ["1", "1", "1", "1"]}}, "T": {"type": "DT_FLOAT"}, "strides": {"list": {"i": ["1", "1", "1", "1"]}}, "padding": {"s": "VkFMSUQ="}, "explicit_paddings": {"list": {}}}}, {"name": "PartitionedCall/PartitionedCall/PartitionedCall/Add_24", "op": "AddV2", "input": ["PartitionedCall/PartitionedCall/PartitionedCall/depthwise_5", "unknown_47"], "attr": {"T": {"type": "DT_FLOAT"}}}, {"name": "PartitionedCall/PartitionedCall/PartitionedCall/transpose_54", "op": "Transpose", "input": ["PartitionedCall/PartitionedCall/PartitionedCall/Add_24", "PartitionedCall/PartitionedCall/PartitionedCall/transpose_54/perm"], "attr": {"T": {"type": "DT_FLOAT"}, "Tperm": {"type": "DT_INT32"}}}, {"name": "PartitionedCall/PartitionedCall/PartitionedCall/Mean_2", "op": "Mean", "input": ["PartitionedCall/PartitionedCall/PartitionedCall/transpose_54", "ConstantFolding/PartitionedCall/PartitionedCall/PartitionedCall/split_13-folded-1"], "attr": {"T": {"type": "DT_FLOAT"}, "Tidx": {"type": "DT_INT32"}, "keep_dims": {"b": true}}}, {"name": "PartitionedCall/PartitionedCall/PartitionedCall/flatten_4/Reshape", "op": "Reshape", "input": ["PartitionedCall/PartitionedCall/PartitionedCall/Mean_2", "PartitionedCall/PartitionedCall/PartitionedCall/flatten_4/Const"], "attr": {"T": {"type": "DT_FLOAT"}, "Tshape": {"type": "DT_INT32"}}}, {"name": "PartitionedCall/PartitionedCall/PartitionedCall/MatMul_4", "op": "MatMul", "input": ["PartitionedCall/PartitionedCall/PartitionedCall/flatten_4/Reshape", "PartitionedCall/PartitionedCall/PartitionedCall/transpose_55"], "device": "/device:CPU:0", "attr": {"transpose_b": {"b": false}, "T": {"type": "DT_FLOAT"}, "transpose_a": {"b": false}}}, {"name": "PartitionedCall/PartitionedCall/PartitionedCall/add_26", "op": "AddV2", "input": ["PartitionedCall/PartitionedCall/PartitionedCall/MatMul_4", "PartitionedCall/PartitionedCall/PartitionedCall/mul_9"], "attr": {"T": {"type": "DT_FLOAT"}}}, {"name": "PartitionedCall/PartitionedCall/PartitionedCall/onnx_tf_prefix_Relu_60", "op": "Relu", "input": ["PartitionedCall/PartitionedCall/PartitionedCall/add_26"], "attr": {"T": {"type": "DT_FLOAT"}}}, {"name": "PartitionedCall/PartitionedCall/PartitionedCall/MatMul_5", "op": "MatMul", "input": ["PartitionedCall/PartitionedCall/PartitionedCall/onnx_tf_prefix_Relu_60", "PartitionedCall/PartitionedCall/PartitionedCall/transpose_56"], "device": "/device:CPU:0", "attr": {"transpose_b": {"b": false}, "transpose_a": {"b": false}, "T": {"type": "DT_FLOAT"}}}, {"name": "PartitionedCall/PartitionedCall/PartitionedCall/onnx_tf_prefix_Add_63", "op": "AddV2", "input": ["PartitionedCall/PartitionedCall/PartitionedCall/MatMul_5", "PartitionedCall/PartitionedCall/PartitionedCall/add_27"], "attr": {"T": {"type": "DT_FLOAT"}}}, {"name": "PartitionedCall/PartitionedCall/PartitionedCall/clip_by_value_3/Minimum", "op": "Minimum", "input": ["PartitionedCall/PartitionedCall/PartitionedCall/onnx_tf_prefix_Add_63", "PartitionedCall/PartitionedCall/PartitionedCall/clip_by_value_3/Minimum/y"], "attr": {"T": {"type": "DT_FLOAT"}}}, {"name": "PartitionedCall/PartitionedCall/PartitionedCall/clip_by_value_3", "op": "Maximum", "input": ["PartitionedCall/PartitionedCall/PartitionedCall/clip_by_value_3/Minimum", "PartitionedCall/PartitionedCall/PartitionedCall/clip_by_value_3/y"], "attr": {"T": {"type": "DT_FLOAT"}}}, {"name": "PartitionedCall/PartitionedCall/PartitionedCall/onnx_tf_prefix_Div_65", "op": "Mul", "input": ["PartitionedCall/PartitionedCall/PartitionedCall/clip_by_value_3", "ConstantFolding/PartitionedCall/PartitionedCall/PartitionedCall/onnx_tf_prefix_Div_65_recip"], "attr": {"T": {"type": "DT_FLOAT"}}}, {"name": "PartitionedCall/PartitionedCall/PartitionedCall/onnx_tf_prefix_Reshape_66", "op": "Reshape", "input": ["PartitionedCall/PartitionedCall/PartitionedCall/onnx_tf_prefix_Div_65", "PartitionedCall/PartitionedCall/PartitionedCall/add_28"], "attr": {"Tshape": {"type": "DT_INT64"}, "T": {"type": "DT_FLOAT"}}}, {"name": "PartitionedCall/PartitionedCall/PartitionedCall/onnx_tf_prefix_Mul_67", "op": "Mul", "input": ["PartitionedCall/PartitionedCall/PartitionedCall/transpose_54", "PartitionedCall/PartitionedCall/PartitionedCall/onnx_tf_prefix_Reshape_66"], "attr": {"T": {"type": "DT_FLOAT"}}}, {"name": "PartitionedCall/PartitionedCall/PartitionedCall/onnx_tf_prefix_Relu_68", "op": "Relu", "input": ["PartitionedCall/PartitionedCall/PartitionedCall/onnx_tf_prefix_Mul_67"], "attr": {"T": {"type": "DT_FLOAT"}}}, {"name": "PartitionedCall/PartitionedCall/PartitionedCall/transpose_58", "op": "Transpose", "input": ["PartitionedCall/PartitionedCall/PartitionedCall/onnx_tf_prefix_Relu_68", "PartitionedCall/PartitionedCall/PartitionedCall/transpose_58/perm"], "attr": {"T": {"type": "DT_FLOAT"}, "Tperm": {"type": "DT_INT32"}}}, {"name": "PartitionedCall/PartitionedCall/PartitionedCall/convolution_11", "op": "Conv2D", "input": ["PartitionedCall/PartitionedCall/PartitionedCall/transpose_58", "PartitionedCall/PartitionedCall/PartitionedCall/split_14"], "device": "/device:CPU:0", "attr": {"padding": {"s": "VkFMSUQ="}, "T": {"type": "DT_FLOAT"}, "strides": {"list": {"i": ["1", "1", "1", "1"]}}, "data_format": {"s": "TkhXQw=="}, "dilations": {"list": {"i": ["1", "1", "1", "1"]}}, "use_cudnn_on_gpu": {"b": true}, "explicit_paddings": {"list": {}}}}, {"name": "PartitionedCall/PartitionedCall/PartitionedCall/Add_29", "op": "AddV2", "input": ["PartitionedCall/PartitionedCall/PartitionedCall/convolution_11", "unknown_56"], "attr": {"T": {"type": "DT_FLOAT"}}}, {"name": "PartitionedCall/PartitionedCall/PartitionedCall/transpose_59", "op": "Transpose", "input": ["PartitionedCall/PartitionedCall/PartitionedCall/Add_29", "PartitionedCall/PartitionedCall/PartitionedCall/transpose_59/perm"], "attr": {"T": {"type": "DT_FLOAT"}, "Tperm": {"type": "DT_INT32"}}}, {"name": "PartitionedCall/PartitionedCall/PartitionedCall/onnx_tf_prefix_Add_70", "op": "AddV2", "input": ["PartitionedCall/PartitionedCall/PartitionedCall/onnx_tf_prefix_Add_53", "PartitionedCall/PartitionedCall/PartitionedCall/transpose_59"], "attr": {"T": {"type": "DT_FLOAT"}}}, {"name": "PartitionedCall/PartitionedCall/PartitionedCall/transpose_61", "op": "Transpose", "input": ["PartitionedCall/PartitionedCall/PartitionedCall/onnx_tf_prefix_Add_70", "PartitionedCall/PartitionedCall/PartitionedCall/transpose_61/perm"], "attr": {"T": {"type": "DT_FLOAT"}, "Tperm": {"type": "DT_INT32"}}}, {"name": "PartitionedCall/PartitionedCall/PartitionedCall/convolution_12", "op": "Conv2D", "input": ["PartitionedCall/PartitionedCall/PartitionedCall/transpose_61", "PartitionedCall/PartitionedCall/PartitionedCall/split_15"], "device": "/device:CPU:0", "attr": {"data_format": {"s": "TkhXQw=="}, "strides": {"list": {"i": ["1", "1", "1", "1"]}}, "padding": {"s": "VkFMSUQ="}, "explicit_paddings": {"list": {}}, "dilations": {"list": {"i": ["1", "1", "1", "1"]}}, "T": {"type": "DT_FLOAT"}, "use_cudnn_on_gpu": {"b": true}}}, {"name": "PartitionedCall/PartitionedCall/PartitionedCall/Add_30", "op": "AddV2", "input": ["PartitionedCall/PartitionedCall/PartitionedCall/convolution_12", "unknown_58"], "attr": {"T": {"type": "DT_FLOAT"}}}, {"name": "PartitionedCall/PartitionedCall/PartitionedCall/transpose_62", "op": "Transpose", "input": ["PartitionedCall/PartitionedCall/PartitionedCall/Add_30", "PartitionedCall/PartitionedCall/PartitionedCall/transpose_62/perm"], "attr": {"T": {"type": "DT_FLOAT"}, "Tperm": {"type": "DT_INT32"}}}, {"name": "PartitionedCall/PartitionedCall/PartitionedCall/onnx_tf_prefix_Div_75", "op": "Mul", "input": ["ConstantFolding/PartitionedCall/PartitionedCall/PartitionedCall/onnx_tf_prefix_Div_75_recip", "PartitionedCall/PartitionedCall/PartitionedCall/transpose_62"], "attr": {"_grappler_ArithmeticOptimizer_MinimizeBroadcasts": {"b": true}, "T": {"type": "DT_FLOAT"}}}, {"name": "PartitionedCall/PartitionedCall/PartitionedCall/onnx_tf_prefix_Add_73", "op": "AddV2", "input": ["PartitionedCall/PartitionedCall/PartitionedCall/transpose_62", "PartitionedCall/PartitionedCall/PartitionedCall/onnx_tf_prefix_Constant_72"], "attr": {"T": {"type": "DT_FLOAT"}}}, {"name": "PartitionedCall/PartitionedCall/PartitionedCall/clip_by_value_4/Minimum", "op": "Minimum", "input": ["PartitionedCall/PartitionedCall/PartitionedCall/onnx_tf_prefix_Add_73", "PartitionedCall/PartitionedCall/PartitionedCall/clip_by_value_4/Minimum/y"], "attr": {"T": {"type": "DT_FLOAT"}}}, {"name": "PartitionedCall/PartitionedCall/PartitionedCall/clip_by_value_4", "op": "Maximum", "input": ["PartitionedCall/PartitionedCall/PartitionedCall/clip_by_value_4/Minimum", "PartitionedCall/PartitionedCall/PartitionedCall/clip_by_value_4/y"], "attr": {"T": {"type": "DT_FLOAT"}}}, {"name": "PartitionedCall/PartitionedCall/PartitionedCall/onnx_tf_prefix_Mul_76", "op": "Mul", "input": ["PartitionedCall/PartitionedCall/PartitionedCall/onnx_tf_prefix_Div_75", "PartitionedCall/PartitionedCall/PartitionedCall/clip_by_value_4"], "attr": {"T": {"type": "DT_FLOAT"}, "_grappler_ArithmeticOptimizer_MinimizeBroadcasts": {"b": true}}}, {"name": "PartitionedCall/PartitionedCall/PartitionedCall/Pad_7", "op": "Pad", "input": ["PartitionedCall/PartitionedCall/PartitionedCall/onnx_tf_prefix_Mul_76", "PartitionedCall/PartitionedCall/PartitionedCall/Const_23"], "attr": {"T": {"type": "DT_FLOAT"}, "Tpaddings": {"type": "DT_INT32"}}}, {"name": "PartitionedCall/PartitionedCall/PartitionedCall/transpose_64", "op": "Transpose", "input": ["PartitionedCall/PartitionedCall/PartitionedCall/Pad_7", "PartitionedCall/PartitionedCall/PartitionedCall/transpose_64/perm"], "attr": {"Tperm": {"type": "DT_INT32"}, "T": {"type": "DT_FLOAT"}}}, {"name": "PartitionedCall/PartitionedCall/PartitionedCall/depthwise_6", "op": "DepthwiseConv2dNative", "input": ["PartitionedCall/PartitionedCall/PartitionedCall/transpose_64", "PartitionedCall/PartitionedCall/PartitionedCall/Reshape_6"], "attr": {"dilations": {"list": {"i": ["1", "1", "1", "1"]}}, "T": {"type": "DT_FLOAT"}, "data_format": {"s": "TkhXQw=="}, "explicit_paddings": {"list": {}}, "strides": {"list": {"i": ["1", "2", "2", "1"]}}, "padding": {"s": "VkFMSUQ="}}}, {"name": "PartitionedCall/PartitionedCall/PartitionedCall/Add_31", "op": "AddV2", "input": ["PartitionedCall/PartitionedCall/PartitionedCall/depthwise_6", "unknown_61"], "attr": {"T": {"type": "DT_FLOAT"}}}, {"name": "PartitionedCall/PartitionedCall/PartitionedCall/transpose_65", "op": "Transpose", "input": ["PartitionedCall/PartitionedCall/PartitionedCall/Add_31", "PartitionedCall/PartitionedCall/PartitionedCall/transpose_65/perm"], "attr": {"T": {"type": "DT_FLOAT"}, "Tperm": {"type": "DT_INT32"}}}, {"name": "PartitionedCall/PartitionedCall/PartitionedCall/onnx_tf_prefix_Div_81", "op": "Mul", "input": ["ConstantFolding/PartitionedCall/PartitionedCall/PartitionedCall/onnx_tf_prefix_Div_81_recip", "PartitionedCall/PartitionedCall/PartitionedCall/transpose_65"], "attr": {"_grappler_ArithmeticOptimizer_MinimizeBroadcasts": {"b": true}, "T": {"type": "DT_FLOAT"}}}, {"name": "PartitionedCall/PartitionedCall/PartitionedCall/onnx_tf_prefix_Add_79", "op": "AddV2", "input": ["PartitionedCall/PartitionedCall/PartitionedCall/transpose_65", "PartitionedCall/PartitionedCall/PartitionedCall/onnx_tf_prefix_Constant_78"], "attr": {"T": {"type": "DT_FLOAT"}}}, {"name": "PartitionedCall/PartitionedCall/PartitionedCall/clip_by_value_5/Minimum", "op": "Minimum", "input": ["PartitionedCall/PartitionedCall/PartitionedCall/onnx_tf_prefix_Add_79", "PartitionedCall/PartitionedCall/PartitionedCall/clip_by_value_5/Minimum/y"], "attr": {"T": {"type": "DT_FLOAT"}}}, {"name": "PartitionedCall/PartitionedCall/PartitionedCall/clip_by_value_5", "op": "Maximum", "input": ["PartitionedCall/PartitionedCall/PartitionedCall/clip_by_value_5/Minimum", "PartitionedCall/PartitionedCall/PartitionedCall/clip_by_value_5/y"], "attr": {"T": {"type": "DT_FLOAT"}}}, {"name": "PartitionedCall/PartitionedCall/PartitionedCall/onnx_tf_prefix_Mul_82", "op": "Mul", "input": ["PartitionedCall/PartitionedCall/PartitionedCall/onnx_tf_prefix_Div_81", "PartitionedCall/PartitionedCall/PartitionedCall/clip_by_value_5"], "attr": {"_grappler_ArithmeticOptimizer_MinimizeBroadcasts": {"b": true}, "T": {"type": "DT_FLOAT"}}}, {"name": "PartitionedCall/PartitionedCall/PartitionedCall/transpose_67", "op": "Transpose", "input": ["PartitionedCall/PartitionedCall/PartitionedCall/onnx_tf_prefix_Mul_82", "PartitionedCall/PartitionedCall/PartitionedCall/transpose_67/perm"], "attr": {"T": {"type": "DT_FLOAT"}, "Tperm": {"type": "DT_INT32"}}}, {"name": "PartitionedCall/PartitionedCall/PartitionedCall/convolution_13", "op": "Conv2D", "input": ["PartitionedCall/PartitionedCall/PartitionedCall/transpose_67", "PartitionedCall/PartitionedCall/PartitionedCall/split_16"], "device": "/device:CPU:0", "attr": {"strides": {"list": {"i": ["1", "1", "1", "1"]}}, "explicit_paddings": {"list": {}}, "data_format": {"s": "TkhXQw=="}, "T": {"type": "DT_FLOAT"}, "dilations": {"list": {"i": ["1", "1", "1", "1"]}}, "padding": {"s": "VkFMSUQ="}, "use_cudnn_on_gpu": {"b": true}}}, {"name": "PartitionedCall/PartitionedCall/PartitionedCall/Add_32", "op": "AddV2", "input": ["PartitionedCall/PartitionedCall/PartitionedCall/convolution_13", "unknown_64"], "attr": {"T": {"type": "DT_FLOAT"}}}, {"name": "PartitionedCall/PartitionedCall/PartitionedCall/transpose_68", "op": "Transpose", "input": ["PartitionedCall/PartitionedCall/PartitionedCall/Add_32", "PartitionedCall/PartitionedCall/PartitionedCall/transpose_68/perm"], "attr": {"Tperm": {"type": "DT_INT32"}, "T": {"type": "DT_FLOAT"}}}, {"name": "PartitionedCall/PartitionedCall/PartitionedCall/convolution_14", "op": "Conv2D", "input": ["PartitionedCall/PartitionedCall/PartitionedCall/Add_32", "PartitionedCall/PartitionedCall/PartitionedCall/split_17"], "device": "/device:CPU:0", "attr": {"T": {"type": "DT_FLOAT"}, "dilations": {"list": {"i": ["1", "1", "1", "1"]}}, "explicit_paddings": {"list": {}}, "use_cudnn_on_gpu": {"b": true}, "padding": {"s": "VkFMSUQ="}, "strides": {"list": {"i": ["1", "1", "1", "1"]}}, "data_format": {"s": "TkhXQw=="}}}, {"name": "PartitionedCall/PartitionedCall/PartitionedCall/Add_33", "op": "AddV2", "input": ["PartitionedCall/PartitionedCall/PartitionedCall/convolution_14", "unknown_66"], "attr": {"T": {"type": "DT_FLOAT"}}}, {"name": "PartitionedCall/PartitionedCall/PartitionedCall/transpose_71", "op": "Transpose", "input": ["PartitionedCall/PartitionedCall/PartitionedCall/Add_33", "PartitionedCall/PartitionedCall/PartitionedCall/transpose_71/perm"], "attr": {"T": {"type": "DT_FLOAT"}, "Tperm": {"type": "DT_INT32"}}}, {"name": "PartitionedCall/PartitionedCall/PartitionedCall/onnx_tf_prefix_Div_88", "op": "Mul", "input": ["ConstantFolding/PartitionedCall/PartitionedCall/PartitionedCall/onnx_tf_prefix_Div_88_recip", "PartitionedCall/PartitionedCall/PartitionedCall/transpose_71"], "attr": {"_grappler_ArithmeticOptimizer_MinimizeBroadcasts": {"b": true}, "T": {"type": "DT_FLOAT"}}}, {"name": "PartitionedCall/PartitionedCall/PartitionedCall/onnx_tf_prefix_Add_86", "op": "AddV2", "input": ["PartitionedCall/PartitionedCall/PartitionedCall/transpose_71", "PartitionedCall/PartitionedCall/PartitionedCall/onnx_tf_prefix_Constant_85"], "attr": {"T": {"type": "DT_FLOAT"}}}, {"name": "PartitionedCall/PartitionedCall/PartitionedCall/clip_by_value_6/Minimum", "op": "Minimum", "input": ["PartitionedCall/PartitionedCall/PartitionedCall/onnx_tf_prefix_Add_86", "PartitionedCall/PartitionedCall/PartitionedCall/clip_by_value_6/Minimum/y"], "attr": {"T": {"type": "DT_FLOAT"}}}, {"name": "PartitionedCall/PartitionedCall/PartitionedCall/clip_by_value_6", "op": "Maximum", "input": ["PartitionedCall/PartitionedCall/PartitionedCall/clip_by_value_6/Minimum", "PartitionedCall/PartitionedCall/PartitionedCall/clip_by_value_6/y"], "attr": {"T": {"type": "DT_FLOAT"}}}, {"name": "PartitionedCall/PartitionedCall/PartitionedCall/onnx_tf_prefix_Mul_89", "op": "Mul", "input": ["PartitionedCall/PartitionedCall/PartitionedCall/onnx_tf_prefix_Div_88", "PartitionedCall/PartitionedCall/PartitionedCall/clip_by_value_6"], "attr": {"_grappler_ArithmeticOptimizer_MinimizeBroadcasts": {"b": true}, "T": {"type": "DT_FLOAT"}}}, {"name": "PartitionedCall/PartitionedCall/PartitionedCall/Pad_8", "op": "Pad", "input": ["PartitionedCall/PartitionedCall/PartitionedCall/onnx_tf_prefix_Mul_89", "PartitionedCall/PartitionedCall/PartitionedCall/Const_28"], "attr": {"T": {"type": "DT_FLOAT"}, "Tpaddings": {"type": "DT_INT32"}}}, {"name": "PartitionedCall/PartitionedCall/PartitionedCall/transpose_73", "op": "Transpose", "input": ["PartitionedCall/PartitionedCall/PartitionedCall/Pad_8", "PartitionedCall/PartitionedCall/PartitionedCall/transpose_73/perm"], "attr": {"T": {"type": "DT_FLOAT"}, "Tperm": {"type": "DT_INT32"}}}, {"name": "PartitionedCall/PartitionedCall/PartitionedCall/depthwise_7", "op": "DepthwiseConv2dNative", "input": ["PartitionedCall/PartitionedCall/PartitionedCall/transpose_73", "PartitionedCall/PartitionedCall/PartitionedCall/Reshape_7"], "attr": {"T": {"type": "DT_FLOAT"}, "explicit_paddings": {"list": {}}, "padding": {"s": "VkFMSUQ="}, "data_format": {"s": "TkhXQw=="}, "dilations": {"list": {"i": ["1", "1", "1", "1"]}}, "strides": {"list": {"i": ["1", "1", "1", "1"]}}}}, {"name": "PartitionedCall/PartitionedCall/PartitionedCall/Add_34", "op": "AddV2", "input": ["PartitionedCall/PartitionedCall/PartitionedCall/depthwise_7", "unknown_69"], "attr": {"T": {"type": "DT_FLOAT"}}}, {"name": "PartitionedCall/PartitionedCall/PartitionedCall/transpose_74", "op": "Transpose", "input": ["PartitionedCall/PartitionedCall/PartitionedCall/Add_34", "PartitionedCall/PartitionedCall/PartitionedCall/transpose_74/perm"], "attr": {"T": {"type": "DT_FLOAT"}, "Tperm": {"type": "DT_INT32"}}}, {"name": "PartitionedCall/PartitionedCall/PartitionedCall/onnx_tf_prefix_Div_94", "op": "Mul", "input": ["ConstantFolding/PartitionedCall/PartitionedCall/PartitionedCall/onnx_tf_prefix_Div_94_recip", "PartitionedCall/PartitionedCall/PartitionedCall/transpose_74"], "attr": {"T": {"type": "DT_FLOAT"}, "_grappler_ArithmeticOptimizer_MinimizeBroadcasts": {"b": true}}}, {"name": "PartitionedCall/PartitionedCall/PartitionedCall/onnx_tf_prefix_Add_92", "op": "AddV2", "input": ["PartitionedCall/PartitionedCall/PartitionedCall/transpose_74", "PartitionedCall/PartitionedCall/PartitionedCall/onnx_tf_prefix_Constant_91"], "attr": {"T": {"type": "DT_FLOAT"}}}, {"name": "PartitionedCall/PartitionedCall/PartitionedCall/clip_by_value_7/Minimum", "op": "Minimum", "input": ["PartitionedCall/PartitionedCall/PartitionedCall/onnx_tf_prefix_Add_92", "PartitionedCall/PartitionedCall/PartitionedCall/clip_by_value_7/Minimum/y"], "attr": {"T": {"type": "DT_FLOAT"}}}, {"name": "PartitionedCall/PartitionedCall/PartitionedCall/clip_by_value_7", "op": "Maximum", "input": ["PartitionedCall/PartitionedCall/PartitionedCall/clip_by_value_7/Minimum", "PartitionedCall/PartitionedCall/PartitionedCall/clip_by_value_7/y"], "attr": {"T": {"type": "DT_FLOAT"}}}, {"name": "PartitionedCall/PartitionedCall/PartitionedCall/onnx_tf_prefix_Mul_95", "op": "Mul", "input": ["PartitionedCall/PartitionedCall/PartitionedCall/onnx_tf_prefix_Div_94", "PartitionedCall/PartitionedCall/PartitionedCall/clip_by_value_7"], "attr": {"T": {"type": "DT_FLOAT"}, "_grappler_ArithmeticOptimizer_MinimizeBroadcasts": {"b": true}}}, {"name": "PartitionedCall/PartitionedCall/PartitionedCall/transpose_76", "op": "Transpose", "input": ["PartitionedCall/PartitionedCall/PartitionedCall/onnx_tf_prefix_Mul_95", "PartitionedCall/PartitionedCall/PartitionedCall/transpose_76/perm"], "attr": {"T": {"type": "DT_FLOAT"}, "Tperm": {"type": "DT_INT32"}}}, {"name": "PartitionedCall/PartitionedCall/PartitionedCall/convolution_15", "op": "Conv2D", "input": ["PartitionedCall/PartitionedCall/PartitionedCall/transpose_76", "PartitionedCall/PartitionedCall/PartitionedCall/split_18"], "device": "/device:CPU:0", "attr": {"padding": {"s": "VkFMSUQ="}, "T": {"type": "DT_FLOAT"}, "data_format": {"s": "TkhXQw=="}, "use_cudnn_on_gpu": {"b": true}, "explicit_paddings": {"list": {}}, "dilations": {"list": {"i": ["1", "1", "1", "1"]}}, "strides": {"list": {"i": ["1", "1", "1", "1"]}}}}, {"name": "PartitionedCall/PartitionedCall/PartitionedCall/Add_35", "op": "AddV2", "input": ["PartitionedCall/PartitionedCall/PartitionedCall/convolution_15", "unknown_72"], "attr": {"T": {"type": "DT_FLOAT"}}}, {"name": "PartitionedCall/PartitionedCall/PartitionedCall/transpose_77", "op": "Transpose", "input": ["PartitionedCall/PartitionedCall/PartitionedCall/Add_35", "PartitionedCall/PartitionedCall/PartitionedCall/transpose_77/perm"], "attr": {"T": {"type": "DT_FLOAT"}, "Tperm": {"type": "DT_INT32"}}}, {"name": "PartitionedCall/PartitionedCall/PartitionedCall/onnx_tf_prefix_Add_97", "op": "AddV2", "input": ["PartitionedCall/PartitionedCall/PartitionedCall/transpose_68", "PartitionedCall/PartitionedCall/PartitionedCall/transpose_77"], "attr": {"T": {"type": "DT_FLOAT"}}}, {"name": "PartitionedCall/PartitionedCall/PartitionedCall/transpose_79", "op": "Transpose", "input": ["PartitionedCall/PartitionedCall/PartitionedCall/onnx_tf_prefix_Add_97", "PartitionedCall/PartitionedCall/PartitionedCall/transpose_79/perm"], "attr": {"T": {"type": "DT_FLOAT"}, "Tperm": {"type": "DT_INT32"}}}, {"name": "PartitionedCall/PartitionedCall/PartitionedCall/convolution_16", "op": "Conv2D", "input": ["PartitionedCall/PartitionedCall/PartitionedCall/transpose_79", "PartitionedCall/PartitionedCall/PartitionedCall/split_19"], "device": "/device:CPU:0", "attr": {"data_format": {"s": "TkhXQw=="}, "strides": {"list": {"i": ["1", "1", "1", "1"]}}, "explicit_paddings": {"list": {}}, "dilations": {"list": {"i": ["1", "1", "1", "1"]}}, "T": {"type": "DT_FLOAT"}, "padding": {"s": "VkFMSUQ="}, "use_cudnn_on_gpu": {"b": true}}}, {"name": "PartitionedCall/PartitionedCall/PartitionedCall/Add_36", "op": "AddV2", "input": ["PartitionedCall/PartitionedCall/PartitionedCall/convolution_16", "unknown_74"], "attr": {"T": {"type…
2"}}, {"name": "unknown_13", "shape": [72], "dtype": "float32", "quantization": {"dtype": "float16", "original_dtype": "float32"}}, {"name": "PartitionedCall/PartitionedCall/PartitionedCall/transpose_20/perm", "shape": [4], "dtype": "int32"}, {"name": "PartitionedCall/PartitionedCall/PartitionedCall/Const_5", "shape": [4, 2], "dtype": "int32"}, {"name": "PartitionedCall/PartitionedCall/PartitionedCall/transpose_22/perm", "shape": [4], "dtype": "int32"}, {"name": "PartitionedCall/PartitionedCall/PartitionedCall/Reshape_2", "shape": [3, 3, 72, 1], "dtype": "float32", "quantization": {"dtype": "float16", "original_dtype": "float32"}}, {"name": "unknown_15", "shape": [72], "dtype": "float32", "quantization": {"dtype": "float16", "original_dtype": "float32"}}, {"name": "PartitionedCall/PartitionedCall/PartitionedCall/transpose_23/perm", "shape": [4], "dtype": "int32"}, {"name": "PartitionedCall/PartitionedCall/PartitionedCall/transpose_25/perm", "shape": [4], "dtype": "int32"}, {"name": "PartitionedCall/PartitionedCall/PartitionedCall/split_5", "shape": [1, 1, 72, 24], "dtype": "float32", "quantization": {"dtype": "float16", "original_dtype": "float32"}}, {"name": "unknown_17", "shape": [24], "dtype": "float32", "quantization": {"dtype": "float16", "original_dtype": "float32"}}, {"name": "PartitionedCall/PartitionedCall/PartitionedCall/transpose_26/perm", "shape": [4], "dtype": "int32"}, {"name": "PartitionedCall/PartitionedCall/PartitionedCall/transpose_28/perm", "shape": [4], "dtype": "int32"}, {"name": "PartitionedCall/PartitionedCall/PartitionedCall/split_6", "shape": [1, 1, 24, 72], "dtype": "float32", "quantization": {"dtype": "float16", "original_dtype": "float32"}}, {"name": "unknown_19", "shape": [72], "dtype": "float32", "quantization": {"dtype": "float16", "original_dtype": "float32"}}, {"name": "PartitionedCall/PartitionedCall/PartitionedCall/transpose_29/perm", "shape": [4], "dtype": "int32"}, {"name": "PartitionedCall/PartitionedCall/PartitionedCall/Const_6", "shape": [4, 2], "dtype": "int32"}, {"name": "PartitionedCall/PartitionedCall/PartitionedCall/transpose_31/perm", "shape": [4], "dtype": "int32"}, {"name": "PartitionedCall/PartitionedCall/PartitionedCall/Reshape_3", "shape": [5, 5, 72, 1], "dtype": "float32", "quantization": {"dtype": "float16", "original_dtype": "float32"}}, {"name": "unknown_21", "shape": [72], "dtype": "float32", "quantization": {"dtype": "float16", "original_dtype": "float32"}}, {"name": "PartitionedCall/PartitionedCall/PartitionedCall/transpose_32/perm", "shape": [4], "dtype": "int32"}, {"name": "ConstantFolding/PartitionedCall/PartitionedCall/PartitionedCall/split_7-folded-1", "shape": [2], "dtype": "int32"}, {"name": "PartitionedCall/PartitionedCall/PartitionedCall/flatten/Const", "shape": [2], "dtype": "int32"}, {"name": "PartitionedCall/PartitionedCall/PartitionedCall/transpose_33", "shape": [72, 24], "dtype": "float32", "quantization": {"dtype": "float16", "original_dtype": "float32"}}, {"name": "PartitionedCall/PartitionedCall/PartitionedCall/mul_1", "shape": [24], "dtype": "float32", "quantization": {"dtype": "float16", "original_dtype": "float32"}}, {"name": "PartitionedCall/PartitionedCall/PartitionedCall/transpose_34", "shape": [24, 72], "dtype": "float32", "quantization": {"dtype": "float16", "original_dtype": "float32"}}, {"name": "PartitionedCall/PartitionedCall/PartitionedCall/add_13", "shape": [72], "dtype": "float32", "quantization": {"dtype": "float16", "original_dtype": "float32"}}, {"name": "PartitionedCall/PartitionedCall/PartitionedCall/clip_by_value_1/Minimum/y", "shape": [], "dtype": "float32", "quantization": {"dtype": "float16", "original_dtype": "float32"}}, {"name": "PartitionedCall/PartitionedCall/PartitionedCall/clip_by_value_1/y", "shape": [], "dtype": "float32", "quantization": {"dtype": "float16", "original_dtype": "float32"}}, {"name": "ConstantFolding/PartitionedCall/PartitionedCall/PartitionedCall/onnx_tf_prefix_Div_32_recip", "shape": [], "dtype": "float32", "quantization": {"dtype": "float16", "original_dtype": "float32"}}, {"name": "unknown_28", "shape": [4], "dtype": "int32"}, {"name": "PartitionedCall/PartitionedCall/PartitionedCall/Where_1", "shape": [0, 1], "dtype": "int32"}, {"name": "PartitionedCall/PartitionedCall/PartitionedCall/Cast_1", "shape": [1], "dtype": "int32"}, {"name": "PartitionedCall/PartitionedCall/PartitionedCall/GatherV2_1", "shape": [0], "dtype": "int32"}, {"name": "PartitionedCall/PartitionedCall/PartitionedCall/zeros_1", "shape": [], "dtype": "int32"}, {"name": "PartitionedCall/PartitionedCall/PartitionedCall/transpose_36/perm", "shape": [4], "dtype": "int32"}, {"name": "PartitionedCall/PartitionedCall/PartitionedCall/split_8", "shape": [1, 1, 72, 40], "dtype": "float32", "quantization": {"dtype": "float16", "original_dtype": "float32"}}, {"name": "unknown_30", "shape": [40], "dtype": "float32", "quantization": {"dtype": "float16", "original_dtype": "float32"}}, {"name": "PartitionedCall/PartitionedCall/PartitionedCall/split_9", "shape": [1, 1, 40, 120], "dtype": "float32", "quantization": {"dtype": "float16", "original_dtype": "float32"}}, {"name": "unknown_32", "shape": [120], "dtype": "float32", "quantization": {"dtype": "float16", "original_dtype": "float32"}}, {"name": "PartitionedCall/PartitionedCall/PartitionedCall/transpose_40/perm", "shape": [4], "dtype": "int32"}, {"name": "PartitionedCall/PartitionedCall/PartitionedCall/Const_11", "shape": [4, 2], "dtype": "int32"}, {"name": "PartitionedCall/PartitionedCall/PartitionedCall/transpose_42/perm", "shape": [4], "dtype": "int32"}, {"name": "PartitionedCall/PartitionedCall/PartitionedCall/Reshape_4", "shape": [5, 5, 120, 1], "dtype": "float32", "quantization": {"dtype": "float16", "original_dtype": "float32"}}, {"name": "unknown_34", "shape": [120], "dtype": "float32", "quantization": {"dtype": "float16", "original_dtype": "float32"}}, {"name": "PartitionedCall/PartitionedCall/PartitionedCall/transpose_43/perm", "shape": [4], "dtype": "int32"}, {"name": "ConstantFolding/PartitionedCall/PartitionedCall/PartitionedCall/split_10-folded-1", "shape": [2], "dtype": "int32"}, {"name": "PartitionedCall/PartitionedCall/PartitionedCall/flatten_2/Const", "shape": [2], "dtype": "int32"}, {"name": "PartitionedCall/PartitionedCall/PartitionedCall/transpose_44", "shape": [120, 32], "dtype": "float32", "quantization": {"dtype": "float16", "original_dtype": "float32"}}, {"name": "PartitionedCall/PartitionedCall/PartitionedCall/mul_5", "shape": [32], "dtype": "float32", "quantization": {"dtype": "float16", "original_dtype": "float32"}}, {"name": "PartitionedCall/PartitionedCall/PartitionedCall/transpose_45", "shape": [32, 120], "dtype": "float32", "quantization": {"dtype": "float16", "original_dtype": "float32"}}, {"name": "PartitionedCall/PartitionedCall/PartitionedCall/add_20", "shape": [120], "dtype": "float32", "quantization": {"dtype": "float16", "original_dtype": "float32"}}, {"name": "PartitionedCall/PartitionedCall/PartitionedCall/clip_by_value_2/Minimum/y", "shape": [], "dtype": "float32", "quantization": {"dtype": "float16", "original_dtype": "float32"}}, {"name": "PartitionedCall/PartitionedCall/PartitionedCall/clip_by_value_2/y", "shape": [], "dtype": "float32", "quantization": {"dtype": "float16", "original_dtype": "float32"}}, {"name": "ConstantFolding/PartitionedCall/PartitionedCall/PartitionedCall/onnx_tf_prefix_Div_48_recip", "shape": [], "dtype": "float32", "quantization": {"dtype": "float16", "original_dtype": "float32"}}, {"name": "unknown_41", "shape": [4], "dtype": "int32"}, {"name": "PartitionedCall/PartitionedCall/PartitionedCall/Where_3", "shape": [0, 1], "dtype": "int32"}, {"name": "PartitionedCall/PartitionedCall/PartitionedCall/Cast_3", "shape": [1], "dtype": "int32"}, {"name": "PartitionedCall/PartitionedCall/PartitionedCall/GatherV2_3", "shape": [0], "dtype": "int32"}, {"name": "PartitionedCall/PartitionedCall/PartitionedCall/zeros_3", "shape": [], "dtype": "int32"}, {"name": "PartitionedCall/PartitionedCall/PartitionedCall/transpose_47/perm", "shape": [4], "dtype": "int32"}, {"name": "PartitionedCall/PartitionedCall/PartitionedCall/split_11", "shape": [1, 1, 120, 40], "dtype": "float32", "quantization": {"dtype": "float16", "original_dtype": "float32"}}, {"name": "unknown_43", "shape": [40], "dtype": "float32", "quantization": {"dtype": "float16", "original_dtype": "float32"}}, {"name": "PartitionedCall/PartitionedCall/PartitionedCall/transpose_48/perm", "shape": [4], "dtype": "int32"}, {"name": "PartitionedCall/PartitionedCall/PartitionedCall/transpose_50/perm", "shape": [4], "dtype": "int32"}, {"name": "PartitionedCall/PartitionedCall/PartitionedCall/split_12", "shape": [1, 1, 40, 120], "dtype": "float32", "quantization": {"dtype": "float16", "original_dtype": "float32"}}, {"name": "unknown_45", "shape": [120], "dtype": "float32", "quantization": {"dtype": "float16", "original_dtype": "float32"}}, {"name": "PartitionedCall/PartitionedCall/PartitionedCall/transpose_51/perm", "shape": [4], "dtype": "int32"}, {"name": "PartitionedCall/PartitionedCall/PartitionedCall/Const_16", "shape": [4, 2], "dtype": "int32"}, {"name": "PartitionedCall/PartitionedCall/PartitionedCall/transpose_53/perm", "shape": [4], "dtype": "int32"}, {"name": "PartitionedCall/PartitionedCall/PartitionedCall/Reshape_5", "shape": [5, 5, 120, 1], "dtype": "float32", "quantization": {"dtype": "float16", "original_dtype": "float32"}}, {"name": "unknown_47", "shape": [120], "dtype": "float32", "quantization": {"dtype": "float16", "original_dtype": "float32"}}, {"name": "PartitionedCall/PartitionedCall/PartitionedCall/transpose_54/perm", "shape": [4], "dtype": "int32"}, {"name": "ConstantFolding/PartitionedCall/PartitionedCall/PartitionedCall/split_13-folded-1", "shape": [2], "dtype": "int32"}, {"name": "PartitionedCall/PartitionedCall/PartitionedCall/flatten_4/Const", "shape": [2], "dtype": "int32"}, {"name": "PartitionedCall/PartitionedCall/PartitionedCall/transpose_55", "shape": [120, 32], "dtype": "float32", "quantization": {"dtype": "float16", "original_dtype": "float32"}}, {"name": "PartitionedCall/PartitionedCall/PartitionedCall/mul_9", "shape": [32], "dtype": "float32", "quantization": {"dtype": "float16", "original_dtype": "float32"}}, {"name": "PartitionedCall/PartitionedCall/PartitionedCall/transpose_56", "shape": [32, 120], "dtype": "float32", "quantization": {"dtype": "float16", "original_dtype": "float32"}}, {"name": "PartitionedCall/PartitionedCall/PartitionedCall/add_27", "shape": [120], "dtype": "float32", "quantization": {"dtype": "float16", "original_dtype": "float32"}}, {"name": "PartitionedCall/PartitionedCall/PartitionedCall/clip_by_value_3/Minimum/y", "shape": [], "dtype": "float32", "quantization": {"dtype": "float16", "original_dtype": "float32"}}, {"name": "PartitionedCall/PartitionedCall/PartitionedCall/clip_by_value_3/y", "shape": [], "dtype": "float32", "quantization": {"dtype": "float16", "original_dtype": "float32"}}, {"name": "ConstantFolding/PartitionedCall/PartitionedCall/PartitionedCall/onnx_tf_prefix_Div_65_recip", "shape": [], "dtype": "float32", "quantization": {"dtype": "float16", "original_dtype": "float32"}}, {"name": "unknown_54", "shape": [4], "dtype": "int32"}, {"name": "PartitionedCall/PartitionedCall/PartitionedCall/Where_5", "shape": [0, 1], "dtype": "int32"}, {"name": "PartitionedCall/PartitionedCall/PartitionedCall/Cast_5", "shape": [1], "dtype": "int32"}, {"name": "PartitionedCall/PartitionedCall/PartitionedCall/GatherV2_5", "shape": [0], "dtype": "int32"}, {"name": "PartitionedCall/PartitionedCall/PartitionedCall/zeros_5", "shape": [], "dtype": "int32"}, {"name": "PartitionedCall/PartitionedCall/PartitionedCall/transpose_58/perm", "shape": [4], "dtype": "int32"}, {"name": "PartitionedCall/PartitionedCall/PartitionedCall/split_14", "shape": [1, 1, 120, 40], "dtype": "float32", "quantization": {"dtype": "float16", "original_dtype": "float32"}}, {"name": "unknown_56", "shape": [40], "dtype": "float32", "quantization": {"dtype": "float16", "original_dtype": "float32"}}, {"name": "PartitionedCall/PartitionedCall/PartitionedCall/transpose_59/perm", "shape": [4], "dtype": "int32"}, {"name": "PartitionedCall/PartitionedCall/PartitionedCall/transpose_61/perm", "shape": [4], "dtype": "int32"}, {"name": "PartitionedCall/PartitionedCall/PartitionedCall/split_15", "shape": [1, 1, 40, 240], "dtype": "float32", "quantization": {"dtype": "float16", "original_dtype": "float32"}}, {"name": "unknown_58", "shape": [240], "dtype": "float32", "quantization": {"dtype": "float16", "original_dtype": "float32"}}, {"name": "PartitionedCall/PartitionedCall/PartitionedCall/transpose_62/perm", "shape": [4], "dtype": "int32"}, {"name": "PartitionedCall/PartitionedCall/PartitionedCall/onnx_tf_prefix_Constant_72", "shape": [], "dtype": "float32", "quantization": {"dtype": "float16", "original_dtype": "float32"}}, {"name": "PartitionedCall/PartitionedCall/PartitionedCall/clip_by_value_4/Minimum/y", "shape": [], "dtype": "float32", "quantization": {"dtype": "float16", "original_dtype": "float32"}}, {"name": "PartitionedCall/PartitionedCall/PartitionedCall/clip_by_value_4/y", "shape": [], "dtype": "float32", "quantization": {"dtype": "float16", "original_dtype": "float32"}}, {"name": "PartitionedCall/PartitionedCall/PartitionedCall/Const_23", "shape": [4, 2], "dtype": "int32"}, {"name": "PartitionedCall/PartitionedCall/PartitionedCall/transpose_64/perm", "shape": [4], "dtype": "int32"}, {"name": "PartitionedCall/PartitionedCall/PartitionedCall/Reshape_6", "shape": [3, 3, 240, 1], "dtype": "float32", "quantization": {"dtype": "float16", "original_dtype": "float32"}}, {"name": "unknown_61", "shape": [240], "dtype": "float32", "quantization": {"dtype": "float16", "original_dtype": "float32"}}, {"name": "PartitionedCall/PartitionedCall/PartitionedCall/transpose_65/perm", "shape": [4], "dtype": "int32"}, {"name": "PartitionedCall/PartitionedCall/PartitionedCall/onnx_tf_prefix_Constant_78", "shape": [], "dtype": "float32", "quantization": {"dtype": "float16", "original_dtype": "float32"}}, {"name": "PartitionedCall/PartitionedCall/PartitionedCall/clip_by_value_5/Minimum/y", "shape": [], "dtype": "float32", "quantization": {"dtype": "float16", "original_dtype": "float32"}}, {"name": "PartitionedCall/PartitionedCall/PartitionedCall/clip_by_value_5/y", "shape": [], "dtype": "float32", "quantization": {"dtype": "float16", "original_dtype": "float32"}}, {"name": "PartitionedCall/PartitionedCall/PartitionedCall/transpose_67/perm", "shape": [4], "dtype": "int32"}, {"name": "PartitionedCall/PartitionedCall/PartitionedCall/split_16", "shape": [1, 1, 240, 80], "dtype": "float32", "quantization": {"dtype": "float16", "original_dtype": "float32"}}, {"name": "unknown_64", "shape": [80], "dtype": "float32", "quantization": {"dtype": "float16", "original_dtype": "float32"}}, {"name": "PartitionedCall/PartitionedCall/PartitionedCall/split_17", "shape": [1, 1, 80, 200], "dtype": "float32", "quantization": {"dtype": "float16", "original_dtype": "float32"}}, {"name": "unknown_66", "shape": [200], "dtype": "float32", "quantization": {"dtype": "float16", "original_dtype": "float32"}}, {"name": "PartitionedCall/PartitionedCall/PartitionedCall/transpose_71/perm", "shape": [4], "dtype": "int32"}, {"name": "PartitionedCall/PartitionedCall/PartitionedCall/onnx_tf_prefix_Constant_85", "shape": [], "dtype": "float32", "quantization": {"dtype": "float16", "original_dtype": "float32"}}, {"name": "PartitionedCall/PartitionedCall/PartitionedCall/clip_by_value_6/Minimum/y", "shape": [], "dtype": "float32", "quantization": {"dtype": "float16", "original_dtype": "float32"}}, {"name": "PartitionedCall/PartitionedCall/PartitionedCall/clip_by_value_6/y", "shape": [], "dtype": "float32", "quantization": {"dtype": "float16", "original_dtype": "float32"}}, {"name": "PartitionedCall/PartitionedCall/PartitionedCall/Const_28", "shape": [4, 2], "dtype": "int32"}, {"name": "PartitionedCall/PartitionedCall/PartitionedCall/transpose_73/perm", "shape": [4], "dtype": "int32"}, {"name": "PartitionedCall/PartitionedCall/PartitionedCall/Reshape_7", "shape": [3, 3, 200, 1], "dtype": "float32", "quantization": {"dtype": "float16", "original_dtype": "float32"}}, {"name": "unknown_69", "shape": [200], "dtype": "float32", "quantization": {"dtype": "float16", "original_dtype": "float32"}}, {"name": "PartitionedCall/PartitionedCall/PartitionedCall/transpose_74/perm", "shape": [4], "dtype": "int32"}, {"name": "PartitionedCall/PartitionedCall/PartitionedCall/onnx_tf_prefix_Constant_91", "shape": [], "dtype": "float32", "quantization": {"dtype": "float16", "original_dtype": "float32"}}, {"name": "PartitionedCall/PartitionedCall/PartitionedCall/clip_by_value_7/Minimum/y", "shape": [], "dtype": "float32", "quantization": {"dtype": "float16", "original_dtype": "float32"}}, {"name": "PartitionedCall/PartitionedCall/PartitionedCall/clip_by_value_7/y", "shape": [], "dtype": "float32", "quantization": {"dtype": "float16", "original_dtype": "float32"}}, {"name": "PartitionedCall/PartitionedCall/PartitionedCall/transpose_76/perm", "shape": [4], "dtype": "int32"}, {"name": "PartitionedCall/PartitionedCall/PartitionedCall/split_18", "shape": [1, 1, 200, 80], "dtype": "float32", "quantization": {"dtype": "float16", "original_dtype": "float32"}}, {"name": "unknown_72", "shape": [80], "dtype": "float32", "quantization": {"dtype": "float16", "original_dtype": "float32"}}, {"name": "PartitionedCall/PartitionedCall/PartitionedCall/transpose_77/perm", "shape": [4], "dtype": "int32"}, {"name": "PartitionedCall/PartitionedCall/PartitionedCall/transpose_79/perm", "shape": [4], "dtype": "int32"}, {"name": "PartitionedCall/PartitionedCall/PartitionedCall/split_19", "shape": [1, 1, 80, 184], "dtype": "float32", "quantization": {"dtype": "float16", "original_dtype": "float32"}}, {"name": "unknown_74", "shape": [184], "dtype": "float32", "quantization": {"dtype": "float16", "original_dtype": "float32"}}, {"name": "PartitionedCall/PartitionedCall/PartitionedCall/transpose_80/perm", "shape": [4], "dtype": "int32"}, {"name": "PartitionedCall/PartitionedCall/PartitionedCall/onnx_tf_prefix_Constant_99", "shape": [], "dtype": "float32", "quantization": {"dtype": "float16", "original_dtype": "float32"}}, {"name": "PartitionedCall/PartitionedCall/PartitionedCall/clip_by_value_8/Minimum/y", "shape": [], "dtype": "float32", "quantization": {"dtype": "float16", "original_dtype": "float32"}}, {"name": "PartitionedCall/PartitionedCall/PartitionedCall/clip_by_value_8/y", "shape": [], "dtype": "float32", "quantization": {"dtype": "float16", "original_dtype": "float32"}}, {"name": "PartitionedCall/PartitionedCall/PartitionedCall/Const_33", "shape": [4, 2], "dtype": "int32"}, {"name": "PartitionedCall/PartitionedCall/PartitionedCall/transpose_82/perm", "shape": [4], "dtype": "int32"}, {"name": "PartitionedCall/PartitionedCall/PartitionedCall/Reshape_8", "shape": [3, 3, 184, 1], "dtype": "float32", "quantization": {"dtype": "float16", "original_dtype": "float32"}}, {"name": "unknown_77", "shape": [184], "dtype": "float32", "quantization": {"dtype": "float16", "original_dtype": "float32"}}, {"name": "PartitionedCall/PartitionedCall/PartitionedCall/transpose_83/perm", "shape": [4], "dtype": "int32"}, {"name": "PartitionedCall/PartitionedCall/PartitionedCall/onnx_tf_prefix_Constant_105", "shape": [], "dtype": "float32", "quantization": {"dtype": "float16", "original_dtype": "float32"}}, {"name": "PartitionedCall/PartitionedCall/PartitionedCall/clip_by_value_9/Minimum/y", "shape": [], "dtype": "float32", "quantization": {"dtype": "float16", "original_dtype": "float32"}}, {"name": "PartitionedCall/PartitionedCall/PartitionedCall/clip_by_value_9/y", "shape": [], "dtype": "float32", "quantization": {"dtype": "float16", "original_dtype": "float32"}}, {"name": "PartitionedCall/PartitionedCall/PartitionedCall/transpose_85/perm", "shape": [4], "dtype": "int32"}, {"name": "PartitionedCall/PartitionedCall/PartitionedCall/split_20", "shape": [1, 1, 184, 80], "dtype": "float32", "quantization": {"dtype": "float16", "original_dtype": "float32"}}, {"name": "unknown_80", "shape": [80], "dtype": "float32", "quantization": {"dtype": "float16", "original_dtype": "float32"}}, {"name": "PartitionedCall/PartitionedCall/PartitionedCall/transpose_86/perm", "shape": [4], "dtype": "int32"}, {"name": "PartitionedCall/PartitionedCall/PartitionedCall/transpose_88/perm", "shape": [4], "dtype": "int32"}, {"name": "PartitionedCall/PartitionedCall/PartitionedCall/split_21", "shape": [1, 1, 80, 184], "dtype": "float32", "quantization": {"dtype": "float16", "original_dtype": "float32"}}, {"name": "unknown_82", "shape": [184], "dtype": "float32", "quantization": {"dtype": "float16", "original_dtype": "float32"}}, {"name": "PartitionedCall/PartitionedCall/PartitionedCall/transpose_89/perm", "shape": [4], "dtype": "int32"}, {"name": "PartitionedCall/PartitionedCall/PartitionedCall/onnx_tf_prefix_Constant_113", "shape": [], "dtype": "float32", "quantization": {"dtype": "float16", "original_dtype": "float32"}}, {"name": "PartitionedCall/PartitionedCall/PartitionedCall/clip_by_value_10/Minimum/y", "shape": [], "dtype": "float32", "quantization": {"dtype": "float16", "original_dtype": "float32"}}, {"name": "PartitionedCall/PartitionedCall/PartitionedCall/clip_by_value_10/y", "shape": [], "dtype": "float32", "quantization": {"dtype": "float16", "original_dtype": "float32"}}, {"name": "PartitionedCall/PartitionedCall/PartitionedCall/Const_38", "shape": [4, 2], "dtype": "int32"}, {"name": "PartitionedCall/PartitionedCall/PartitionedCall/transpose_91/perm", "shape": [4], "dtype": "int32"}, {"name": "PartitionedCall/PartitionedCall/PartitionedCall/Reshape_9", "shape": [3, 3, 184, 1], "dtype": "float32", "quantization": {"dtype": "float16", "original_dtype": "float32"}}, {"name": "unknown_85", "shape": [184], "dtype": "float32", "quantization": {"dtype": "float16", "original_dtype": "float32"}}, {"name": "PartitionedCall/PartitionedCall/PartitionedCall/transpose_92/perm", "shape": [4], "dtype": "int32"}, {"name": "PartitionedCall/PartitionedCall/PartitionedCall/onnx_tf_prefix_Constant_119", "shape": [], "dtype": "float32", "quantization": {"dtype": "float16", "original_dtype": "float32"}}, {"name": "PartitionedCall/PartitionedCall/PartitionedCall/clip_by_value_11/Minimum/y", "shape": [], "dtype": "float32", "quantization": {"dtype": "float16", "original_dtype": "float32"}}, {"name": "PartitionedCall/PartitionedCall/PartitionedCall/clip_by_value_11/y", "shape": [], "dtype": "float32", "quantization": {"dtype": "float16", "original_dtype": "float32"}}, {"name": "PartitionedCall/PartitionedCall/PartitionedCall/transpose_94/perm", "shape": [4], "dtype": "int32"}, {"name": "PartitionedCall/PartitionedCall/PartitionedCall/split_22", "shape": [1, 1, 184, 80], "dtype": "float32", "quantization": {"dtype": "float16", "original_dtype": "float32"}}, {"name": "unknown_88", "shape": [80], "dtype": "float32", "quantization": {"dtype": "float16", "original_dtype": "float32"}}, {"name": "PartitionedCall/PartitionedCall/PartitionedCall/transpose_95/perm", "shape": [4], "dtype": "int32"}, {"name": "PartitionedCall/PartitionedCall/PartitionedCall/transpose_97/perm", "shape": [4], "dtype": "int32"}, {"name": "PartitionedCall/PartitionedCall/PartitionedCall/split_23", "shape": [1, 1, 80, 480], "dtype": "float32", "quantization": {"dtype": "float16", "original_dtype": "float32"}}, {"name": "unknown_90", "shape": [480], "dtype": "float32", "quantization": {"dtype": "float16", "original_dtype": "float32"}}, {"name": "PartitionedCall/PartitionedCall/PartitionedCall/transpose_98/perm", "shape": [4], "dtype": "int32"}, {"name": "PartitionedCall/PartitionedCall/PartitionedCall/onnx_tf_prefix_Constant_127", "shape": [], "dtype": "float32", "quantization": {"dtype": "float16", "original_dtype": "float32"}}, {"name": "PartitionedCall/PartitionedCall/PartitionedCall/clip_by_value_12/Minimum/y", "shape": [], "dtype": "float32", "quantization": {"dtype": "float16", "original_dtype": "float32"}}, {"name": "PartitionedCall/PartitionedCall/PartitionedCall/clip_by_value_12/y", "shape": [], "dtype": "float32", "quantization": {"dtype": "float16", "original_dtype": "float32"}}, {"name": "PartitionedCall/PartitionedCall/PartitionedCall/Const_43", "shape": [4, 2], "dtype": "int32"}, {"name": "PartitionedCall/PartitionedCall/PartitionedCall/transpose_100/perm", "shape": [4], "dtype": "int32"}, {"name": "PartitionedCall/PartitionedCall/PartitionedCall/Reshape_10", "shape": [3, 3, 480, 1], "dtype": "float32", "quantization": {"dtype": "float16", "original_dtype": "float32"}}, {"name": "unknown_93", "shape": [480], "dtype": "float32", "quantization": {"dtype": "float16", "original_dtype": "float32"}}, {"name": "PartitionedCall/PartitionedCall/PartitionedCall/transpose_101/perm", "shape": [4], "dtype": "int32"}, {"name": "ConstantFolding/PartitionedCall/PartitionedCall/PartitionedCall/split_24-folded-1", "shape": [2], "dtype": "int32"}, {"name": "PartitionedCall/PartitionedCall/PartitionedCall/flatten_6/Const", "shape": [2], "dtype": "int32"}, {"name": "PartitionedCall/PartitionedCall/PartitionedCall/transpose_102", "shape": [480, 120], "dtype": "float32", "quantization": {"dtype": "float16", "original_dtype": "float32"}}, {"name": "PartitionedCall/PartitionedCall/PartitionedCall/mul_13", "shape": [120], "dtype": "float32", "quantization": {"dtype": "float16", "original_dtype": "float32"}}, {"name": "PartitionedCall/PartitionedCall/PartitionedCall/transpose_103", "shape": [120, 480], "dtype": "float32", "quantization": {"dtype": "float16", "original_dtype": "float32"}}, {"name": "PartitionedCall/PartitionedCall/PartitionedCall/add_46", "shape": [480], "dtype": "float32", "quantization": {"dtype": "float16", "original_dtype": "float32"}}, {"name": "PartitionedCall/PartitionedCall/PartitionedCall/clip_by_value_13/Minimum/y", "shape": [], "dtype": "float32", "quantization": {"dtype": "float16", "original_dtype": "float32"}}, {"name": "PartitionedCall/PartitionedCall/PartitionedCall/clip_by_value_13/y", "shape": [], "dtype": "float32", "quantization": {"dtype": "float16", "original_dtype": "float32"}}, {"name": "ConstantFolding/PartitionedCall/PartitionedCall/PartitionedCall/onnx_tf_prefix_Div_141_recip", "shape": [], "dtype": "float32", "quantization": {"dtype": "float16", "original_dtype": "float32"}}, {"name": "unknown_100", "shape": [4], "dtype": "int32"}, {"name": "PartitionedCall/PartitionedCall/PartitionedCall/Where_7", "shape": [0, 1], "dtype": "int32"}, {"name": "PartitionedCall/PartitionedCall/PartitionedCall/Cast_7", "shape": [1], "dtype": "int32"}, {"name": "PartitionedCall/PartitionedCall/PartitionedCall/GatherV2_7", "shape": [0], "dtype": "int32"}, {"name": "PartitionedCall/PartitionedCall/PartitionedCall/zeros_7", "shape": [], "dtype": "int32"}, {"name": "PartitionedCall/PartitionedCall/PartitionedCall/onnx_tf_prefix_Constant_144", "shape": [], "dtype": "float32", "quantization": {"dtype": "float16", "original_dtype": "float32"}}, {"name": "PartitionedCall/PartitionedCall/PartitionedCall/clip_by_value_14/Minimum/y", "shape": [], "dtype": "float32", "quantization": {"dtype": "float16", "original_dtype": "float32"}}, {"name": "PartitionedCall/PartitionedCall/PartitionedCall/clip_by_value_14/y", "shape": [], "dtype": "float32", "quantization": {"dtype": "float16", "original_dtype": "float32"}}, {"name": "PartitionedCall/PartitionedCall/PartitionedCall/transpose_105/perm", "shape": [4], "dtype": "int32"}, {"name": "PartitionedCall/PartitionedCall/PartitionedCall/split_25", "shape": [1, 1, 480, 112], "dtype": "float32", "quantization": {"dtype": "float16", "original_dtype": "float32"}}, {"name": "unknown_103", "shape": [112], "dtype": "float32", "quantization": {"dtype": "float16", "original_dtype": "float32"}}, {"name": "PartitionedCall/PartitionedCall/PartitionedCall/split_26", "shape": [1, 1, 112, 672], "dtype": "float32", "quantization": {"dtype": "float16", "original_dtype": "float32"}}, {"name": "unknown_105", "shape": [672], "dtype": "float32", "quantization": {"dtype": "float16", "original_dtype": "float32"}}, {"name": "PartitionedCall/PartitionedCall/PartitionedCall/transpose_109/perm", "shape": [4], "dtype": "int32"}, {"name": "PartitionedCall/PartitionedCall/PartitionedCall/onnx_tf_prefix_Constant_151", "shape": [], "dtype": "float32", "quantization": {"dtype": "float16", "original_dtype": "float32"}}, {"name": "PartitionedCall/PartitionedCall/PartitionedCall/clip_by_value_15/Minimum/y", "shape": [], "dtype": "float32", "quantization": {"dtype": "float16", "original_dtype": "float32"}}, {"name": "PartitionedCall/PartitionedCall/PartitionedCall/clip_by_value_15/y", "shape": [], "dtype": "float32", "quantization": {"dtype": "float16", "original_dtype": "float32"}}, {"name": "PartitionedCall/PartitionedCall/PartitionedCall/Const_52", "shape": [4, 2], "dtype": "int32"}, {"name": "PartitionedCall/PartitionedCall/PartitionedCall/transpose_111/perm", "shape": [4], "dtype": "int32"}, {"name": "PartitionedCall/PartitionedCall/PartitionedCall/Reshape_11", "shape": [3, 3, 672, 1], "dtype": "float32", "quantization": {"dtype": "float16", "original_dtype": "float32"}}, {"name": "unknown_108", "shape": [672], "dtype": "float32", "quantization": {"dtype": "float16", "original_dtype": "float32"}}, {"name": "PartitionedCall/PartitionedCall/PartitionedCall/transpose_112/perm", "shape": [4], "dtype": "int32"}, {"name": "ConstantFolding/PartitionedCall/PartitionedCall/PartitionedCall/split_27-folded-1", "shape": [2], "dtype": "int32"}, {"name": "PartitionedCall/PartitionedCall/PartitionedCall/flatten_8/Const", "shape": [2], "dtype": "int32"}, {"name": "PartitionedCall/PartitionedCall/PartitionedCall/transpose_113", "shape": [672, 168], "dtype": "float32", "quantization": {"dtype": "float16", "original_dtype": "float32"}}, {"name": "PartitionedCall/PartitionedCall/PartitionedCall/mul_17", "shape": [168], "dtype": "float32", "quantization": {"dtype": "float16", "original_dtype": "float32"}}, {"name": "PartitionedCall/PartitionedCall/PartitionedCall/transpose_114", "shape": [168, 672], "dtype": "float32", "quantization": {"dtype": "float16", "original_dtype": "float32"}}, {"name": "PartitionedCall/PartitionedCall/PartitionedCall/add_53", "shape": [672], "dtype": "float32", "quantization": {"dtype": "float16", "original_dtype": "float32"}}, {"name": "PartitionedCall/PartitionedCall/PartitionedCall/clip_by_value_16/Minimum/y", "shape": [], "dtype": "float32", "quantization": {"dtype": "float16", "original_dtype": "float32"}}, {"name": "PartitionedCall/PartitionedCall/PartitionedCall/clip_by_value_16/y", "shape": [], "dtype": "float32", "quantization": {"dtype": "float16", "original_dtype": "float32"}}, {"name": "ConstantFolding/PartitionedCall/PartitionedCall/PartitionedCall/onnx_tf_prefix_Div_165_recip", "shape": [], "dtype": "float32", "quantization": {"dtype": "float16", "original_dtype": "float32"}}, {"name": "unknown_115", "shape": [4], "dtype": "int32"}, {"name": "PartitionedCall/PartitionedCall/PartitionedCall/Where_9", "shape": [0, 1], "dtype": "int32"}, {"name": "PartitionedCall/PartitionedCall/PartitionedCall/Cast_9", "shape": [1], "dtype": "int32"}, {"name": "PartitionedCall/PartitionedCall/PartitionedCall/GatherV2_9", "shape": [0], "dtype": "int32"}, {"name": "PartitionedCall/PartitionedCall/PartitionedCall/zeros_9", "shape": [], "dtype": "int32"}, {"name": "PartitionedCall/PartitionedCall/PartitionedCall/onnx_tf_prefix_Constant_168", "shape": [], "dtype": "float32", "quantization": {"dtype": "float16", "original_dtype": "float32"}}, {"name": "PartitionedCall/PartitionedCall/PartitionedCall/clip_by_value_17/Minimum/y", "shape": [], "dtype": "float32", "quantization": {"dtype": "float16", "original_dtype": "float32"}}, {"name": "PartitionedCall/PartitionedCall/PartitionedCall/clip_by_value_17/y", "shape": [], "dtype": "float32", "quantization": {"dtype": "float16", "original_dtype": "float32"}}, {"name": "PartitionedCall/PartitionedCall/PartitionedCall/transpose_116/perm", "shape": [4], "dtype": "int32"}, {"name": "PartitionedCall/PartitionedCall/PartitionedCall/split_28", "shape": [1, 1, 672, 112], "dtype": "float32", "quantization": {"dtype": "float16", "original_dtype": "float32"}}, {"name": "unknown_118", "shape": [112], "dtype": "float32", "quantization": {"dtype": "float16", "original_dtype": "float32"}}, {"name": "PartitionedCall/PartitionedCall/PartitionedCall/transpose_117/perm", "shape": [4], "dtype": "int32"}, {"name": "PartitionedCall/PartitionedCall/PartitionedCall/transpose_119/perm", "shape": [4], "dtype": "int32"}, {"name": "PartitionedCall/PartitionedCall/PartitionedCall/split_29", "shape": [1, 1, 112, 672], "dtype": "float32", "quantization": {"dtype": "float16", "original_dtype": "float32"}}, {"name": "unknown_120", "shape": [672], "dtype": "float32", "quantization": {"dtype": "float16", "original_dtype": "float32"}}, {"name": "PartitionedCall/PartitionedCall/PartitionedCall/transpose_120/perm", "shape": [4], "dtype": "int32"}, {"name": "PartitionedCall/PartitionedCall/PartitionedCall/onnx_tf_prefix_Constant_176", "shape": [], "dtype": "float32", "quantization": {"dtype": "float16", "original_dtype": "float32"}}, {"name": "PartitionedCall/PartitionedCall/PartitionedCall/clip_by_value_18/Minimum/y", "shape": [], "dtype": "float32", "quantization": {"dtype": "float16", "original_dtype": "float32"}}, {"name": "PartitionedCall/PartitionedCall/PartitionedCall/clip_by_value_18/y", "shape": [], "dtype": "float32", "quantization": {"dtype": "float16", "original_dtype": "float32"}}, {"name": "PartitionedCall/PartitionedCall/PartitionedCall/Const_61", "shape": [4, 2], "dtype": "int32"}, {"name": "PartitionedCall/PartitionedCall/PartitionedCall/transpose_122/perm", "shape": [4], "dtype": "int32"}, {"name": "PartitionedCall/PartitionedCall/PartitionedCall/Reshape_12", "shape": [5, 5, 672, 1], "dtype": "float32", "quantization": {"dtype": "float16", "original_dtype": "float32"}}, {"name": "unknown_123", "shape": [672], "dtype": "float32", "quantization": {"dtype": "float16", "original_dtype": "float32"}}, {"name": "PartitionedCall/PartitionedCall/PartitionedCall/transpose_123/perm", "shape": [4], "dtype": "int32"}, {"name": "ConstantFolding/PartitionedCall/PartitionedCall/PartitionedCall/split_30-folded-1", "shape": [2], "dtype": "int32"}, {"name": "PartitionedCall/PartitionedCall/PartitionedCall/flatten_10/Const", "shape": [2], "dtype": "int32"}, {"name": "PartitionedCall/PartitionedCall/PartitionedCall/transpose_124", "shape": [672, 168], "dtype": "float32", "quantization": {"dtype": "float16", "original_dtype": "float32"}}, {"name": "PartitionedCall/PartitionedCall/PartitionedCall/mul_21", "shape": [168], "dtype": "float32", "quantization": {"dtype": "float16", "original_dtype": "float32"}}, {"name": "PartitionedCall/PartitionedCall/PartitionedCall/transpose_125", "shape": [168, 672], "dtype": "float32", "quantization": {"dtype": "float16", "original_dtype": "float32"}}, {"name": "PartitionedCall/PartitionedCall/PartitionedCall/add_60", "shape": [672], "dtype": "float32", "quantization": {"dtype": "float16", "original_dtype": "float32"}}, {"name": "PartitionedCall/PartitionedCall/PartitionedCall/clip_by_value_19/Minimum/y", "shape": [], "dtype": "float32", "quantization": {"dtype": "float16", "original_dtype": "float32"}}, {"name": "PartitionedCall/PartitionedCall/PartitionedCall/clip_by_value_19/y", "shape": [], "dtype": "float32", "quantization": {"dtype": "float16", "original_dtype": "float32"}}, {"name": "ConstantFolding/PartitionedCall/PartitionedCall/PartitionedCall/onnx_tf_prefix_Div_190_recip", "shape": [], "dtype": "float32", "quantization": {"dtype": "float16", "original_dtype": "float32"}}, {"name": "unknown_130", "shape": [4], "dtype": "int32"}, {"name": "PartitionedCall/PartitionedCall/PartitionedCall/Where_11", "shape": [0, 1], "dtype": "int32"}, {"name": "PartitionedCall/PartitionedCall/PartitionedCall/Cast_11", "shape": [1], "dtype": "int32"}, {"name": "PartitionedCall/PartitionedCall/PartitionedCall/GatherV2_11", "shape": [0], "dtype": "int32"}, {"name": "PartitionedCall/PartitionedCall/PartitionedCall/zeros_11", "shape": [], "dtype": "int32"}, {"name": "PartitionedCall/PartitionedCall/PartitionedCall/onnx_tf_prefix_Constant_193", "shape": [], "dtype": "float32", "quantization": {"dtype": "float16", "original_dtype": "float32"}}, {"name": "PartitionedCall/PartitionedCall/PartitionedCall/clip_by_value_20/Minimum/y", "shape": [], "dtype": "float32", "quantization": {"dtype": "float16", "original_dtype": "float32"}}, {"name": "PartitionedCall/PartitionedCall/PartitionedCall/clip_by_value_20/y", "shape": [], "dtype": "float32", "quantization": {"dtype": "float16", "original_dtype": "float32"}}, {"name": "PartitionedCall/PartitionedCall/PartitionedCall/transpose_127/perm", "shape": [4], "dtype": "int32"}, {"name": "PartitionedCall/PartitionedCall/PartitionedCall/split_31", "shape": [1, 1, 672, 160], "dtype": "float32", "quantization": {"dtype": "float16", "original_dtype": "float32"}}, {"name": "unknown_133", "shape": [160], "dtype": "float32", "quantization": {"dtype": "float16", "original_dtype": "float32"}}, {"name": "PartitionedCall/PartitionedCall/PartitionedCall/split_32", "shape": [1, 1, 160, 960], "dtype": "float32", "quantization": {"dtype": "float16", "original_dtype": "float32"}}, {"name": "unknown_135", "shape": [960], "dtype": "float32", "quantization": {"dtype": "float16", "original_dtype": "float32"}}, {"name": "PartitionedCall/PartitionedCall/PartitionedCall/transpose_131/perm", "shape": [4], "dtype": "int32"}, {"name": "PartitionedCall/PartitionedCall/PartitionedCall/onnx_tf_prefix_Constant_200", "shape": [], "dtype": "float32", "quantization": {"dtype": "float16", "original_dtype": "float32"}}, {"name": "PartitionedCall/PartitionedCall/PartitionedCall/clip_by_value_21/Minimum/y", "shape": [], "dtype": "float32", "quantization": {"dtype": "float16", "original_dtype": "float32"}}, {"name": "PartitionedCall/PartitionedCall/PartitionedCall/clip_by_value_21/y", "shape": [], "dtype": "float32", "quantization": {"dtype": "float16", "original_dtype": "float32"}}, {"name": "PartitionedCall/PartitionedCall/PartitionedCall/Const_70", "shape": [4, 2], "dtype": "int32"}, {"name": "PartitionedCall/PartitionedCall/PartitionedCall/transpose_133/perm", "shape": [4], "dtype": "int32"}, {"name": "PartitionedCall/PartitionedCall/PartitionedCall/Reshape_13", "shape": [5, 5, 960, 1], "dtype": "float32", "quantization": {"dtype": "float16", "original_dtype": "float32"}}, {"name": "unknown_138", "shape": [960], "dtype": "float32", "quantization": {"dtype": "float16", "original_dtype": "float32"}}, {"name": "PartitionedCall/PartitionedCall/PartitionedCall/transpose_134/perm", "shape": [4], "dtype": "int32"}, {"name": "ConstantFolding/PartitionedCall/PartitionedCall/PartitionedCall/split_33-folded-1", "shape": [2], "dtype": "int32"}, {"name": "PartitionedCall/PartitionedCall/PartitionedCall/flatten_12/Const", "shape": [2], "dtype": "int32"}, {"name": "PartitionedCall/PartitionedCall/PartitionedCall/transpose_135", "shape": [960, 240], "dtype": "float32", "quantization": {"dtype": "float16", "original_dtype": "float32"}}, {"name": "PartitionedCall/PartitionedCall/PartitionedCall/mul_25", "shape": [240], "dtype": "float32", "quantization": {"dtype": "float16", "original_dtype": "float32"}}, {"name": "PartitionedCall/PartitionedCall/PartitionedCall/transpose_136", "shape": [240, 960], "dtype": "float32", "quantization": {"dtype": "float16", "original_dtype": "float32"}}, {"name": "PartitionedCall/PartitionedCall/PartitionedCall/add_67", "shape": [960], "dtype": "float32", "quantization": {"dtype": "float16", "original_dtype": "float32"}}, {"name": "PartitionedCall/PartitionedCall/PartitionedCall/clip_by_value_22/Minimum/y", "shape": [], "dtype": "float32", "quantization": {"dtype": "float16", "original_dtype": "float32"}}, {"name": "PartitionedCall/PartitionedCall/PartitionedCall/clip_by_value_22/y", "shape": [], "dtype": "float32", "quantization": {"dtype": "float16", "original_dtype": "float32"}}, {"name": "ConstantFolding/PartitionedCall/PartitionedCall/PartitionedCall/onnx_tf_prefix_Div_214_recip", "shape": [], "dtype": "float32", "quantization": {"dtype": "float16", "original_dtype": "float32"}}, {"name": "unknown_145", "shape": [4], "dtype": "int32"}, {"name": "PartitionedCall/PartitionedCall/PartitionedCall/Where_13", "shape": [0, 1], "dtype": "int32"}, {"name": "PartitionedCall/PartitionedCall/PartitionedCall/Cast_13", "shape": [1], "dtype": "int32"}, {"name": "PartitionedCall/PartitionedCall/PartitionedCall/GatherV2_13", "shape": [0], "dtype": "int32"}, {"name": "PartitionedCall/PartitionedCall/PartitionedCall/zeros_13", "shape": [], "dtype": "int32"}, {"name": "PartitionedCall/PartitionedCall/PartitionedCall/onnx_tf_prefix_Constant_217", "shape": [], "dtype": "float32", "quantization": {"dtype": "float16", "original_dtype": "float32"}}, {"name": "PartitionedCall/PartitionedCall/PartitionedCall/clip_by_value_23/Minimum/y", "shape": [], "dtype": "float32", "quantization": {"dtype": "float16", "original_dtype": "float32"}}, {"name": "PartitionedCall/PartitionedCall/PartitionedCall/clip_by_value_23/y", "shape": [], "dtype": "float32", "quantization": {"dtype": "float16", "original_dtype": "float32"}}, {"name": "PartitionedCall/PartitionedCall/PartitionedCall/transpose_138/perm", "shape": [4], "dtype": "int32"}, {"name": "PartitionedCall/PartitionedCall/PartitionedCall/split_34", "shape": [1, 1, 960, 160], "dtype": "float32", "quantization": {"dtype": "float16", "original_dtype": "float32"}}, {"name": "unknown_148", "shape": [160], "dtype": "float32", "quantization": {"dtype": "float16", "original_dtype": "float32"}}, {"name": "PartitionedCall/PartitionedCall/PartitionedCall/transpose_139/perm", "shape": [4], "dtype": "int32"}, {"name": "PartitionedCall/PartitionedCall/PartitionedCall/transpose_141/perm", "shape": [4], "dtype": "int32"}, {"name": "PartitionedCall/PartitionedCall/PartitionedCall/split_35", "shape": [1, 1, 160, 960], "dtype": "float32", "quantization": {"dtype": "float16", "original_dtype": "float32"}}, {"name": "unknown_150", "shape": [960], "dtype": "float32", "quantization": {"dtype": "float16", "original_dtype": "float32"}}, {"name": "PartitionedCall/PartitionedCall/PartitionedCall/transpose_142/perm", "shape": [4], "dtype": "int32"}, {"name": "PartitionedCall/PartitionedCall/PartitionedCall/onnx_tf_prefix_Constant_225", "shape": [], "dtype": "float32", "quantization": {"dtype": "float16", "original_dtype": "float32"}}, {"name": "PartitionedCall/PartitionedCall/PartitionedCall/clip_by_value_24/Minimum/y", "shape": [], "dtype": "float32", "quantization": {"dtype": "float16", "original_dtype": "float32"}}, {"name": "PartitionedCall/PartitionedCall/PartitionedCall/clip_by_value_24/y", "shape": [], "dtype": "float32", "quantization": {"dtype": "float16", "original_dtype": "float32"}}, {"name": "PartitionedCall/PartitionedCall/PartitionedCall/Const_79", "shape": [4, 2], "dtype": "int32"}, {"name": "PartitionedCall/PartitionedCall/PartitionedCall/transpose_144/perm", "shape": [4], "dtype": "int32"}, {"name": "PartitionedCall/PartitionedCall/PartitionedCall/Reshape_14", "shape": [5, 5, 960, 1], "dtype": "float32", "quantization": {"dtype": "float16", "original_dtype": "float32"}}, {"name": "unknown_153", "shape": [960], "dtype": "float32", "quantization": {"dtype": "float16", "original_dtype": "float32"}}, {"name": "PartitionedCall/PartitionedCall/PartitionedCall/transpose_145/perm", "shape": [4], "dtype": "int32"}, {"name": "ConstantFolding/PartitionedCall/PartitionedCall/PartitionedCall/split_36-folded-1", "shape": [2], "dtype": "int32"}, {"name": "PartitionedCall/PartitionedCall/PartitionedCall/flatten_14/Const", "shape": [2], "dtype": "int32"}, {"name": "PartitionedCall/PartitionedCall/PartitionedCall/transpose_146", "shape": [960, 240], "dtype": "float32", "quantization": {"dtype": "float16", "original_dtype": "float32"}}, {"name": "PartitionedCall/PartitionedCall/PartitionedCall/mul_29", "shape": [240], "dtype": "float32", "quantization": {"dtype": "float16", "original_dtype": "float32"}}, {"name": "PartitionedCall/PartitionedCall/PartitionedCall/transpose_147", "shape": [240, 960], "dtype": "float32", "quantization": {"dtype": "float16", "original_dtype": "float32"}}, {"name": "PartitionedCall/PartitionedCall/PartitionedCall/add_74", "shape": [960], "dtype": "float32", "quantization": {"dtype": "float16", "original_dtype": "float32"}}, {"name": "PartitionedCall/PartitionedCall/PartitionedCall/clip_by_value_25/Minimum/y", "shape": [], "dtype": "float32", "quantization": {"dtype": "float16", "original_dtype": "float32"}}, {"name": "PartitionedCall/PartitionedCall/PartitionedCall/clip_by_value_25/y", "shape": [], "dtype": "float32", "quantization": {"dtype": "float16", "original_dtype": "float32"}}, {"name": "ConstantFolding/PartitionedCall/PartitionedCall/PartitionedCall/onnx_tf_prefix_Div_239_recip", "shape": [], "dtype": "float32", "quantization": {"dtype": "float16", "original_dtype": "float32"}}, {"name": "unknown_160", "shape": [4], "dtype": "int32"}, {"name": "PartitionedCall/PartitionedCall/PartitionedCall/Where_15", "shape": [0, 1], "dtype": "int32"}, {"name": "PartitionedCall/PartitionedCall/PartitionedCall/Cast_15", "shape": [1], "dtype": "int32"}, {"name": "PartitionedCall/PartitionedCall/PartitionedCall/GatherV2_15", "shape": [0], "dtype": "int32"}, {"name": "PartitionedCall/PartitionedCall/PartitionedCall/zeros_15", "shape": [], "dtype": "int32"}, {"name": "PartitionedCall/PartitionedCall/PartitionedCall/onnx_tf_prefix_Constant_242", "shape": [], "dtype": "float32", "quantization": {"dtype": "float16", "original_dtype": "float32"}}, {"name": "PartitionedCall/PartitionedCall/PartitionedCall/clip_by_value_26/Minimum/y", "shape": [], "dtype": "float32", "quantization": {"dtype": "float16", "original_dtype": "float32"}}, {"name": "PartitionedCall/PartitionedCall/PartitionedCall/clip_by_value_26/y", "shape": [], "dtype": "float32", "quantization": {"dtype": "float16", "original_dtype": "float32"}}, {"name": "PartitionedCall/PartitionedCall/PartitionedCall/transpose_149/perm", "shape": [4], "dtype": "int32"}, {"name": "PartitionedCall/PartitionedCall/PartitionedCall/split_37", "shape": [1, 1, 960, 160], "dtype": "float32", "quantization": {"dtype": "float16", "original_dtype": "float32"}}, {"name": "unknown_163", "shape": [160], "dtype": "float32", "quantization": {"dtype": "float16", "original_dtype": "float32"}}, {"name": "PartitionedCall/PartitionedCall/PartitionedCall/transpose_150/perm", "shape": [4], "dtype": "int32"}, {"name": "PartitionedCall/PartitionedCall/PartitionedCall/transpose_152/perm", "shape": [4], "dtype": "int32"}, {"name": "PartitionedCall/PartitionedCall/PartitionedCall/split_38", "shape": [1, 1, 160, 960], "dtype": "float32", "quantization": {"dtype": "float16", "original_dtype": "float32"}}, {"name": "unknown_165", "shape": [960], "dtype": "float32", "quantization": {"dtype": "float16", "original_dtype": "float32"}}, {"name": "PartitionedCall/PartitionedCall/PartitionedCall/transpose_153/perm", "shape": [4], "dtype": "int32"}, {"name": "PartitionedCall/PartitionedCall/PartitionedCall/onnx_tf_prefix_Constant_250", "shape": [], "dtype": "float32", "quantization": {"dtype": "float16", "original_dtype": "float32"}}, {"name": "PartitionedCall/PartitionedCall/PartitionedCall/clip_by_value_27/Minimum/y", "shape": [], "dtype": "float32", "quantization": {"dtype": "float16", "original_dtype": "float32"}}, {"name": "PartitionedCall/PartitionedCall/PartitionedCall/clip_by_value_27/y", "shape": [], "dtype": "float32", "quantization": {"dtype": "float16", "original_dtype": "float32"}}, {"name": "ConstantFolding/PartitionedCall/PartitionedCall/PartitionedCall/split_39-folded-1", "shape": [2], "dtype": "int32"}, {"name": "PartitionedCall/PartitionedCall/PartitionedCall/flatten_16/Const", "shape": [2], "dtype": "int32"}, {"name": "PartitionedCall/PartitionedCall/PartitionedCall/transpose_154", "shape": [960, 1280], "dtype": "float32", "quantization": {"dtype": "float16", "original_dtype": "float32"}}, {"name": "PartitionedCall/PartitionedCall/PartitionedCall/mul_33", "shape": [1280], "dtype": "float32", "quantization": {"dtype": "float16", "original_dtype": "float32"}}, {"name": "PartitionedCall/PartitionedCall/PartitionedCall/onnx_tf_prefix_Constant_258", "shape": [], "dtype": "float32", "quantization": {"dtype": "float16", "original_dtype": "float32"}}, {"name": "PartitionedCall/PartitionedCall/PartitionedCall/clip_by_value_28/Minimum/y", "shape": [], "dtype": "float32", "quantization": {"dtype": "float16", "original_dtype": "float32"}}, {"name": "PartitionedCall/PartitionedCall/PartitionedCall/clip_by_value_28/y", "shape": [], "dtype": "float32", "quantization": {"dtype": "float16", "original_dtype": "float32"}}, {"name": "PartitionedCall/PartitionedCall/PartitionedCall/transpose_155", "shape": [1280, 1280], "dtype": "float32", "quantization": {"dtype": "float16", "original_dtype": "float32"}}, {"name": "PartitionedCall/PartitionedCall/PartitionedCall/mul_35", "shape": [1280], "dtype": "float32", "quantization": {"dtype": "float16", "original_dtype": "float32"}}, {"name": "PartitionedCall/PartitionedCall/PartitionedCall/onnx_tf_prefix_ReduceL2_264/Sum/reduction_indices", "shape": [1], "dtype": "int32"}, {"name": "PartitionedCall/PartitionedCall/PartitionedCall/Const_92", "shape": [2], "dtype": "int32"}, {"name": "PartitionedCall/PartitionedCall/PartitionedCall/clip_by_value_29/y", "shape": [], "dtype": "float32", "quantization": {"dtype": "float16", "original_dtype": "float32"}}, {"name": "PartitionedCall/PartitionedCall/PartitionedCall/ArithmeticOptimizer/ReplaceMulWithBroadcastByTile_Const_mul_36", "shape": [2], "dtype": "int32"}]}]}